…
I1208 21:41:09.983541  1647 solver.cpp:81] Creating training net from train_net file: ResNet_50_train.prototxt
I1208 21:41:09.988916  1647 net.cpp:58] Initializing net from parameters: 
name: "ResNet-50"
state {
  phase: TRAIN
  level: 0
  stage: ""
}
layer {
  name: "data"
  type: "ImageData"
  top: "data"
  top: "label"
  transform_param {
    mirror: true
    crop_size: 224
    mean_value: 104
    mean_value: 117
    mean_value: 123
  }
  image_data_param {
    source: "/data/face_recongize/resnet/trainAll.list"
    batch_size: 50
    shuffle: true
    root_folder: "/data/msra_lfw/msra/MsCelebV1-Faces-Cropped_all_224x224/"
  }
}
layer {
  name: "conv1"
  type: "Convolution"
  bottom: "data"
  top: "conv1"
  convolution_param {
    num_output: 64
    bias_term: true
    pad: 3
    kernel_size: 7
    stride: 2
    weight_filler {
      type: "msra"
    }
  }
}
layer {
  name: "bn_conv1"
  type: "BatchNorm"
  bottom: "conv1"
  top: "conv1"
  batch_norm_param {
    use_global_stats: false
  }
}
layer {
  name: "scale_conv1"
  type: "Scale"
  bottom: "conv1"
  top: "conv1"
  scale_param {
    bias_term: true
  }
}
layer {
  name: "conv1_relu"
  type: "ReLU"
  bottom: "conv1"
  top: "conv1"
}
layer {
  name: "pool1"
  type: "Pooling"
  bottom: "conv1"
  top: "pool1"
  pooling_param {
    pool: MAX
    kernel_size: 3
    stride: 2
  }
}
layer {
  name: "res2a_branch1"
  type: "Convolution"
  bottom: "pool1"
  top: "res2a_branch1"
  convolution_param {
    num_output: 256
    bias_term: false
    pad: 0
    kernel_size: 1
    stride: 1
    weight_filler {
      type: "msra"
    }
  }
}
layer {
  name: "bn2a_branch1"
  type: "BatchNorm"
  bottom: "res2a_branch1"
  top: "res2a_branch1"
  batch_norm_param {
    use_global_stats: false
  }
}
layer {
  name: "scale2a_branch1"
  type: "Scale"
  bottom: "res2a_branch1"
  top: "res2a_branch1"
  scale_param {
    bias_term: true
  }
}
layer {
  name: "res2a_branch2a"
  type: "Convolution"
  bottom: "pool1"
  top: "res2a_branch2a"
  convolution_param {
    num_output: 64
    bias_term: false
    pad: 0
    kernel_size: 1
    stride: 1
    weight_filler {
      type: "msra"
    }
  }
}
layer {
  name: "bn2a_branch2a"
  type: "BatchNorm"
  bottom: "res2a_branch2a"
  top: "res2a_branch2a"
  batch_norm_param {
    use_global_stats: false
  }
}
layer {
  name: "scale2a_branch2a"
  type: "Scale"
  bottom: "res2a_branch2a"
  top: "res2a_branch2a"
  scale_param {
    bias_term: true
  }
}
layer {
  name: "res2a_branch2a_relu"
  type: "ReLU"
  bottom: "res2a_branch2a"
  top: "res2a_branch2a"
}
layer {
  name: "res2a_branch2b"
  type: "Convolution"
  bottom: "res2a_branch2a"
  top: "res2a_branch2b"
  convolution_param {
    num_output: 64
    bias_term: false
    pad: 1
    kernel_size: 3
    stride: 1
    weight_filler {
      type: "msra"
    }
  }
}
layer {
  name: "bn2a_branch2b"
  type: "BatchNorm"
  bottom: "res2a_branch2b"
  top: "res2a_branch2b"
  batch_norm_param {
    use_global_stats: false
  }
}
layer {
  name: "scale2a_branch2b"
  type: "Scale"
  bottom: "res2a_branch2b"
  top: "res2a_branch2b"
  scale_param {
    bias_term: true
  }
}
layer {
  name: "res2a_branch2b_relu"
  type: "ReLU"
  bottom: "res2a_branch2b"
  top: "res2a_branch2b"
}
layer {
  name: "res2a_branch2c"
  type: "Convolution"
  bottom: "res2a_branch2b"
  top: "res2a_branch2c"
  convolution_param {
    num_output: 256
    bias_term: false
    pad: 0
    kernel_size: 1
    stride: 1
    weight_filler {
      type: "msra"
    }
  }
}
layer {
  name: "bn2a_branch2c"
  type: "BatchNorm"
  bottom: "res2a_branch2c"
  top: "res2a_branch2c"
  batch_norm_param {
    use_global_stats: false
  }
}
layer {
  name: "scale2a_branch2c"
  type: "Scale"
  bottom: "res2a_branch2c"
  top: "res2a_branch2c"
  scale_param {
    bias_term: true
  }
}
layer {
  name: "res2a"
  type: "Eltwise"
  bottom: "res2a_branch1"
  bottom: "res2a_branch2c"
  top: "res2a"
  eltwise_param {
    operation: SUM
  }
}
layer {
  name: "res2a_relu"
  type: "ReLU"
  bottom: "res2a"
  top: "res2a"
}
layer {
  name: "res2b_branch2a"
  type: "Convolution"
  bottom: "res2a"
  top: "res2b_branch2a"
  convolution_param {
    num_output: 64
    bias_term: false
    pad: 0
    kernel_size: 1
    stride: 1
    weight_filler {
      type: "msra"
    }
  }
}
layer {
  name: "bn2b_branch2a"
  type: "BatchNorm"
  bottom: "res2b_branch2a"
  top: "res2b_branch2a"
  batch_norm_param {
    use_global_stats: false
  }
}
layer {
  name: "scale2b_branch2a"
  type: "Scale"
  bottom: "res2b_branch2a"
  top: "res2b_branch2a"
  scale_param {
    bias_term: true
  }
}
layer {
  name: "res2b_branch2a_relu"
  type: "ReLU"
  bottom: "res2b_branch2a"
  top: "res2b_branch2a"
}
layer {
  name: "res2b_branch2b"
  type: "Convolution"
  bottom: "res2b_branch2a"
  top: "res2b_branch2b"
  convolution_param {
    num_output: 64
    bias_term: false
    pad: 1
    kernel_size: 3
    stride: 1
    weight_filler {
      type: "msra"
    }
  }
}
layer {
  name: "bn2b_branch2b"
  type: "BatchNorm"
  bottom: "res2b_branch2b"
  top: "res2b_branch2b"
  batch_norm_param {
    use_global_stats: false
  }
}
layer {
  name: "scale2b_branch2b"
  type: "Scale"
  bottom: "res2b_branch2b"
  top: "res2b_branch2b"
  scale_param {
    bias_term: true
  }
}
layer {
  name: "res2b_branch2b_relu"
  type: "ReLU"
  bottom: "res2b_branch2b"
  top: "res2b_branch2b"
}
layer {
  name: "res2b_branch2c"
  type: "Convolution"
  bottom: "res2b_branch2b"
  top: "res2b_branch2c"
  convolution_param {
    num_output: 256
    bias_term: false
    pad: 0
    kernel_size: 1
    stride: 1
    weight_filler {
      type: "msra"
    }
  }
}
layer {
  name: "bn2b_branch2c"
  type: "BatchNorm"
  bottom: "res2b_branch2c"
  top: "res2b_branch2c"
  batch_norm_param {
    use_global_stats: false
  }
}
layer {
  name: "scale2b_branch2c"
  type: "Scale"
  bottom: "res2b_branch2c"
  top: "res2b_branch2c"
  scale_param {
    bias_term: true
  }
}
layer {
  name: "res2b"
  type: "Eltwise"
  bottom: "res2a"
  bottom: "res2b_branch2c"
  top: "res2b"
  eltwise_param {
    operation: SUM
  }
}
layer {
  name: "res2b_relu"
  type: "ReLU"
  bottom: "res2b"
  top: "res2b"
}
layer {
  name: "res2c_branch2a"
  type: "Convolution"
  bottom: "res2b"
  top: "res2c_branch2a"
  convolution_param {
    num_output: 64
    bias_term: false
    pad: 0
    kernel_size: 1
    stride: 1
    weight_filler {
      type: "msra"
    }
  }
}
layer {
  name: "bn2c_branch2a"
  type: "BatchNorm"
  bottom: "res2c_branch2a"
  top: "res2c_branch2a"
  batch_norm_param {
    use_global_stats: false
  }
}
layer {
  name: "scale2c_branch2a"
  type: "Scale"
  bottom: "res2c_branch2a"
  top: "res2c_branch2a"
  scale_param {
    bias_term: true
  }
}
layer {
  name: "res2c_branch2a_relu"
  type: "ReLU"
  bottom: "res2c_branch2a"
  top: "res2c_branch2a"
}
layer {
  name: "res2c_branch2b"
  type: "Convolution"
  bottom: "res2c_branch2a"
  top: "res2c_branch2b"
  convolution_param {
    num_output: 64
    bias_term: false
    pad: 1
    kernel_size: 3
    stride: 1
    weight_filler {
      type: "msra"
    }
  }
}
layer {
  name: "bn2c_branch2b"
  type: "BatchNorm"
  bottom: "res2c_branch2b"
  top: "res2c_branch2b"
  batch_norm_param {
    use_global_stats: false
  }
}
layer {
  name: "scale2c_branch2b"
  type: "Scale"
  bottom: "res2c_branch2b"
  top: "res2c_branch2b"
  scale_param {
    bias_term: true
  }
}
layer {
  name: "res2c_branch2b_relu"
  type: "ReLU"
  bottom: "res2c_branch2b"
  top: "res2c_branch2b"
}
layer {
  name: "res2c_branch2c"
  type: "Convolution"
  bottom: "res2c_branch2b"
  top: "res2c_branch2c"
  convolution_param {
    num_output: 256
    bias_term: false
    pad: 0
    kernel_size: 1
    stride: 1
    weight_filler {
      type: "msra"
    }
  }
}
layer {
  name: "bn2c_branch2c"
  type: "BatchNorm"
  bottom: "res2c_branch2c"
  top: "res2c_branch2c"
  batch_norm_param {
    use_global_stats: false
  }
}
layer {
  name: "scale2c_branch2c"
  type: "Scale"
  bottom: "res2c_branch2c"
  top: "res2c_branch2c"
  scale_param {
    bias_term: true
  }
}
layer {
  name: "res2c"
  type: "Eltwise"
  bottom: "res2b"
  bottom: "res2c_branch2c"
  top: "res2c"
  eltwise_param {
    operation: SUM
  }
}
layer {
  name: "res2c_relu"
  type: "ReLU"
  bottom: "res2c"
  top: "res2c"
}
layer {
  name: "res3a_branch1"
  type: "Convolution"
  bottom: "res2c"
  top: "res3a_branch1"
  convolution_param {
    num_output: 512
    bias_term: false
    pad: 0
    kernel_size: 1
    stride: 2
    weight_filler {
      type: "msra"
    }
  }
}
layer {
  name: "bn3a_branch1"
  type: "BatchNorm"
  bottom: "res3a_branch1"
  top: "res3a_branch1"
  batch_norm_param {
    use_global_stats: false
  }
}
layer {
  name: "scale3a_branch1"
  type: "Scale"
  bottom: "res3a_branch1"
  top: "res3a_branch1"
  scale_param {
    bias_term: true
  }
}
layer {
  name: "res3a_branch2a"
  type: "Convolution"
  bottom: "res2c"
  top: "res3a_branch2a"
  convolution_param {
    num_output: 128
    bias_term: false
    pad: 0
    kernel_size: 1
    stride: 2
    weight_filler {
      type: "msra"
    }
  }
}
layer {
  name: "bn3a_branch2a"
  type: "BatchNorm"
  bottom: "res3a_branch2a"
  top: "res3a_branch2a"
  batch_norm_param {
    use_global_stats: false
  }
}
layer {
  name: "scale3a_branch2a"
  type: "Scale"
  bottom: "res3a_branch2a"
  top: "res3a_branch2a"
  scale_param {
    bias_term: true
  }
}
layer {
  name: "res3a_branch2a_relu"
  type: "ReLU"
  bottom: "res3a_branch2a"
  top: "res3a_branch2a"
}
layer {
  name: "res3a_branch2b"
  type: "Convolution"
  bottom: "res3a_branch2a"
  top: "res3a_branch2b"
  convolution_param {
    num_output: 128
    bias_term: false
    pad: 1
    kernel_size: 3
    stride: 1
    weight_filler {
      type: "msra"
    }
  }
}
layer {
  name: "bn3a_branch2b"
  type: "BatchNorm"
  bottom: "res3a_branch2b"
  top: "res3a_branch2b"
  batch_norm_param {
    use_global_stats: false
  }
}
layer {
  name: "scale3a_branch2b"
  type: "Scale"
  bottom: "res3a_branch2b"
  top: "res3a_branch2b"
  scale_param {
    bias_term: true
  }
}
layer {
  name: "res3a_branch2b_relu"
  type: "ReLU"
  bottom: "res3a_branch2b"
  top: "res3a_branch2b"
}
layer {
  name: "res3a_branch2c"
  type: "Convolution"
  bottom: "res3a_branch2b"
  top: "res3a_branch2c"
  convolution_param {
    num_output: 512
    bias_term: false
    pad: 0
    kernel_size: 1
    stride: 1
    weight_filler {
      type: "msra"
    }
  }
}
layer {
  name: "bn3a_branch2c"
  type: "BatchNorm"
  bottom: "res3a_branch2c"
  top: "res3a_branch2c"
  batch_norm_param {
    use_global_stats: false
  }
}
layer {
  name: "scale3a_branch2c"
  type: "Scale"
  bottom: "res3a_branch2c"
  top: "res3a_branch2c"
  scale_param {
    bias_term: true
  }
}
layer {
  name: "res3a"
  type: "Eltwise"
  bottom: "res3a_branch1"
  bottom: "res3a_branch2c"
  top: "res3a"
  eltwise_param {
    operation: SUM
  }
}
layer {
  name: "res3a_relu"
  type: "ReLU"
  bottom: "res3a"
  top: "res3a"
}
layer {
  name: "res3b_branch2a"
  type: "Convolution"
  bottom: "res3a"
  top: "res3b_branch2a"
  convolution_param {
    num_output: 128
    bias_term: false
    pad: 0
    kernel_size: 1
    stride: 1
    weight_filler {
      type: "msra"
    }
  }
}
layer {
  name: "bn3b_branch2a"
  type: "BatchNorm"
  bottom: "res3b_branch2a"
  top: "res3b_branch2a"
  batch_norm_param {
    use_global_stats: false
  }
}
layer {
  name: "scale3b_branch2a"
  type: "Scale"
  bottom: "res3b_branch2a"
  top: "res3b_branch2a"
  scale_param {
    bias_term: true
  }
}
layer {
  name: "res3b_branch2a_relu"
  type: "ReLU"
  bottom: "res3b_branch2a"
  top: "res3b_branch2a"
}
layer {
  name: "res3b_branch2b"
  type: "Convolution"
  bottom: "res3b_branch2a"
  top: "res3b_branch2b"
  convolution_param {
    num_output: 128
    bias_term: false
    pad: 1
    kernel_size: 3
    stride: 1
    weight_filler {
      type: "msra"
    }
  }
}
layer {
  name: "bn3b_branch2b"
  type: "BatchNorm"
  bottom: "res3b_branch2b"
  top: "res3b_branch2b"
  batch_norm_param {
    use_global_stats: false
  }
}
layer {
  name: "scale3b_branch2b"
  type: "Scale"
  bottom: "res3b_branch2b"
  top: "res3b_branch2b"
  scale_param {
    bias_term: true
  }
}
layer {
  name: "res3b_branch2b_relu"
  type: "ReLU"
  bottom: "res3b_branch2b"
  top: "res3b_branch2b"
}
layer {
  name: "res3b_branch2c"
  type: "Convolution"
  bottom: "res3b_branch2b"
  top: "res3b_branch2c"
  convolution_param {
    num_output: 512
    bias_term: false
    pad: 0
    kernel_size: 1
    stride: 1
    weight_filler {
      type: "msra"
    }
  }
}
layer {
  name: "bn3b_branch2c"
  type: "BatchNorm"
  bottom: "res3b_branch2c"
  top: "res3b_branch2c"
  batch_norm_param {
    use_global_stats: false
  }
}
layer {
  name: "scale3b_branch2c"
  type: "Scale"
  bottom: "res3b_branch2c"
  top: "res3b_branch2c"
  scale_param {
    bias_term: true
  }
}
layer {
  name: "res3b"
  type: "Eltwise"
  bottom: "res3a"
  bottom: "res3b_branch2c"
  top: "res3b"
  eltwise_param {
    operation: SUM
  }
}
layer {
  name: "res3b_relu"
  type: "ReLU"
  bottom: "res3b"
  top: "res3b"
}
layer {
  name: "res3c_branch2a"
  type: "Convolution"
  bottom: "res3b"
  top: "res3c_branch2a"
  convolution_param {
    num_output: 128
    bias_term: false
    pad: 0
    kernel_size: 1
    stride: 1
    weight_filler {
      type: "msra"
    }
  }
}
layer {
  name: "bn3c_branch2a"
  type: "BatchNorm"
  bottom: "res3c_branch2a"
  top: "res3c_branch2a"
  batch_norm_param {
    use_global_stats: false
  }
}
layer {
  name: "scale3c_branch2a"
  type: "Scale"
  bottom: "res3c_branch2a"
  top: "res3c_branch2a"
  scale_param {
    bias_term: true
  }
}
layer {
  name: "res3c_branch2a_relu"
  type: "ReLU"
  bottom: "res3c_branch2a"
  top: "res3c_branch2a"
}
layer {
  name: "res3c_branch2b"
  type: "Convolution"
  bottom: "res3c_branch2a"
  top: "res3c_branch2b"
  convolution_param {
    num_output: 128
    bias_term: false
    pad: 1
    kernel_size: 3
    stride: 1
    weight_filler {
      type: "msra"
    }
  }
}
layer {
  name: "bn3c_branch2b"
  type: "BatchNorm"
  bottom: "res3c_branch2b"
  top: "res3c_branch2b"
  batch_norm_param {
    use_global_stats: false
  }
}
layer {
  name: "scale3c_branch2b"
  type: "Scale"
  bottom: "res3c_branch2b"
  top: "res3c_branch2b"
  scale_param {
    bias_term: true
  }
}
layer {
  name: "res3c_branch2b_relu"
  type: "ReLU"
  bottom: "res3c_branch2b"
  top: "res3c_branch2b"
}
layer {
  name: "res3c_branch2c"
  type: "Convolution"
  bottom: "res3c_branch2b"
  top: "res3c_branch2c"
  convolution_param {
    num_output: 512
    bias_term: false
    pad: 0
    kernel_size: 1
    stride: 1
    weight_filler {
      type: "msra"
    }
  }
}
layer {
  name: "bn3c_branch2c"
  type: "BatchNorm"
  bottom: "res3c_branch2c"
  top: "res3c_branch2c"
  batch_norm_param {
    use_global_stats: false
  }
}
layer {
  name: "scale3c_branch2c"
  type: "Scale"
  bottom: "res3c_branch2c"
  top: "res3c_branch2c"
  scale_param {
    bias_term: true
  }
}
layer {
  name: "res3c"
  type: "Eltwise"
  bottom: "res3b"
  bottom: "res3c_branch2c"
  top: "res3c"
  eltwise_param {
    operation: SUM
  }
}
layer {
  name: "res3c_relu"
  type: "ReLU"
  bottom: "res3c"
  top: "res3c"
}
layer {
  name: "res3d_branch2a"
  type: "Convolution"
  bottom: "res3c"
  top: "res3d_branch2a"
  convolution_param {
    num_output: 128
    bias_term: false
    pad: 0
    kernel_size: 1
    stride: 1
    weight_filler {
      type: "msra"
    }
  }
}
layer {
  name: "bn3d_branch2a"
  type: "BatchNorm"
  bottom: "res3d_branch2a"
  top: "res3d_branch2a"
  batch_norm_param {
    use_global_stats: false
  }
}
layer {
  name: "scale3d_branch2a"
  type: "Scale"
  bottom: "res3d_branch2a"
  top: "res3d_branch2a"
  scale_param {
    bias_term: true
  }
}
layer {
  name: "res3d_branch2a_relu"
  type: "ReLU"
  bottom: "res3d_branch2a"
  top: "res3d_branch2a"
}
layer {
  name: "res3d_branch2b"
  type: "Convolution"
  bottom: "res3d_branch2a"
  top: "res3d_branch2b"
  convolution_param {
    num_output: 128
    bias_term: false
    pad: 1
    kernel_size: 3
    stride: 1
    weight_filler {
      type: "msra"
    }
  }
}
layer {
  name: "bn3d_branch2b"
  type: "BatchNorm"
  bottom: "res3d_branch2b"
  top: "res3d_branch2b"
  batch_norm_param {
    use_global_stats: false
  }
}
layer {
  name: "scale3d_branch2b"
  type: "Scale"
  bottom: "res3d_branch2b"
  top: "res3d_branch2b"
  scale_param {
    bias_term: true
  }
}
layer {
  name: "res3d_branch2b_relu"
  type: "ReLU"
  bottom: "res3d_branch2b"
  top: "res3d_branch2b"
}
layer {
  name: "res3d_branch2c"
  type: "Convolution"
  bottom: "res3d_branch2b"
  top: "res3d_branch2c"
  convolution_param {
    num_output: 512
    bias_term: false
    pad: 0
    kernel_size: 1
    stride: 1
    weight_filler {
      type: "msra"
    }
  }
}
layer {
  name: "bn3d_branch2c"
  type: "BatchNorm"
  bottom: "res3d_branch2c"
  top: "res3d_branch2c"
  batch_norm_param {
    use_global_stats: false
  }
}
layer {
  name: "scale3d_branch2c"
  type: "Scale"
  bottom: "res3d_branch2c"
  top: "res3d_branch2c"
  scale_param {
    bias_term: true
  }
}
layer {
  name: "res3d"
  type: "Eltwise"
  bottom: "res3c"
  bottom: "res3d_branch2c"
  top: "res3d"
  eltwise_param {
    operation: SUM
  }
}
layer {
  name: "res3d_relu"
  type: "ReLU"
  bottom: "res3d"
  top: "res3d"
}
layer {
  name: "res4a_branch1"
  type: "Convolution"
  bottom: "res3d"
  top: "res4a_branch1"
  convolution_param {
    num_output: 1024
    bias_term: false
    pad: 0
    kernel_size: 1
    stride: 2
    weight_filler {
      type: "msra"
    }
  }
}
layer {
  name: "bn4a_branch1"
  type: "BatchNorm"
  bottom: "res4a_branch1"
  top: "res4a_branch1"
  batch_norm_param {
    use_global_stats: false
  }
}
layer {
  name: "scale4a_branch1"
  type: "Scale"
  bottom: "res4a_branch1"
  top: "res4a_branch1"
  scale_param {
    bias_term: true
  }
}
layer {
  name: "res4a_branch2a"
  type: "Convolution"
  bottom: "res3d"
  top: "res4a_branch2a"
  convolution_param {
    num_output: 256
    bias_term: false
    pad: 0
    kernel_size: 1
    stride: 2
    weight_filler {
      type: "msra"
    }
  }
}
layer {
  name: "bn4a_branch2a"
  type: "BatchNorm"
  bottom: "res4a_branch2a"
  top: "res4a_branch2a"
  batch_norm_param {
    use_global_stats: false
  }
}
layer {
  name: "scale4a_branch2a"
  type: "Scale"
  bottom: "res4a_branch2a"
  top: "res4a_branch2a"
  scale_param {
    bias_term: true
  }
}
layer {
  name: "res4a_branch2a_relu"
  type: "ReLU"
  bottom: "res4a_branch2a"
  top: "res4a_branch2a"
}
layer {
  name: "res4a_branch2b"
  type: "Convolution"
  bottom: "res4a_branch2a"
  top: "res4a_branch2b"
  convolution_param {
    num_output: 256
    bias_term: false
    pad: 1
    kernel_size: 3
    stride: 1
    weight_filler {
      type: "msra"
    }
  }
}
layer {
  name: "bn4a_branch2b"
  type: "BatchNorm"
  bottom: "res4a_branch2b"
  top: "res4a_branch2b"
  batch_norm_param {
    use_global_stats: false
  }
}
layer {
  name: "scale4a_branch2b"
  type: "Scale"
  bottom: "res4a_branch2b"
  top: "res4a_branch2b"
  scale_param {
    bias_term: true
  }
}
layer {
  name: "res4a_branch2b_relu"
  type: "ReLU"
  bottom: "res4a_branch2b"
  top: "res4a_branch2b"
}
layer {
  name: "res4a_branch2c"
  type: "Convolution"
  bottom: "res4a_branch2b"
  top: "res4a_branch2c"
  convolution_param {
    num_output: 1024
    bias_term: false
    pad: 0
    kernel_size: 1
    stride: 1
    weight_filler {
      type: "msra"
    }
  }
}
layer {
  name: "bn4a_branch2c"
  type: "BatchNorm"
  bottom: "res4a_branch2c"
  top: "res4a_branch2c"
  batch_norm_param {
    use_global_stats: false
  }
}
layer {
  name: "scale4a_branch2c"
  type: "Scale"
  bottom: "res4a_branch2c"
  top: "res4a_branch2c"
  scale_param {
    bias_term: true
  }
}
layer {
  name: "res4a"
  type: "Eltwise"
  bottom: "res4a_branch1"
  bottom: "res4a_branch2c"
  top: "res4a"
  eltwise_param {
    operation: SUM
  }
}
layer {
  name: "res4a_relu"
  type: "ReLU"
  bottom: "res4a"
  top: "res4a"
}
layer {
  name: "res4b_branch2a"
  type: "Convolution"
  bottom: "res4a"
  top: "res4b_branch2a"
  convolution_param {
    num_output: 256
    bias_term: false
    pad: 0
    kernel_size: 1
    stride: 1
    weight_filler {
      type: "msra"
    }
  }
}
layer {
  name: "bn4b_branch2a"
  type: "BatchNorm"
  bottom: "res4b_branch2a"
  top: "res4b_branch2a"
  batch_norm_param {
    use_global_stats: false
  }
}
layer {
  name: "scale4b_branch2a"
  type: "Scale"
  bottom: "res4b_branch2a"
  top: "res4b_branch2a"
  scale_param {
    bias_term: true
  }
}
layer {
  name: "res4b_branch2a_relu"
  type: "ReLU"
  bottom: "res4b_branch2a"
  top: "res4b_branch2a"
}
layer {
  name: "res4b_branch2b"
  type: "Convolution"
  bottom: "res4b_branch2a"
  top: "res4b_branch2b"
  convolution_param {
    num_output: 256
    bias_term: false
    pad: 1
    kernel_size: 3
    stride: 1
    weight_filler {
      type: "msra"
    }
  }
}
layer {
  name: "bn4b_branch2b"
  type: "BatchNorm"
  bottom: "res4b_branch2b"
  top: "res4b_branch2b"
  batch_norm_param {
    use_global_stats: false
  }
}
layer {
  name: "scale4b_branch2b"
  type: "Scale"
  bottom: "res4b_branch2b"
  top: "res4b_branch2b"
  scale_param {
    bias_term: true
  }
}
layer {
  name: "res4b_branch2b_relu"
  type: "ReLU"
  bottom: "res4b_branch2b"
  top: "res4b_branch2b"
}
layer {
  name: "res4b_branch2c"
  type: "Convolution"
  bottom: "res4b_branch2b"
  top: "res4b_branch2c"
  convolution_param {
    num_output: 1024
    bias_term: false
    pad: 0
    kernel_size: 1
    stride: 1
    weight_filler {
      type: "msra"
    }
  }
}
layer {
  name: "bn4b_branch2c"
  type: "BatchNorm"
  bottom: "res4b_branch2c"
  top: "res4b_branch2c"
  batch_norm_param {
    use_global_stats: false
  }
}
layer {
  name: "scale4b_branch2c"
  type: "Scale"
  bottom: "res4b_branch2c"
  top: "res4b_branch2c"
  scale_param {
    bias_term: true
  }
}
layer {
  name: "res4b"
  type: "Eltwise"
  bottom: "res4a"
  bottom: "res4b_branch2c"
  top: "res4b"
  eltwise_param {
    operation: SUM
  }
}
layer {
  name: "res4b_relu"
  type: "ReLU"
  bottom: "res4b"
  top: "res4b"
}
layer {
  name: "res4c_branch2a"
  type: "Convolution"
  bottom: "res4b"
  top: "res4c_branch2a"
  convolution_param {
    num_output: 256
    bias_term: false
    pad: 0
    kernel_size: 1
    stride: 1
    weight_filler {
      type: "msra"
    }
  }
}
layer {
  name: "bn4c_branch2a"
  type: "BatchNorm"
  bottom: "res4c_branch2a"
  top: "res4c_branch2a"
  batch_norm_param {
    use_global_stats: false
  }
}
layer {
  name: "scale4c_branch2a"
  type: "Scale"
  bottom: "res4c_branch2a"
  top: "res4c_branch2a"
  scale_param {
    bias_term: true
  }
}
layer {
  name: "res4c_branch2a_relu"
  type: "ReLU"
  bottom: "res4c_branch2a"
  top: "res4c_branch2a"
}
layer {
  name: "res4c_branch2b"
  type: "Convolution"
  bottom: "res4c_branch2a"
  top: "res4c_branch2b"
  convolution_param {
    num_output: 256
    bias_term: false
    pad: 1
    kernel_size: 3
    stride: 1
    weight_filler {
      type: "msra"
    }
  }
}
layer {
  name: "bn4c_branch2b"
  type: "BatchNorm"
  bottom: "res4c_branch2b"
  top: "res4c_branch2b"
  batch_norm_param {
    use_global_stats: false
  }
}
layer {
  name: "scale4c_branch2b"
  type: "Scale"
  bottom: "res4c_branch2b"
  top: "res4c_branch2b"
  scale_param {
    bias_term: true
  }
}
layer {
  name: "res4c_branch2b_relu"
  type: "ReLU"
  bottom: "res4c_branch2b"
  top: "res4c_branch2b"
}
layer {
  name: "res4c_branch2c"
  type: "Convolution"
  bottom: "res4c_branch2b"
  top: "res4c_branch2c"
  convolution_param {
    num_output: 1024
    bias_term: false
    pad: 0
    kernel_size: 1
    stride: 1
    weight_filler {
      type: "msra"
    }
  }
}
layer {
  name: "bn4c_branch2c"
  type: "BatchNorm"
  bottom: "res4c_branch2c"
  top: "res4c_branch2c"
  batch_norm_param {
    use_global_stats: false
  }
}
layer {
  name: "scale4c_branch2c"
  type: "Scale"
  bottom: "res4c_branch2c"
  top: "res4c_branch2c"
  scale_param {
    bias_term: true
  }
}
layer {
  name: "res4c"
  type: "Eltwise"
  bottom: "res4b"
  bottom: "res4c_branch2c"
  top: "res4c"
  eltwise_param {
    operation: SUM
  }
}
layer {
  name: "res4c_relu"
  type: "ReLU"
  bottom: "res4c"
  top: "res4c"
}
layer {
  name: "res4d_branch2a"
  type: "Convolution"
  bottom: "res4c"
  top: "res4d_branch2a"
  convolution_param {
    num_output: 256
    bias_term: false
    pad: 0
    kernel_size: 1
    stride: 1
    weight_filler {
      type: "msra"
    }
  }
}
layer {
  name: "bn4d_branch2a"
  type: "BatchNorm"
  bottom: "res4d_branch2a"
  top: "res4d_branch2a"
  batch_norm_param {
    use_global_stats: false
  }
}
layer {
  name: "scale4d_branch2a"
  type: "Scale"
  bottom: "res4d_branch2a"
  top: "res4d_branch2a"
  scale_param {
    bias_term: true
  }
}
layer {
  name: "res4d_branch2a_relu"
  type: "ReLU"
  bottom: "res4d_branch2a"
  top: "res4d_branch2a"
}
layer {
  name: "res4d_branch2b"
  type: "Convolution"
  bottom: "res4d_branch2a"
  top: "res4d_branch2b"
  convolution_param {
    num_output: 256
    bias_term: false
    pad: 1
    kernel_size: 3
    stride: 1
    weight_filler {
      type: "msra"
    }
  }
}
layer {
  name: "bn4d_branch2b"
  type: "BatchNorm"
  bottom: "res4d_branch2b"
  top: "res4d_branch2b"
  batch_norm_param {
    use_global_stats: false
  }
}
layer {
  name: "scale4d_branch2b"
  type: "Scale"
  bottom: "res4d_branch2b"
  top: "res4d_branch2b"
  scale_param {
    bias_term: true
  }
}
layer {
  name: "res4d_branch2b_relu"
  type: "ReLU"
  bottom: "res4d_branch2b"
  top: "res4d_branch2b"
}
layer {
  name: "res4d_branch2c"
  type: "Convolution"
  bottom: "res4d_branch2b"
  top: "res4d_branch2c"
  convolution_param {
    num_output: 1024
    bias_term: false
    pad: 0
    kernel_size: 1
    stride: 1
    weight_filler {
      type: "msra"
    }
  }
}
layer {
  name: "bn4d_branch2c"
  type: "BatchNorm"
  bottom: "res4d_branch2c"
  top: "res4d_branch2c"
  batch_norm_param {
    use_global_stats: false
  }
}
layer {
  name: "scale4d_branch2c"
  type: "Scale"
  bottom: "res4d_branch2c"
  top: "res4d_branch2c"
  scale_param {
    bias_term: true
  }
}
layer {
  name: "res4d"
  type: "Eltwise"
  bottom: "res4c"
  bottom: "res4d_branch2c"
  top: "res4d"
  eltwise_param {
    operation: SUM
  }
}
layer {
  name: "res4d_relu"
  type: "ReLU"
  bottom: "res4d"
  top: "res4d"
}
layer {
  name: "res4e_branch2a"
  type: "Convolution"
  bottom: "res4d"
  top: "res4e_branch2a"
  convolution_param {
    num_output: 256
    bias_term: false
    pad: 0
    kernel_size: 1
    stride: 1
    weight_filler {
      type: "msra"
    }
  }
}
layer {
  name: "bn4e_branch2a"
  type: "BatchNorm"
  bottom: "res4e_branch2a"
  top: "res4e_branch2a"
  batch_norm_param {
    use_global_stats: false
  }
}
layer {
  name: "scale4e_branch2a"
  type: "Scale"
  bottom: "res4e_branch2a"
  top: "res4e_branch2a"
  scale_param {
    bias_term: true
  }
}
layer {
  name: "res4e_branch2a_relu"
  type: "ReLU"
  bottom: "res4e_branch2a"
  top: "res4e_branch2a"
}
layer {
  name: "res4e_branch2b"
  type: "Convolution"
  bottom: "res4e_branch2a"
  top: "res4e_branch2b"
  convolution_param {
    num_output: 256
    bias_term: false
    pad: 1
    kernel_size: 3
    stride: 1
    weight_filler {
      type: "msra"
    }
  }
}
layer {
  name: "bn4e_branch2b"
  type: "BatchNorm"
  bottom: "res4e_branch2b"
  top: "res4e_branch2b"
  batch_norm_param {
    use_global_stats: false
  }
}
layer {
  name: "scale4e_branch2b"
  type: "Scale"
  bottom: "res4e_branch2b"
  top: "res4e_branch2b"
  scale_param {
    bias_term: true
  }
}
layer {
  name: "res4e_branch2b_relu"
  type: "ReLU"
  bottom: "res4e_branch2b"
  top: "res4e_branch2b"
}
layer {
  name: "res4e_branch2c"
  type: "Convolution"
  bottom: "res4e_branch2b"
  top: "res4e_branch2c"
  convolution_param {
    num_output: 1024
    bias_term: false
    pad: 0
    kernel_size: 1
    stride: 1
    weight_filler {
      type: "msra"
    }
  }
}
layer {
  name: "bn4e_branch2c"
  type: "BatchNorm"
  bottom: "res4e_branch2c"
  top: "res4e_branch2c"
  batch_norm_param {
    use_global_stats: false
  }
}
layer {
  name: "scale4e_branch2c"
  type: "Scale"
  bottom: "res4e_branch2c"
  top: "res4e_branch2c"
  scale_param {
    bias_term: true
  }
}
layer {
  name: "res4e"
  type: "Eltwise"
  bottom: "res4d"
  bottom: "res4e_branch2c"
  top: "res4e"
  eltwise_param {
    operation: SUM
  }
}
layer {
  name: "res4e_relu"
  type: "ReLU"
  bottom: "res4e"
  top: "res4e"
}
layer {
  name: "res4f_branch2a"
  type: "Convolution"
  bottom: "res4e"
  top: "res4f_branch2a"
  convolution_param {
    num_output: 256
    bias_term: false
    pad: 0
    kernel_size: 1
    stride: 1
    weight_filler {
      type: "msra"
    }
  }
}
layer {
  name: "bn4f_branch2a"
  type: "BatchNorm"
  bottom: "res4f_branch2a"
  top: "res4f_branch2a"
  batch_norm_param {
    use_global_stats: false
  }
}
layer {
  name: "scale4f_branch2a"
  type: "Scale"
  bottom: "res4f_branch2a"
  top: "res4f_branch2a"
  scale_param {
    bias_term: true
  }
}
layer {
  name: "res4f_branch2a_relu"
  type: "ReLU"
  bottom: "res4f_branch2a"
  top: "res4f_branch2a"
}
layer {
  name: "res4f_branch2b"
  type: "Convolution"
  bottom: "res4f_branch2a"
  top: "res4f_branch2b"
  convolution_param {
    num_output: 256
    bias_term: false
    pad: 1
    kernel_size: 3
    stride: 1
    weight_filler {
      type: "msra"
    }
  }
}
layer {
  name: "bn4f_branch2b"
  type: "BatchNorm"
  bottom: "res4f_branch2b"
  top: "res4f_branch2b"
  batch_norm_param {
    use_global_stats: false
  }
}
layer {
  name: "scale4f_branch2b"
  type: "Scale"
  bottom: "res4f_branch2b"
  top: "res4f_branch2b"
  scale_param {
    bias_term: true
  }
}
layer {
  name: "res4f_branch2b_relu"
  type: "ReLU"
  bottom: "res4f_branch2b"
  top: "res4f_branch2b"
}
layer {
  name: "res4f_branch2c"
  type: "Convolution"
  bottom: "res4f_branch2b"
  top: "res4f_branch2c"
  convolution_param {
    num_output: 1024
    bias_term: false
    pad: 0
    kernel_size: 1
    stride: 1
    weight_filler {
      type: "m
I1208 21:41:09.990443  1647 layer_factory.hpp:77] Creating layer data
I1208 21:41:09.990536  1647 net.cpp:100] Creating Layer data
I1208 21:41:09.990600  1647 net.cpp:408] data -> data
I1208 21:41:09.990689  1647 net.cpp:408] data -> label
I1208 21:41:09.991330  1647 image_data_layer.cpp:38] Opening file /data/face_recongize/resnet/trainAll.list
I1208 21:41:11.542323  1647 image_data_layer.cpp:53] Shuffling data
I1208 21:41:12.708307  1647 image_data_layer.cpp:58] A total of 4008201 images.
I1208 21:41:12.743446  1647 image_data_layer.cpp:85] output data size: 50,3,224,224
I1208 21:41:12.852880  1647 net.cpp:150] Setting up data
I1208 21:41:12.853142  1647 net.cpp:157] Top shape: 50 3 224 224 (7526400)
I1208 21:41:12.853188  1647 net.cpp:157] Top shape: 50 (50)
I1208 21:41:12.853197  1647 net.cpp:165] Memory required for data: 30105800
I1208 21:41:12.853214  1647 layer_factory.hpp:77] Creating layer label_data_1_split
I1208 21:41:12.853250  1647 net.cpp:100] Creating Layer label_data_1_split
I1208 21:41:12.853271  1647 net.cpp:434] label_data_1_split <- label
I1208 21:41:12.853298  1647 net.cpp:408] label_data_1_split -> label_data_1_split_0
I1208 21:41:12.853327  1647 net.cpp:408] label_data_1_split -> label_data_1_split_1
I1208 21:41:12.853449  1647 net.cpp:150] Setting up label_data_1_split
I1208 21:41:12.853471  1647 net.cpp:157] Top shape: 50 (50)
I1208 21:41:12.853480  1647 net.cpp:157] Top shape: 50 (50)
I1208 21:41:12.853494  1647 net.cpp:165] Memory required for data: 30106200
I1208 21:41:12.853502  1647 layer_factory.hpp:77] Creating layer conv1
I1208 21:41:12.853585  1647 net.cpp:100] Creating Layer conv1
I1208 21:41:12.853605  1647 net.cpp:434] conv1 <- data
I1208 21:41:12.853619  1647 net.cpp:408] conv1 -> conv1
I1208 21:41:13.614377  1647 net.cpp:150] Setting up conv1
I1208 21:41:13.614430  1647 net.cpp:157] Top shape: 50 64 112 112 (40140800)
I1208 21:41:13.614442  1647 net.cpp:165] Memory required for data: 190669400
I1208 21:41:13.614542  1647 layer_factory.hpp:77] Creating layer bn_conv1
I1208 21:41:13.614600  1647 net.cpp:100] Creating Layer bn_conv1
I1208 21:41:13.614651  1647 net.cpp:434] bn_conv1 <- conv1
I1208 21:41:13.614662  1647 net.cpp:395] bn_conv1 -> conv1 (in-place)
I1208 21:41:13.615088  1647 net.cpp:150] Setting up bn_conv1
I1208 21:41:13.615125  1647 net.cpp:157] Top shape: 50 64 112 112 (40140800)
I1208 21:41:13.615141  1647 net.cpp:165] Memory required for data: 351232600
I1208 21:41:13.615166  1647 layer_factory.hpp:77] Creating layer scale_conv1
I1208 21:41:13.615226  1647 net.cpp:100] Creating Layer scale_conv1
I1208 21:41:13.615247  1647 net.cpp:434] scale_conv1 <- conv1
I1208 21:41:13.615262  1647 net.cpp:395] scale_conv1 -> conv1 (in-place)
I1208 21:41:13.615356  1647 layer_factory.hpp:77] Creating layer scale_conv1
I1208 21:41:13.615685  1647 net.cpp:150] Setting up scale_conv1
I1208 21:41:13.615711  1647 net.cpp:157] Top shape: 50 64 112 112 (40140800)
I1208 21:41:13.615733  1647 net.cpp:165] Memory required for data: 511795800
I1208 21:41:13.615759  1647 layer_factory.hpp:77] Creating layer conv1_relu
I1208 21:41:13.615830  1647 net.cpp:100] Creating Layer conv1_relu
I1208 21:41:13.615849  1647 net.cpp:434] conv1_relu <- conv1
I1208 21:41:13.615865  1647 net.cpp:395] conv1_relu -> conv1 (in-place)
I1208 21:41:13.616128  1647 net.cpp:150] Setting up conv1_relu
I1208 21:41:13.616156  1647 net.cpp:157] Top shape: 50 64 112 112 (40140800)
I1208 21:41:13.616170  1647 net.cpp:165] Memory required for data: 672359000
I1208 21:41:13.616183  1647 layer_factory.hpp:77] Creating layer pool1
I1208 21:41:13.616241  1647 net.cpp:100] Creating Layer pool1
I1208 21:41:13.616261  1647 net.cpp:434] pool1 <- conv1
I1208 21:41:13.616278  1647 net.cpp:408] pool1 -> pool1
I1208 21:41:13.616369  1647 net.cpp:150] Setting up pool1
I1208 21:41:13.616390  1647 net.cpp:157] Top shape: 50 64 56 56 (10035200)
I1208 21:41:13.616405  1647 net.cpp:165] Memory required for data: 712499800
I1208 21:41:13.616417  1647 layer_factory.hpp:77] Creating layer pool1_pool1_0_split
I1208 21:41:13.616434  1647 net.cpp:100] Creating Layer pool1_pool1_0_split
I1208 21:41:13.616447  1647 net.cpp:434] pool1_pool1_0_split <- pool1
I1208 21:41:13.616463  1647 net.cpp:408] pool1_pool1_0_split -> pool1_pool1_0_split_0
I1208 21:41:13.616480  1647 net.cpp:408] pool1_pool1_0_split -> pool1_pool1_0_split_1
I1208 21:41:13.616540  1647 net.cpp:150] Setting up pool1_pool1_0_split
I1208 21:41:13.616560  1647 net.cpp:157] Top shape: 50 64 56 56 (10035200)
I1208 21:41:13.616575  1647 net.cpp:157] Top shape: 50 64 56 56 (10035200)
I1208 21:41:13.616587  1647 net.cpp:165] Memory required for data: 792781400
I1208 21:41:13.616600  1647 layer_factory.hpp:77] Creating layer res2a_branch1
I1208 21:41:13.616623  1647 net.cpp:100] Creating Layer res2a_branch1
I1208 21:41:13.616647  1647 net.cpp:434] res2a_branch1 <- pool1_pool1_0_split_0
I1208 21:41:13.616667  1647 net.cpp:408] res2a_branch1 -> res2a_branch1
I1208 21:41:13.619784  1647 net.cpp:150] Setting up res2a_branch1
I1208 21:41:13.619827  1647 net.cpp:157] Top shape: 50 256 56 56 (40140800)
I1208 21:41:13.619843  1647 net.cpp:165] Memory required for data: 953344600
I1208 21:41:13.619860  1647 layer_factory.hpp:77] Creating layer bn2a_branch1
I1208 21:41:13.619879  1647 net.cpp:100] Creating Layer bn2a_branch1
I1208 21:41:13.619894  1647 net.cpp:434] bn2a_branch1 <- res2a_branch1
I1208 21:41:13.619910  1647 net.cpp:395] bn2a_branch1 -> res2a_branch1 (in-place)
I1208 21:41:13.624575  1647 net.cpp:150] Setting up bn2a_branch1
I1208 21:41:13.624615  1647 net.cpp:157] Top shape: 50 256 56 56 (40140800)
I1208 21:41:13.624631  1647 net.cpp:165] Memory required for data: 1113907800
I1208 21:41:13.624665  1647 layer_factory.hpp:77] Creating layer scale2a_branch1
I1208 21:41:13.624686  1647 net.cpp:100] Creating Layer scale2a_branch1
I1208 21:41:13.624701  1647 net.cpp:434] scale2a_branch1 <- res2a_branch1
I1208 21:41:13.624716  1647 net.cpp:395] scale2a_branch1 -> res2a_branch1 (in-place)
I1208 21:41:13.624783  1647 layer_factory.hpp:77] Creating layer scale2a_branch1
I1208 21:41:13.624933  1647 net.cpp:150] Setting up scale2a_branch1
I1208 21:41:13.625051  1647 net.cpp:157] Top shape: 50 256 56 56 (40140800)
I1208 21:41:13.625110  1647 net.cpp:165] Memory required for data: 1274471000
I1208 21:41:13.625130  1647 layer_factory.hpp:77] Creating layer res2a_branch2a
I1208 21:41:13.625151  1647 net.cpp:100] Creating Layer res2a_branch2a
I1208 21:41:13.625165  1647 net.cpp:434] res2a_branch2a <- pool1_pool1_0_split_1
I1208 21:41:13.625183  1647 net.cpp:408] res2a_branch2a -> res2a_branch2a
I1208 21:41:13.627753  1647 net.cpp:150] Setting up res2a_branch2a
I1208 21:41:13.627859  1647 net.cpp:157] Top shape: 50 64 56 56 (10035200)
I1208 21:41:13.627876  1647 net.cpp:165] Memory required for data: 1314611800
I1208 21:41:13.627899  1647 layer_factory.hpp:77] Creating layer bn2a_branch2a
I1208 21:41:13.627926  1647 net.cpp:100] Creating Layer bn2a_branch2a
I1208 21:41:13.627943  1647 net.cpp:434] bn2a_branch2a <- res2a_branch2a
I1208 21:41:13.627981  1647 net.cpp:395] bn2a_branch2a -> res2a_branch2a (in-place)
I1208 21:41:13.628648  1647 net.cpp:150] Setting up bn2a_branch2a
I1208 21:41:13.628691  1647 net.cpp:157] Top shape: 50 64 56 56 (10035200)
I1208 21:41:13.628716  1647 net.cpp:165] Memory required for data: 1354752600
I1208 21:41:13.628762  1647 layer_factory.hpp:77] Creating layer scale2a_branch2a
I1208 21:41:13.628796  1647 net.cpp:100] Creating Layer scale2a_branch2a
I1208 21:41:13.628823  1647 net.cpp:434] scale2a_branch2a <- res2a_branch2a
I1208 21:41:13.628851  1647 net.cpp:395] scale2a_branch2a -> res2a_branch2a (in-place)
I1208 21:41:13.628970  1647 layer_factory.hpp:77] Creating layer scale2a_branch2a
I1208 21:41:13.629256  1647 net.cpp:150] Setting up scale2a_branch2a
I1208 21:41:13.629295  1647 net.cpp:157] Top shape: 50 64 56 56 (10035200)
I1208 21:41:13.629319  1647 net.cpp:165] Memory required for data: 1394893400
I1208 21:41:13.629349  1647 layer_factory.hpp:77] Creating layer res2a_branch2a_relu
I1208 21:41:13.629379  1647 net.cpp:100] Creating Layer res2a_branch2a_relu
I1208 21:41:13.629405  1647 net.cpp:434] res2a_branch2a_relu <- res2a_branch2a
I1208 21:41:13.629431  1647 net.cpp:395] res2a_branch2a_relu -> res2a_branch2a (in-place)
I1208 21:41:13.629847  1647 net.cpp:150] Setting up res2a_branch2a_relu
I1208 21:41:13.629891  1647 net.cpp:157] Top shape: 50 64 56 56 (10035200)
I1208 21:41:13.629915  1647 net.cpp:165] Memory required for data: 1435034200
I1208 21:41:13.629940  1647 layer_factory.hpp:77] Creating layer res2a_branch2b
I1208 21:41:13.630008  1647 net.cpp:100] Creating Layer res2a_branch2b
I1208 21:41:13.630035  1647 net.cpp:434] res2a_branch2b <- res2a_branch2a
I1208 21:41:13.630107  1647 net.cpp:408] res2a_branch2b -> res2a_branch2b
I1208 21:41:13.651125  1647 net.cpp:150] Setting up res2a_branch2b
I1208 21:41:13.651192  1647 net.cpp:157] Top shape: 50 64 56 56 (10035200)
I1208 21:41:13.651216  1647 net.cpp:165] Memory required for data: 1475175000
I1208 21:41:13.651242  1647 layer_factory.hpp:77] Creating layer bn2a_branch2b
I1208 21:41:13.651274  1647 net.cpp:100] Creating Layer bn2a_branch2b
I1208 21:41:13.651298  1647 net.cpp:434] bn2a_branch2b <- res2a_branch2b
I1208 21:41:13.651322  1647 net.cpp:395] bn2a_branch2b -> res2a_branch2b (in-place)
I1208 21:41:13.651756  1647 net.cpp:150] Setting up bn2a_branch2b
I1208 21:41:13.651792  1647 net.cpp:157] Top shape: 50 64 56 56 (10035200)
I1208 21:41:13.651810  1647 net.cpp:165] Memory required for data: 1515315800
I1208 21:41:13.651839  1647 layer_factory.hpp:77] Creating layer scale2a_branch2b
I1208 21:41:13.651865  1647 net.cpp:100] Creating Layer scale2a_branch2b
I1208 21:41:13.651886  1647 net.cpp:434] scale2a_branch2b <- res2a_branch2b
I1208 21:41:13.651911  1647 net.cpp:395] scale2a_branch2b -> res2a_branch2b (in-place)
I1208 21:41:13.652041  1647 layer_factory.hpp:77] Creating layer scale2a_branch2b
I1208 21:41:13.652278  1647 net.cpp:150] Setting up scale2a_branch2b
I1208 21:41:13.652309  1647 net.cpp:157] Top shape: 50 64 56 56 (10035200)
I1208 21:41:13.652328  1647 net.cpp:165] Memory required for data: 1555456600
I1208 21:41:13.652354  1647 layer_factory.hpp:77] Creating layer res2a_branch2b_relu
I1208 21:41:13.652498  1647 net.cpp:100] Creating Layer res2a_branch2b_relu
I1208 21:41:13.652524  1647 net.cpp:434] res2a_branch2b_relu <- res2a_branch2b
I1208 21:41:13.652549  1647 net.cpp:395] res2a_branch2b_relu -> res2a_branch2b (in-place)
I1208 21:41:13.654927  1647 net.cpp:150] Setting up res2a_branch2b_relu
I1208 21:41:13.655026  1647 net.cpp:157] Top shape: 50 64 56 56 (10035200)
I1208 21:41:13.655050  1647 net.cpp:165] Memory required for data: 1595597400
I1208 21:41:13.655071  1647 layer_factory.hpp:77] Creating layer res2a_branch2c
I1208 21:41:13.655103  1647 net.cpp:100] Creating Layer res2a_branch2c
I1208 21:41:13.655125  1647 net.cpp:434] res2a_branch2c <- res2a_branch2b
I1208 21:41:13.655151  1647 net.cpp:408] res2a_branch2c -> res2a_branch2c
I1208 21:41:13.665215  1647 net.cpp:150] Setting up res2a_branch2c
I1208 21:41:13.665284  1647 net.cpp:157] Top shape: 50 256 56 56 (40140800)
I1208 21:41:13.665320  1647 net.cpp:165] Memory required for data: 1756160600
I1208 21:41:13.665367  1647 layer_factory.hpp:77] Creating layer bn2a_branch2c
I1208 21:41:13.665410  1647 net.cpp:100] Creating Layer bn2a_branch2c
I1208 21:41:13.665458  1647 net.cpp:434] bn2a_branch2c <- res2a_branch2c
I1208 21:41:13.665493  1647 net.cpp:395] bn2a_branch2c -> res2a_branch2c (in-place)
I1208 21:41:13.665859  1647 net.cpp:150] Setting up bn2a_branch2c
I1208 21:41:13.665894  1647 net.cpp:157] Top shape: 50 256 56 56 (40140800)
I1208 21:41:13.665912  1647 net.cpp:165] Memory required for data: 1916723800
I1208 21:41:13.665941  1647 layer_factory.hpp:77] Creating layer scale2a_branch2c
I1208 21:41:13.665966  1647 net.cpp:100] Creating Layer scale2a_branch2c
I1208 21:41:13.665985  1647 net.cpp:434] scale2a_branch2c <- res2a_branch2c
I1208 21:41:13.666007  1647 net.cpp:395] scale2a_branch2c -> res2a_branch2c (in-place)
I1208 21:41:13.666116  1647 layer_factory.hpp:77] Creating layer scale2a_branch2c
I1208 21:41:13.666342  1647 net.cpp:150] Setting up scale2a_branch2c
I1208 21:41:13.666373  1647 net.cpp:157] Top shape: 50 256 56 56 (40140800)
I1208 21:41:13.666390  1647 net.cpp:165] Memory required for data: 2077287000
I1208 21:41:13.666414  1647 layer_factory.hpp:77] Creating layer res2a
I1208 21:41:13.666456  1647 net.cpp:100] Creating Layer res2a
I1208 21:41:13.666479  1647 net.cpp:434] res2a <- res2a_branch1
I1208 21:41:13.666505  1647 net.cpp:434] res2a <- res2a_branch2c
I1208 21:41:13.666529  1647 net.cpp:408] res2a -> res2a
I1208 21:41:13.666617  1647 net.cpp:150] Setting up res2a
I1208 21:41:13.666656  1647 net.cpp:157] Top shape: 50 256 56 56 (40140800)
I1208 21:41:13.666676  1647 net.cpp:165] Memory required for data: 2237850200
I1208 21:41:13.666693  1647 layer_factory.hpp:77] Creating layer res2a_relu
I1208 21:41:13.666716  1647 net.cpp:100] Creating Layer res2a_relu
I1208 21:41:13.666734  1647 net.cpp:434] res2a_relu <- res2a
I1208 21:41:13.666756  1647 net.cpp:395] res2a_relu -> res2a (in-place)
I1208 21:41:13.668686  1647 net.cpp:150] Setting up res2a_relu
I1208 21:41:13.668735  1647 net.cpp:157] Top shape: 50 256 56 56 (40140800)
I1208 21:41:13.668756  1647 net.cpp:165] Memory required for data: 2398413400
I1208 21:41:13.668774  1647 layer_factory.hpp:77] Creating layer res2a_res2a_relu_0_split
I1208 21:41:13.668810  1647 net.cpp:100] Creating Layer res2a_res2a_relu_0_split
I1208 21:41:13.668829  1647 net.cpp:434] res2a_res2a_relu_0_split <- res2a
I1208 21:41:13.668853  1647 net.cpp:408] res2a_res2a_relu_0_split -> res2a_res2a_relu_0_split_0
I1208 21:41:13.668880  1647 net.cpp:408] res2a_res2a_relu_0_split -> res2a_res2a_relu_0_split_1
I1208 21:41:13.668967  1647 net.cpp:150] Setting up res2a_res2a_relu_0_split
I1208 21:41:13.668992  1647 net.cpp:157] Top shape: 50 256 56 56 (40140800)
I1208 21:41:13.669013  1647 net.cpp:157] Top shape: 50 256 56 56 (40140800)
I1208 21:41:13.669029  1647 net.cpp:165] Memory required for data: 2719539800
I1208 21:41:13.669047  1647 layer_factory.hpp:77] Creating layer res2b_branch2a
I1208 21:41:13.669075  1647 net.cpp:100] Creating Layer res2b_branch2a
I1208 21:41:13.669162  1647 net.cpp:434] res2b_branch2a <- res2a_res2a_relu_0_split_0
I1208 21:41:13.669250  1647 net.cpp:408] res2b_branch2a -> res2b_branch2a
I1208 21:41:13.672749  1647 net.cpp:150] Setting up res2b_branch2a
I1208 21:41:13.672798  1647 net.cpp:157] Top shape: 50 64 56 56 (10035200)
I1208 21:41:13.672818  1647 net.cpp:165] Memory required for data: 2759680600
I1208 21:41:13.672840  1647 layer_factory.hpp:77] Creating layer bn2b_branch2a
I1208 21:41:13.672873  1647 net.cpp:100] Creating Layer bn2b_branch2a
I1208 21:41:13.672894  1647 net.cpp:434] bn2b_branch2a <- res2b_branch2a
I1208 21:41:13.672916  1647 net.cpp:395] bn2b_branch2a -> res2b_branch2a (in-place)
I1208 21:41:13.673233  1647 net.cpp:150] Setting up bn2b_branch2a
I1208 21:41:13.673260  1647 net.cpp:157] Top shape: 50 64 56 56 (10035200)
I1208 21:41:13.673277  1647 net.cpp:165] Memory required for data: 2799821400
I1208 21:41:13.673312  1647 layer_factory.hpp:77] Creating layer scale2b_branch2a
I1208 21:41:13.673336  1647 net.cpp:100] Creating Layer scale2b_branch2a
I1208 21:41:13.673353  1647 net.cpp:434] scale2b_branch2a <- res2b_branch2a
I1208 21:41:13.673374  1647 net.cpp:395] scale2b_branch2a -> res2b_branch2a (in-place)
I1208 21:41:13.673457  1647 layer_factory.hpp:77] Creating layer scale2b_branch2a
I1208 21:41:13.673681  1647 net.cpp:150] Setting up scale2b_branch2a
I1208 21:41:13.673712  1647 net.cpp:157] Top shape: 50 64 56 56 (10035200)
I1208 21:41:13.673728  1647 net.cpp:165] Memory required for data: 2839962200
I1208 21:41:13.673751  1647 layer_factory.hpp:77] Creating layer res2b_branch2a_relu
I1208 21:41:13.673774  1647 net.cpp:100] Creating Layer res2b_branch2a_relu
I1208 21:41:13.673791  1647 net.cpp:434] res2b_branch2a_relu <- res2b_branch2a
I1208 21:41:13.673818  1647 net.cpp:395] res2b_branch2a_relu -> res2b_branch2a (in-place)
I1208 21:41:13.674139  1647 net.cpp:150] Setting up res2b_branch2a_relu
I1208 21:41:13.674176  1647 net.cpp:157] Top shape: 50 64 56 56 (10035200)
I1208 21:41:13.674193  1647 net.cpp:165] Memory required for data: 2880103000
I1208 21:41:13.674218  1647 layer_factory.hpp:77] Creating layer res2b_branch2b
I1208 21:41:13.674247  1647 net.cpp:100] Creating Layer res2b_branch2b
I1208 21:41:13.674265  1647 net.cpp:434] res2b_branch2b <- res2b_branch2a
I1208 21:41:13.674288  1647 net.cpp:408] res2b_branch2b -> res2b_branch2b
I1208 21:41:13.678499  1647 net.cpp:150] Setting up res2b_branch2b
I1208 21:41:13.678550  1647 net.cpp:157] Top shape: 50 64 56 56 (10035200)
I1208 21:41:13.678570  1647 net.cpp:165] Memory required for data: 2920243800
I1208 21:41:13.678591  1647 layer_factory.hpp:77] Creating layer bn2b_branch2b
I1208 21:41:13.678625  1647 net.cpp:100] Creating Layer bn2b_branch2b
I1208 21:41:13.678658  1647 net.cpp:434] bn2b_branch2b <- res2b_branch2b
I1208 21:41:13.678688  1647 net.cpp:395] bn2b_branch2b -> res2b_branch2b (in-place)
I1208 21:41:13.679015  1647 net.cpp:150] Setting up bn2b_branch2b
I1208 21:41:13.679044  1647 net.cpp:157] Top shape: 50 64 56 56 (10035200)
I1208 21:41:13.679060  1647 net.cpp:165] Memory required for data: 2960384600
I1208 21:41:13.679085  1647 layer_factory.hpp:77] Creating layer scale2b_branch2b
I1208 21:41:13.679108  1647 net.cpp:100] Creating Layer scale2b_branch2b
I1208 21:41:13.679126  1647 net.cpp:434] scale2b_branch2b <- res2b_branch2b
I1208 21:41:13.679145  1647 net.cpp:395] scale2b_branch2b -> res2b_branch2b (in-place)
I1208 21:41:13.679231  1647 layer_factory.hpp:77] Creating layer scale2b_branch2b
I1208 21:41:13.679448  1647 net.cpp:150] Setting up scale2b_branch2b
I1208 21:41:13.679476  1647 net.cpp:157] Top shape: 50 64 56 56 (10035200)
I1208 21:41:13.679492  1647 net.cpp:165] Memory required for data: 3000525400
I1208 21:41:13.679514  1647 layer_factory.hpp:77] Creating layer res2b_branch2b_relu
I1208 21:41:13.679540  1647 net.cpp:100] Creating Layer res2b_branch2b_relu
I1208 21:41:13.679558  1647 net.cpp:434] res2b_branch2b_relu <- res2b_branch2b
I1208 21:41:13.679579  1647 net.cpp:395] res2b_branch2b_relu -> res2b_branch2b (in-place)
I1208 21:41:13.679929  1647 net.cpp:150] Setting up res2b_branch2b_relu
I1208 21:41:13.680006  1647 net.cpp:157] Top shape: 50 64 56 56 (10035200)
I1208 21:41:13.680027  1647 net.cpp:165] Memory required for data: 3040666200
I1208 21:41:13.680048  1647 layer_factory.hpp:77] Creating layer res2b_branch2c
I1208 21:41:13.680081  1647 net.cpp:100] Creating Layer res2b_branch2c
I1208 21:41:13.680100  1647 net.cpp:434] res2b_branch2c <- res2b_branch2b
I1208 21:41:13.680124  1647 net.cpp:408] res2b_branch2c -> res2b_branch2c
I1208 21:41:13.683312  1647 net.cpp:150] Setting up res2b_branch2c
I1208 21:41:13.683359  1647 net.cpp:157] Top shape: 50 256 56 56 (40140800)
I1208 21:41:13.683378  1647 net.cpp:165] Memory required for data: 3201229400
I1208 21:41:13.683398  1647 layer_factory.hpp:77] Creating layer bn2b_branch2c
I1208 21:41:13.683420  1647 net.cpp:100] Creating Layer bn2b_branch2c
I1208 21:41:13.683439  1647 net.cpp:434] bn2b_branch2c <- res2b_branch2c
I1208 21:41:13.683466  1647 net.cpp:395] bn2b_branch2c -> res2b_branch2c (in-place)
I1208 21:41:13.683785  1647 net.cpp:150] Setting up bn2b_branch2c
I1208 21:41:13.683815  1647 net.cpp:157] Top shape: 50 256 56 56 (40140800)
I1208 21:41:13.683830  1647 net.cpp:165] Memory required for data: 3361792600
I1208 21:41:13.683856  1647 layer_factory.hpp:77] Creating layer scale2b_branch2c
I1208 21:41:13.683877  1647 net.cpp:100] Creating Layer scale2b_branch2c
I1208 21:41:13.683894  1647 net.cpp:434] scale2b_branch2c <- res2b_branch2c
I1208 21:41:13.683913  1647 net.cpp:395] scale2b_branch2c -> res2b_branch2c (in-place)
I1208 21:41:13.683993  1647 layer_factory.hpp:77] Creating layer scale2b_branch2c
I1208 21:41:13.684188  1647 net.cpp:150] Setting up scale2b_branch2c
I1208 21:41:13.684216  1647 net.cpp:157] Top shape: 50 256 56 56 (40140800)
I1208 21:41:13.684231  1647 net.cpp:165] Memory required for data: 3522355800
I1208 21:41:13.684252  1647 layer_factory.hpp:77] Creating layer res2b
I1208 21:41:13.684279  1647 net.cpp:100] Creating Layer res2b
I1208 21:41:13.684298  1647 net.cpp:434] res2b <- res2a_res2a_relu_0_split_1
I1208 21:41:13.684321  1647 net.cpp:434] res2b <- res2b_branch2c
I1208 21:41:13.684342  1647 net.cpp:408] res2b -> res2b
I1208 21:41:13.684399  1647 net.cpp:150] Setting up res2b
I1208 21:41:13.684422  1647 net.cpp:157] Top shape: 50 256 56 56 (40140800)
I1208 21:41:13.684437  1647 net.cpp:165] Memory required for data: 3682919000
I1208 21:41:13.684458  1647 layer_factory.hpp:77] Creating layer res2b_relu
I1208 21:41:13.684479  1647 net.cpp:100] Creating Layer res2b_relu
I1208 21:41:13.684495  1647 net.cpp:434] res2b_relu <- res2b
I1208 21:41:13.684525  1647 net.cpp:395] res2b_relu -> res2b (in-place)
I1208 21:41:13.684818  1647 net.cpp:150] Setting up res2b_relu
I1208 21:41:13.684850  1647 net.cpp:157] Top shape: 50 256 56 56 (40140800)
I1208 21:41:13.684866  1647 net.cpp:165] Memory required for data: 3843482200
I1208 21:41:13.684882  1647 layer_factory.hpp:77] Creating layer res2b_res2b_relu_0_split
I1208 21:41:13.684902  1647 net.cpp:100] Creating Layer res2b_res2b_relu_0_split
I1208 21:41:13.684919  1647 net.cpp:434] res2b_res2b_relu_0_split <- res2b
I1208 21:41:13.684940  1647 net.cpp:408] res2b_res2b_relu_0_split -> res2b_res2b_relu_0_split_0
I1208 21:41:13.684962  1647 net.cpp:408] res2b_res2b_relu_0_split -> res2b_res2b_relu_0_split_1
I1208 21:41:13.685041  1647 net.cpp:150] Setting up res2b_res2b_relu_0_split
I1208 21:41:13.685065  1647 net.cpp:157] Top shape: 50 256 56 56 (40140800)
I1208 21:41:13.685081  1647 net.cpp:157] Top shape: 50 256 56 56 (40140800)
I1208 21:41:13.685096  1647 net.cpp:165] Memory required for data: 4164608600
I1208 21:41:13.685111  1647 layer_factory.hpp:77] Creating layer res2c_branch2a
I1208 21:41:13.685137  1647 net.cpp:100] Creating Layer res2c_branch2a
I1208 21:41:13.685153  1647 net.cpp:434] res2c_branch2a <- res2b_res2b_relu_0_split_0
I1208 21:41:13.685175  1647 net.cpp:408] res2c_branch2a -> res2c_branch2a
I1208 21:41:13.688277  1647 net.cpp:150] Setting up res2c_branch2a
I1208 21:41:13.688324  1647 net.cpp:157] Top shape: 50 64 56 56 (10035200)
I1208 21:41:13.688387  1647 net.cpp:165] Memory required for data: 4204749400
I1208 21:41:13.688447  1647 layer_factory.hpp:77] Creating layer bn2c_branch2a
I1208 21:41:13.688473  1647 net.cpp:100] Creating Layer bn2c_branch2a
I1208 21:41:13.688491  1647 net.cpp:434] bn2c_branch2a <- res2c_branch2a
I1208 21:41:13.688518  1647 net.cpp:395] bn2c_branch2a -> res2c_branch2a (in-place)
I1208 21:41:13.688840  1647 net.cpp:150] Setting up bn2c_branch2a
I1208 21:41:13.688869  1647 net.cpp:157] Top shape: 50 64 56 56 (10035200)
I1208 21:41:13.688885  1647 net.cpp:165] Memory required for data: 4244890200
I1208 21:41:13.688908  1647 layer_factory.hpp:77] Creating layer scale2c_branch2a
I1208 21:41:13.688938  1647 net.cpp:100] Creating Layer scale2c_branch2a
I1208 21:41:13.688957  1647 net.cpp:434] scale2c_branch2a <- res2c_branch2a
I1208 21:41:13.688977  1647 net.cpp:395] scale2c_branch2a -> res2c_branch2a (in-place)
I1208 21:41:13.689059  1647 layer_factory.hpp:77] Creating layer scale2c_branch2a
I1208 21:41:13.689260  1647 net.cpp:150] Setting up scale2c_branch2a
I1208 21:41:13.689287  1647 net.cpp:157] Top shape: 50 64 56 56 (10035200)
I1208 21:41:13.689302  1647 net.cpp:165] Memory required for data: 4285031000
I1208 21:41:13.689322  1647 layer_factory.hpp:77] Creating layer res2c_branch2a_relu
I1208 21:41:13.689342  1647 net.cpp:100] Creating Layer res2c_branch2a_relu
I1208 21:41:13.689359  1647 net.cpp:434] res2c_branch2a_relu <- res2c_branch2a
I1208 21:41:13.689378  1647 net.cpp:395] res2c_branch2a_relu -> res2c_branch2a (in-place)
I1208 21:41:13.689672  1647 net.cpp:150] Setting up res2c_branch2a_relu
I1208 21:41:13.689703  1647 net.cpp:157] Top shape: 50 64 56 56 (10035200)
I1208 21:41:13.689720  1647 net.cpp:165] Memory required for data: 4325171800
I1208 21:41:13.689736  1647 layer_factory.hpp:77] Creating layer res2c_branch2b
I1208 21:41:13.689761  1647 net.cpp:100] Creating Layer res2c_branch2b
I1208 21:41:13.689779  1647 net.cpp:434] res2c_branch2b <- res2c_branch2a
I1208 21:41:13.689800  1647 net.cpp:408] res2c_branch2b -> res2c_branch2b
I1208 21:41:13.693581  1647 net.cpp:150] Setting up res2c_branch2b
I1208 21:41:13.693627  1647 net.cpp:157] Top shape: 50 64 56 56 (10035200)
I1208 21:41:13.693657  1647 net.cpp:165] Memory required for data: 4365312600
I1208 21:41:13.693678  1647 layer_factory.hpp:77] Creating layer bn2c_branch2b
I1208 21:41:13.693708  1647 net.cpp:100] Creating Layer bn2c_branch2b
I1208 21:41:13.693727  1647 net.cpp:434] bn2c_branch2b <- res2c_branch2b
I1208 21:41:13.693747  1647 net.cpp:395] bn2c_branch2b -> res2c_branch2b (in-place)
I1208 21:41:13.694061  1647 net.cpp:150] Setting up bn2c_branch2b
I1208 21:41:13.694088  1647 net.cpp:157] Top shape: 50 64 56 56 (10035200)
I1208 21:41:13.694103  1647 net.cpp:165] Memory required for data: 4405453400
I1208 21:41:13.694146  1647 layer_factory.hpp:77] Creating layer scale2c_branch2b
I1208 21:41:13.694171  1647 net.cpp:100] Creating Layer scale2c_branch2b
I1208 21:41:13.694187  1647 net.cpp:434] scale2c_branch2b <- res2c_branch2b
I1208 21:41:13.694206  1647 net.cpp:395] scale2c_branch2b -> res2c_branch2b (in-place)
I1208 21:41:13.694288  1647 layer_factory.hpp:77] Creating layer scale2c_branch2b
I1208 21:41:13.694483  1647 net.cpp:150] Setting up scale2c_branch2b
I1208 21:41:13.694509  1647 net.cpp:157] Top shape: 50 64 56 56 (10035200)
I1208 21:41:13.694525  1647 net.cpp:165] Memory required for data: 4445594200
I1208 21:41:13.694550  1647 layer_factory.hpp:77] Creating layer res2c_branch2b_relu
I1208 21:41:13.694572  1647 net.cpp:100] Creating Layer res2c_branch2b_relu
I1208 21:41:13.694589  1647 net.cpp:434] res2c_branch2b_relu <- res2c_branch2b
I1208 21:41:13.694607  1647 net.cpp:395] res2c_branch2b_relu -> res2c_branch2b (in-place)
I1208 21:41:13.696132  1647 net.cpp:150] Setting up res2c_branch2b_relu
I1208 21:41:13.696172  1647 net.cpp:157] Top shape: 50 64 56 56 (10035200)
I1208 21:41:13.696190  1647 net.cpp:165] Memory required for data: 4485735000
I1208 21:41:13.696207  1647 layer_factory.hpp:77] Creating layer res2c_branch2c
I1208 21:41:13.696275  1647 net.cpp:100] Creating Layer res2c_branch2c
I1208 21:41:13.696328  1647 net.cpp:434] res2c_branch2c <- res2c_branch2b
I1208 21:41:13.696352  1647 net.cpp:408] res2c_branch2c -> res2c_branch2c
I1208 21:41:13.698151  1647 net.cpp:150] Setting up res2c_branch2c
I1208 21:41:13.698194  1647 net.cpp:157] Top shape: 50 256 56 56 (40140800)
I1208 21:41:13.698211  1647 net.cpp:165] Memory required for data: 4646298200
I1208 21:41:13.698230  1647 layer_factory.hpp:77] Creating layer bn2c_branch2c
I1208 21:41:13.698261  1647 net.cpp:100] Creating Layer bn2c_branch2c
I1208 21:41:13.698279  1647 net.cpp:434] bn2c_branch2c <- res2c_branch2c
I1208 21:41:13.698300  1647 net.cpp:395] bn2c_branch2c -> res2c_branch2c (in-place)
I1208 21:41:13.698586  1647 net.cpp:150] Setting up bn2c_branch2c
I1208 21:41:13.698611  1647 net.cpp:157] Top shape: 50 256 56 56 (40140800)
I1208 21:41:13.698626  1647 net.cpp:165] Memory required for data: 4806861400
I1208 21:41:13.698674  1647 layer_factory.hpp:77] Creating layer scale2c_branch2c
I1208 21:41:13.698698  1647 net.cpp:100] Creating Layer scale2c_branch2c
I1208 21:41:13.698714  1647 net.cpp:434] scale2c_branch2c <- res2c_branch2c
I1208 21:41:13.698734  1647 net.cpp:395] scale2c_branch2c -> res2c_branch2c (in-place)
I1208 21:41:13.698812  1647 layer_factory.hpp:77] Creating layer scale2c_branch2c
I1208 21:41:13.698997  1647 net.cpp:150] Setting up scale2c_branch2c
I1208 21:41:13.699024  1647 net.cpp:157] Top shape: 50 256 56 56 (40140800)
I1208 21:41:13.699039  1647 net.cpp:165] Memory required for data: 4967424600
I1208 21:41:13.699064  1647 layer_factory.hpp:77] Creating layer res2c
I1208 21:41:13.699087  1647 net.cpp:100] Creating Layer res2c
I1208 21:41:13.699105  1647 net.cpp:434] res2c <- res2b_res2b_relu_0_split_1
I1208 21:41:13.699122  1647 net.cpp:434] res2c <- res2c_branch2c
I1208 21:41:13.699141  1647 net.cpp:408] res2c -> res2c
I1208 21:41:13.699196  1647 net.cpp:150] Setting up res2c
I1208 21:41:13.699218  1647 net.cpp:157] Top shape: 50 256 56 56 (40140800)
I1208 21:41:13.699232  1647 net.cpp:165] Memory required for data: 5127987800
I1208 21:41:13.699247  1647 layer_factory.hpp:77] Creating layer res2c_relu
I1208 21:41:13.699271  1647 net.cpp:100] Creating Layer res2c_relu
I1208 21:41:13.699288  1647 net.cpp:434] res2c_relu <- res2c
I1208 21:41:13.699308  1647 net.cpp:395] res2c_relu -> res2c (in-place)
I1208 21:41:13.700862  1647 net.cpp:150] Setting up res2c_relu
I1208 21:41:13.700903  1647 net.cpp:157] Top shape: 50 256 56 56 (40140800)
I1208 21:41:13.700920  1647 net.cpp:165] Memory required for data: 5288551000
I1208 21:41:13.700937  1647 layer_factory.hpp:77] Creating layer res2c_res2c_relu_0_split
I1208 21:41:13.700956  1647 net.cpp:100] Creating Layer res2c_res2c_relu_0_split
I1208 21:41:13.700973  1647 net.cpp:434] res2c_res2c_relu_0_split <- res2c
I1208 21:41:13.700994  1647 net.cpp:408] res2c_res2c_relu_0_split -> res2c_res2c_relu_0_split_0
I1208 21:41:13.701016  1647 net.cpp:408] res2c_res2c_relu_0_split -> res2c_res2c_relu_0_split_1
I1208 21:41:13.701102  1647 net.cpp:150] Setting up res2c_res2c_relu_0_split
I1208 21:41:13.701123  1647 net.cpp:157] Top shape: 50 256 56 56 (40140800)
I1208 21:41:13.701138  1647 net.cpp:157] Top shape: 50 256 56 56 (40140800)
I1208 21:41:13.701153  1647 net.cpp:165] Memory required for data: 5609677400
I1208 21:41:13.701166  1647 layer_factory.hpp:77] Creating layer res3a_branch1
I1208 21:41:13.701189  1647 net.cpp:100] Creating Layer res3a_branch1
I1208 21:41:13.701206  1647 net.cpp:434] res3a_branch1 <- res2c_res2c_relu_0_split_0
I1208 21:41:13.701225  1647 net.cpp:408] res3a_branch1 -> res3a_branch1
I1208 21:41:13.718716  1647 net.cpp:150] Setting up res3a_branch1
I1208 21:41:13.718756  1647 net.cpp:157] Top shape: 50 512 28 28 (20070400)
I1208 21:41:13.718773  1647 net.cpp:165] Memory required for data: 5689959000
I1208 21:41:13.718792  1647 layer_factory.hpp:77] Creating layer bn3a_branch1
I1208 21:41:13.718822  1647 net.cpp:100] Creating Layer bn3a_branch1
I1208 21:41:13.718839  1647 net.cpp:434] bn3a_branch1 <- res3a_branch1
I1208 21:41:13.718896  1647 net.cpp:395] bn3a_branch1 -> res3a_branch1 (in-place)
I1208 21:41:13.728185  1647 net.cpp:150] Setting up bn3a_branch1
I1208 21:41:13.728225  1647 net.cpp:157] Top shape: 50 512 28 28 (20070400)
I1208 21:41:13.728240  1647 net.cpp:165] Memory required for data: 5770240600
I1208 21:41:13.728261  1647 layer_factory.hpp:77] Creating layer scale3a_branch1
I1208 21:41:13.728281  1647 net.cpp:100] Creating Layer scale3a_branch1
I1208 21:41:13.728296  1647 net.cpp:434] scale3a_branch1 <- res3a_branch1
I1208 21:41:13.728312  1647 net.cpp:395] scale3a_branch1 -> res3a_branch1 (in-place)
I1208 21:41:13.728395  1647 layer_factory.hpp:77] Creating layer scale3a_branch1
I1208 21:41:13.728552  1647 net.cpp:150] Setting up scale3a_branch1
I1208 21:41:13.728575  1647 net.cpp:157] Top shape: 50 512 28 28 (20070400)
I1208 21:41:13.728588  1647 net.cpp:165] Memory required for data: 5850522200
I1208 21:41:13.728605  1647 layer_factory.hpp:77] Creating layer res3a_branch2a
I1208 21:41:13.728641  1647 net.cpp:100] Creating Layer res3a_branch2a
I1208 21:41:13.728658  1647 net.cpp:434] res3a_branch2a <- res2c_res2c_relu_0_split_1
I1208 21:41:13.728677  1647 net.cpp:408] res3a_branch2a -> res3a_branch2a
I1208 21:41:13.731914  1647 net.cpp:150] Setting up res3a_branch2a
I1208 21:41:13.731956  1647 net.cpp:157] Top shape: 50 128 28 28 (5017600)
I1208 21:41:13.731971  1647 net.cpp:165] Memory required for data: 5870592600
I1208 21:41:13.731989  1647 layer_factory.hpp:77] Creating layer bn3a_branch2a
I1208 21:41:13.732008  1647 net.cpp:100] Creating Layer bn3a_branch2a
I1208 21:41:13.732024  1647 net.cpp:434] bn3a_branch2a <- res3a_branch2a
I1208 21:41:13.732041  1647 net.cpp:395] bn3a_branch2a -> res3a_branch2a (in-place)
I1208 21:41:13.732303  1647 net.cpp:150] Setting up bn3a_branch2a
I1208 21:41:13.732327  1647 net.cpp:157] Top shape: 50 128 28 28 (5017600)
I1208 21:41:13.732340  1647 net.cpp:165] Memory required for data: 5890663000
I1208 21:41:13.732360  1647 layer_factory.hpp:77] Creating layer scale3a_branch2a
I1208 21:41:13.732378  1647 net.cpp:100] Creating Layer scale3a_branch2a
I1208 21:41:13.732393  1647 net.cpp:434] scale3a_branch2a <- res3a_branch2a
I1208 21:41:13.732409  1647 net.cpp:395] scale3a_branch2a -> res3a_branch2a (in-place)
I1208 21:41:13.732480  1647 layer_factory.hpp:77] Creating layer scale3a_branch2a
I1208 21:41:13.732655  1647 net.cpp:150] Setting up scale3a_branch2a
I1208 21:41:13.732679  1647 net.cpp:157] Top shape: 50 128 28 28 (5017600)
I1208 21:41:13.732692  1647 net.cpp:165] Memory required for data: 5910733400
I1208 21:41:13.732715  1647 layer_factory.hpp:77] Creating layer res3a_branch2a_relu
I1208 21:41:13.732738  1647 net.cpp:100] Creating Layer res3a_branch2a_relu
I1208 21:41:13.732753  1647 net.cpp:434] res3a_branch2a_relu <- res3a_branch2a
I1208 21:41:13.732769  1647 net.cpp:395] res3a_branch2a_relu -> res3a_branch2a (in-place)
I1208 21:41:13.734160  1647 net.cpp:150] Setting up res3a_branch2a_relu
I1208 21:41:13.734196  1647 net.cpp:157] Top shape: 50 128 28 28 (5017600)
I1208 21:41:13.734212  1647 net.cpp:165] Memory required for data: 5930803800
I1208 21:41:13.734226  1647 layer_factory.hpp:77] Creating layer res3a_branch2b
I1208 21:41:13.734248  1647 net.cpp:100] Creating Layer res3a_branch2b
I1208 21:41:13.734264  1647 net.cpp:434] res3a_branch2b <- res3a_branch2a
I1208 21:41:13.734283  1647 net.cpp:408] res3a_branch2b -> res3a_branch2b
I1208 21:41:13.742851  1647 net.cpp:150] Setting up res3a_branch2b
I1208 21:41:13.742889  1647 net.cpp:157] Top shape: 50 128 28 28 (5017600)
I1208 21:41:13.742905  1647 net.cpp:165] Memory required for data: 5950874200
I1208 21:41:13.742923  1647 layer_factory.hpp:77] Creating layer bn3a_branch2b
I1208 21:41:13.742964  1647 net.cpp:100] Creating Layer bn3a_branch2b
I1208 21:41:13.742983  1647 net.cpp:434] bn3a_branch2b <- res3a_branch2b
I1208 21:41:13.743000  1647 net.cpp:395] bn3a_branch2b -> res3a_branch2b (in-place)
I1208 21:41:13.743383  1647 net.cpp:150] Setting up bn3a_branch2b
I1208 21:41:13.743408  1647 net.cpp:157] Top shape: 50 128 28 28 (5017600)
I1208 21:41:13.743494  1647 net.cpp:165] Memory required for data: 5970944600
I1208 21:41:13.743517  1647 layer_factory.hpp:77] Creating layer scale3a_branch2b
I1208 21:41:13.743541  1647 net.cpp:100] Creating Layer scale3a_branch2b
I1208 21:41:13.743554  1647 net.cpp:434] scale3a_branch2b <- res3a_branch2b
I1208 21:41:13.743592  1647 net.cpp:395] scale3a_branch2b -> res3a_branch2b (in-place)
I1208 21:41:13.743681  1647 layer_factory.hpp:77] Creating layer scale3a_branch2b
I1208 21:41:13.743928  1647 net.cpp:150] Setting up scale3a_branch2b
I1208 21:41:13.743971  1647 net.cpp:157] Top shape: 50 128 28 28 (5017600)
I1208 21:41:13.743988  1647 net.cpp:165] Memory required for data: 5991015000
I1208 21:41:13.744009  1647 layer_factory.hpp:77] Creating layer res3a_branch2b_relu
I1208 21:41:13.744027  1647 net.cpp:100] Creating Layer res3a_branch2b_relu
I1208 21:41:13.744041  1647 net.cpp:434] res3a_branch2b_relu <- res3a_branch2b
I1208 21:41:13.744057  1647 net.cpp:395] res3a_branch2b_relu -> res3a_branch2b (in-place)
I1208 21:41:13.744411  1647 net.cpp:150] Setting up res3a_branch2b_relu
I1208 21:41:13.744457  1647 net.cpp:157] Top shape: 50 128 28 28 (5017600)
I1208 21:41:13.744472  1647 net.cpp:165] Memory required for data: 6011085400
I1208 21:41:13.744484  1647 layer_factory.hpp:77] Creating layer res3a_branch2c
I1208 21:41:13.744547  1647 net.cpp:100] Creating Layer res3a_branch2c
I1208 21:41:13.744567  1647 net.cpp:434] res3a_branch2c <- res3a_branch2b
I1208 21:41:13.744586  1647 net.cpp:408] res3a_branch2c -> res3a_branch2c
I1208 21:41:13.749445  1647 net.cpp:150] Setting up res3a_branch2c
I1208 21:41:13.749486  1647 net.cpp:157] Top shape: 50 512 28 28 (20070400)
I1208 21:41:13.749502  1647 net.cpp:165] Memory required for data: 6091367000
I1208 21:41:13.749519  1647 layer_factory.hpp:77] Creating layer bn3a_branch2c
I1208 21:41:13.749562  1647 net.cpp:100] Creating Layer bn3a_branch2c
I1208 21:41:13.749581  1647 net.cpp:434] bn3a_branch2c <- res3a_branch2c
I1208 21:41:13.749598  1647 net.cpp:395] bn3a_branch2c -> res3a_branch2c (in-place)
I1208 21:41:13.749991  1647 net.cpp:150] Setting up bn3a_branch2c
I1208 21:41:13.750018  1647 net.cpp:157] Top shape: 50 512 28 28 (20070400)
I1208 21:41:13.750032  1647 net.cpp:165] Memory required for data: 6171648600
I1208 21:41:13.750128  1647 layer_factory.hpp:77] Creating layer scale3a_branch2c
I1208 21:41:13.750156  1647 net.cpp:100] Creating Layer scale3a_branch2c
I1208 21:41:13.750171  1647 net.cpp:434] scale3a_branch2c <- res3a_branch2c
I1208 21:41:13.750187  1647 net.cpp:395] scale3a_branch2c -> res3a_branch2c (in-place)
I1208 21:41:13.750286  1647 layer_factory.hpp:77] Creating layer scale3a_branch2c
I1208 21:41:13.750543  1647 net.cpp:150] Setting up scale3a_branch2c
I1208 21:41:13.750568  1647 net.cpp:157] Top shape: 50 512 28 28 (20070400)
I1208 21:41:13.750581  1647 net.cpp:165] Memory required for data: 6251930200
I1208 21:41:13.750598  1647 layer_factory.hpp:77] Creating layer res3a
I1208 21:41:13.750650  1647 net.cpp:100] Creating Layer res3a
I1208 21:41:13.750672  1647 net.cpp:434] res3a <- res3a_branch1
I1208 21:41:13.750689  1647 net.cpp:434] res3a <- res3a_branch2c
I1208 21:41:13.750705  1647 net.cpp:408] res3a -> res3a
I1208 21:41:13.750780  1647 net.cpp:150] Setting up res3a
I1208 21:41:13.750804  1647 net.cpp:157] Top shape: 50 512 28 28 (20070400)
I1208 21:41:13.750818  1647 net.cpp:165] Memory required for data: 6332211800
I1208 21:41:13.750829  1647 layer_factory.hpp:77] Creating layer res3a_relu
I1208 21:41:13.750845  1647 net.cpp:100] Creating Layer res3a_relu
I1208 21:41:13.750859  1647 net.cpp:434] res3a_relu <- res3a
I1208 21:41:13.750896  1647 net.cpp:395] res3a_relu -> res3a (in-place)
I1208 21:41:13.751287  1647 net.cpp:150] Setting up res3a_relu
I1208 21:41:13.751317  1647 net.cpp:157] Top shape: 50 512 28 28 (20070400)
I1208 21:41:13.751330  1647 net.cpp:165] Memory required for data: 6412493400
I1208 21:41:13.751344  1647 layer_factory.hpp:77] Creating layer res3a_res3a_relu_0_split
I1208 21:41:13.751422  1647 net.cpp:100] Creating Layer res3a_res3a_relu_0_split
I1208 21:41:13.751468  1647 net.cpp:434] res3a_res3a_relu_0_split <- res3a
I1208 21:41:13.751487  1647 net.cpp:408] res3a_res3a_relu_0_split -> res3a_res3a_relu_0_split_0
I1208 21:41:13.751533  1647 net.cpp:408] res3a_res3a_relu_0_split -> res3a_res3a_relu_0_split_1
I1208 21:41:13.751624  1647 net.cpp:150] Setting up res3a_res3a_relu_0_split
I1208 21:41:13.751657  1647 net.cpp:157] Top shape: 50 512 28 28 (20070400)
I1208 21:41:13.751672  1647 net.cpp:157] Top shape: 50 512 28 28 (20070400)
I1208 21:41:13.751685  1647 net.cpp:165] Memory required for data: 6573056600
I1208 21:41:13.751698  1647 layer_factory.hpp:77] Creating layer res3b_branch2a
I1208 21:41:13.751741  1647 net.cpp:100] Creating Layer res3b_branch2a
I1208 21:41:13.751761  1647 net.cpp:434] res3b_branch2a <- res3a_res3a_relu_0_split_0
I1208 21:41:13.751801  1647 net.cpp:408] res3b_branch2a -> res3b_branch2a
I1208 21:41:13.756625  1647 net.cpp:150] Setting up res3b_branch2a
I1208 21:41:13.756677  1647 net.cpp:157] Top shape: 50 128 28 28 (5017600)
I1208 21:41:13.756693  1647 net.cpp:165] Memory required for data: 6593127000
I1208 21:41:13.756711  1647 layer_factory.hpp:77] Creating layer bn3b_branch2a
I1208 21:41:13.756752  1647 net.cpp:100] Creating Layer bn3b_branch2a
I1208 21:41:13.756773  1647 net.cpp:434] bn3b_branch2a <- res3b_branch2a
I1208 21:41:13.756790  1647 net.cpp:395] bn3b_branch2a -> res3b_branch2a (in-place)
I1208 21:41:13.757171  1647 net.cpp:150] Setting up bn3b_branch2a
I1208 21:41:13.757196  1647 net.cpp:157] Top shape: 50 128 28 28 (5017600)
I1208 21:41:13.757210  1647 net.cpp:165] Memory required for data: 6613197400
I1208 21:41:13.757232  1647 layer_factory.hpp:77] Creating layer scale3b_branch2a
I1208 21:41:13.757252  1647 net.cpp:100] Creating Layer scale3b_branch2a
I1208 21:41:13.757266  1647 net.cpp:434] scale3b_branch2a <- res3b_branch2a
I1208 21:41:13.757282  1647 net.cpp:395] scale3b_branch2a -> res3b_branch2a (in-place)
I1208 21:41:13.757375  1647 layer_factory.hpp:77] Creating layer scale3b_branch2a
I1208 21:41:13.757617  1647 net.cpp:150] Setting up scale3b_branch2a
I1208 21:41:13.757652  1647 net.cpp:157] Top shape: 50 128 28 28 (5017600)
I1208 21:41:13.757668  1647 net.cpp:165] Memory required for data: 6633267800
I1208 21:41:13.757684  1647 layer_factory.hpp:77] Creating layer res3b_branch2a_relu
I1208 21:41:13.757725  1647 net.cpp:100] Creating Layer res3b_branch2a_relu
I1208 21:41:13.757742  1647 net.cpp:434] res3b_branch2a_relu <- res3b_branch2a
I1208 21:41:13.757758  1647 net.cpp:395] res3b_branch2a_relu -> res3b_branch2a (in-place)
I1208 21:41:13.758196  1647 net.cpp:150] Setting up res3b_branch2a_relu
I1208 21:41:13.758229  1647 net.cpp:157] Top shape: 50 128 28 28 (5017600)
I1208 21:41:13.758242  1647 net.cpp:165] Memory required for data: 6653338200
I1208 21:41:13.758256  1647 layer_factory.hpp:77] Creating layer res3b_branch2b
I1208 21:41:13.758301  1647 net.cpp:100] Creating Layer res3b_branch2b
I1208 21:41:13.758322  1647 net.cpp:434] res3b_branch2b <- res3b_branch2a
I1208 21:41:13.758339  1647 net.cpp:408] res3b_branch2b -> res3b_branch2b
I1208 21:41:13.767102  1647 net.cpp:150] Setting up res3b_branch2b
I1208 21:41:13.767143  1647 net.cpp:157] Top shape: 50 128 28 28 (5017600)
I1208 21:41:13.767158  1647 net.cpp:165] Memory required for data: 6673408600
I1208 21:41:13.767174  1647 layer_factory.hpp:77] Creating layer bn3b_branch2b
I1208 21:41:13.767217  1647 net.cpp:100] Creating Layer bn3b_branch2b
I1208 21:41:13.767237  1647 net.cpp:434] bn3b_branch2b <- res3b_branch2b
I1208 21:41:13.767254  1647 net.cpp:395] bn3b_branch2b -> res3b_branch2b (in-place)
I1208 21:41:13.767652  1647 net.cpp:150] Setting up bn3b_branch2b
I1208 21:41:13.767679  1647 net.cpp:157] Top shape: 50 128 28 28 (5017600)
I1208 21:41:13.767693  1647 net.cpp:165] Memory required for data: 6693479000
I1208 21:41:13.767735  1647 layer_factory.hpp:77] Creating layer scale3b_branch2b
I1208 21:41:13.767757  1647 net.cpp:100] Creating Layer scale3b_branch2b
I1208 21:41:13.767772  1647 net.cpp:434] scale3b_branch2b <- res3b_branch2b
I1208 21:41:13.767858  1647 net.cpp:395] scale3b_branch2b -> res3b_branch2b (in-place)
I1208 21:41:13.767958  1647 layer_factory.hpp:77] Creating layer scale3b_branch2b
I1208 21:41:13.768219  1647 net.cpp:150] Setting up scale3b_branch2b
I1208 21:41:13.768244  1647 net.cpp:157] Top shape: 50 128 28 28 (5017600)
I1208 21:41:13.768257  1647 net.cpp:165] Memory required for data: 6713549400
I1208 21:41:13.768275  1647 layer_factory.hpp:77] Creating layer res3b_branch2b_relu
I1208 21:41:13.768313  1647 net.cpp:100] Creating Layer res3b_branch2b_relu
I1208 21:41:13.768332  1647 net.cpp:434] res3b_branch2b_relu <- res3b_branch2b
I1208 21:41:13.768348  1647 net.cpp:395] res3b_branch2b_relu -> res3b_branch2b (in-place)
I1208 21:41:13.768683  1647 net.cpp:150] Setting up res3b_branch2b_relu
I1208 21:41:13.768713  1647 net.cpp:157] Top shape: 50 128 28 28 (5017600)
I1208 21:41:13.768728  1647 net.cpp:165] Memory required for data: 6733619800
I1208 21:41:13.768741  1647 layer_factory.hpp:77] Creating layer res3b_branch2c
I1208 21:41:13.768801  1647 net.cpp:100] Creating Layer res3b_branch2c
I1208 21:41:13.768821  1647 net.cpp:434] res3b_branch2c <- res3b_branch2b
I1208 21:41:13.768841  1647 net.cpp:408] res3b_branch2c -> res3b_branch2c
I1208 21:41:13.773700  1647 net.cpp:150] Setting up res3b_branch2c
I1208 21:41:13.773761  1647 net.cpp:157] Top shape: 50 512 28 28 (20070400)
I1208 21:41:13.773780  1647 net.cpp:165] Memory required for data: 6813901400
I1208 21:41:13.773797  1647 layer_factory.hpp:77] Creating layer bn3b_branch2c
I1208 21:41:13.773815  1647 net.cpp:100] Creating Layer bn3b_branch2c
I1208 21:41:13.773830  1647 net.cpp:434] bn3b_branch2c <- res3b_branch2c
I1208 21:41:13.773846  1647 net.cpp:395] bn3b_branch2c -> res3b_branch2c (in-place)
I1208 21:41:13.774310  1647 net.cpp:150] Setting up bn3b_branch2c
I1208 21:41:13.774340  1647 net.cpp:157] Top shape: 50 512 28 28 (20070400)
I1208 21:41:13.774354  1647 net.cpp:165] Memory required for data: 6894183000
I1208 21:41:13.774374  1647 layer_factory.hpp:77] Creating layer scale3b_branch2c
I1208 21:41:13.774399  1647 net.cpp:100] Creating Layer scale3b_branch2c
I1208 21:41:13.774413  1647 net.cpp:434] scale3b_branch2c <- res3b_branch2c
I1208 21:41:13.774430  1647 net.cpp:395] scale3b_branch2c -> res3b_branch2c (in-place)
I1208 21:41:13.774544  1647 layer_factory.hpp:77] Creating layer scale3b_branch2c
I1208 21:41:13.774798  1647 net.cpp:150] Setting up scale3b_branch2c
I1208 21:41:13.774826  1647 net.cpp:157] Top shape: 50 512 28 28 (20070400)
I1208 21:41:13.774839  1647 net.cpp:165] Memory required for data: 6974464600
I1208 21:41:13.774857  1647 layer_factory.hpp:77] Creating layer res3b
I1208 21:41:13.774895  1647 net.cpp:100] Creating Layer res3b
I1208 21:41:13.774914  1647 net.cpp:434] res3b <- res3a_res3a_relu_0_split_1
I1208 21:41:13.774930  1647 net.cpp:434] res3b <- res3b_branch2c
I1208 21:41:13.774967  1647 net.cpp:408] res3b -> res3b
I1208 21:41:13.775023  1647 net.cpp:150] Setting up res3b
I1208 21:41:13.775043  1647 net.cpp:157] Top shape: 50 512 28 28 (20070400)
I1208 21:41:13.775055  1647 net.cpp:165] Memory required for data: 7054746200
I1208 21:41:13.775068  1647 layer_factory.hpp:77] Creating layer res3b_relu
I1208 21:41:13.775105  1647 net.cpp:100] Creating Layer res3b_relu
I1208 21:41:13.775125  1647 net.cpp:434] res3b_relu <- res3b
I1208 21:41:13.775140  1647 net.cpp:395] res3b_relu -> res3b (in-place)
I1208 21:41:13.776566  1647 net.cpp:150] Setting up res3b_relu
I1208 21:41:13.776623  1647 net.cpp:157] Top shape: 50 512 28 28 (20070400)
I1208 21:41:13.776650  1647 net.cpp:165] Memory required for data: 7135027800
I1208 21:41:13.776665  1647 layer_factory.hpp:77] Creating layer res3b_res3b_relu_0_split
I1208 21:41:13.776682  1647 net.cpp:100] Creating Layer res3b_res3b_relu_0_split
I1208 21:41:13.776696  1647 net.cpp:434] res3b_res3b_relu_0_split <- res3b
I1208 21:41:13.776713  1647 net.cpp:408] res3b_res3b_relu_0_split -> res3b_res3b_relu_0_split_0
I1208 21:41:13.776731  1647 net.cpp:408] res3b_res3b_relu_0_split -> res3b_res3b_relu_0_split_1
I1208 21:41:13.776931  1647 net.cpp:150] Setting up res3b_res3b_relu_0_split
I1208 21:41:13.776955  1647 net.cpp:157] Top shape: 50 512 28 28 (20070400)
I1208 21:41:13.776970  1647 net.cpp:157] Top shape: 50 512 28 28 (20070400)
I1208 21:41:13.776983  1647 net.cpp:165] Memory required for data: 7295591000
I1208 21:41:13.776995  1647 layer_factory.hpp:77] Creating layer res3c_branch2a
I1208 21:41:13.777038  1647 net.cpp:100] Creating Layer res3c_branch2a
I1208 21:41:13.777057  1647 net.cpp:434] res3c_branch2a <- res3b_res3b_relu_0_split_0
I1208 21:41:13.777096  1647 net.cpp:408] res3c_branch2a -> res3c_branch2a
I1208 21:41:13.781929  1647 net.cpp:150] Setting up res3c_branch2a
I1208 21:41:13.781991  1647 net.cpp:157] Top shape: 50 128 28 28 (5017600)
I1208 21:41:13.782011  1647 net.cpp:165] Memory required for data: 7315661400
I1208 21:41:13.782032  1647 layer_factory.hpp:77] Creating layer bn3c_branch2a
I1208 21:41:13.782084  1647 net.cpp:100] Creating Layer bn3c_branch2a
I1208 21:41:13.782153  1647 net.cpp:434] bn3c_branch2a <- res3c_branch2a
I1208 21:41:13.782171  1647 net.cpp:395] bn3c_branch2a -> res3c_branch2a (in-place)
I1208 21:41:13.782537  1647 net.cpp:150] Setting up bn3c_branch2a
I1208 21:41:13.782563  1647 net.cpp:157] Top shape: 50 128 28 28 (5017600)
I1208 21:41:13.782577  1647 net.cpp:165] Memory required for data: 7335731800
I1208 21:41:13.782596  1647 layer_factory.hpp:77] Creating layer scale3c_branch2a
I1208 21:41:13.782641  1647 net.cpp:100] Creating Layer scale3c_branch2a
I1208 21:41:13.782662  1647 net.cpp:434] scale3c_branch2a <- res3c_branch2a
I1208 21:41:13.782680  1647 net.cpp:395] scale3c_branch2a -> res3c_branch2a (in-place)
I1208 21:41:13.782776  1647 layer_factory.hpp:77] Creating layer scale3c_branch2a
I1208 21:41:13.783036  1647 net.cpp:150] Setting up scale3c_branch2a
I1208 21:41:13.783061  1647 net.cpp:157] Top shape: 50 128 28 28 (5017600)
I1208 21:41:13.783074  1647 net.cpp:165] Memory required for data: 7355802200
I1208 21:41:13.783092  1647 layer_factory.hpp:77] Creating layer res3c_branch2a_relu
I1208 21:41:13.783107  1647 net.cpp:100] Creating Layer res3c_branch2a_relu
I1208 21:41:13.783121  1647 net.cpp:434] res3c_branch2a_relu <- res3c_branch2a
I1208 21:41:13.783159  1647 net.cpp:395] res3c_branch2a_relu -> res3c_branch2a (in-place)
I1208 21:41:13.783493  1647 net.cpp:150] Setting up res3c_branch2a_relu
I1208 21:41:13.783520  1647 net.cpp:157] Top shape: 50 128 28 28 (5017600)
I1208 21:41:13.783534  1647 net.cpp:165] Memory required for data: 7375872600
I1208 21:41:13.783547  1647 layer_factory.hpp:77] Creating layer res3c_branch2b
I1208 21:41:13.783591  1647 net.cpp:100] Creating Layer res3c_branch2b
I1208 21:41:13.783634  1647 net.cpp:434] res3c_branch2b <- res3c_branch2a
I1208 21:41:13.783658  1647 net.cpp:408] res3c_branch2b -> res3c_branch2b
I1208 21:41:13.801115  1647 net.cpp:150] Setting up res3c_branch2b
I1208 21:41:13.801156  1647 net.cpp:157] Top shape: 50 128 28 28 (5017600)
I1208 21:41:13.801172  1647 net.cpp:165] Memory required for data: 7395943000
I1208 21:41:13.801196  1647 layer_factory.hpp:77] Creating layer bn3c_branch2b
I1208 21:41:13.801242  1647 net.cpp:100] Creating Layer bn3c_branch2b
I1208 21:41:13.801262  1647 net.cpp:434] bn3c_branch2b <- res3c_branch2b
I1208 21:41:13.801283  1647 net.cpp:395] bn3c_branch2b -> res3c_branch2b (in-place)
I1208 21:41:13.801697  1647 net.cpp:150] Setting up bn3c_branch2b
I1208 21:41:13.801724  1647 net.cpp:157] Top shape: 50 128 28 28 (5017600)
I1208 21:41:13.801738  1647 net.cpp:165] Memory required for data: 7416013400
I1208 21:41:13.801775  1647 layer_factory.hpp:77] Creating layer scale3c_branch2b
I1208 21:41:13.801797  1647 net.cpp:100] Creating Layer scale3c_branch2b
I1208 21:41:13.801812  1647 net.cpp:434] scale3c_branch2b <- res3c_branch2b
I1208 21:41:13.801828  1647 net.cpp:395] scale3c_branch2b -> res3c_branch2b (in-place)
I1208 21:41:13.801934  1647 layer_factory.hpp:77] Creating layer scale3c_branch2b
I1208 21:41:13.802263  1647 net.cpp:150] Setting up scale3c_branch2b
I1208 21:41:13.802342  1647 net.cpp:157] Top shape: 50 128 28 28 (5017600)
I1208 21:41:13.802384  1647 net.cpp:165] Memory required for data: 7436083800
I1208 21:41:13.802404  1647 layer_factory.hpp:77] Creating layer res3c_branch2b_relu
I1208 21:41:13.802444  1647 net.cpp:100] Creating Layer res3c_branch2b_relu
I1208 21:41:13.802462  1647 net.cpp:434] res3c_branch2b_relu <- res3c_branch2b
I1208 21:41:13.802479  1647 net.cpp:395] res3c_branch2b_relu -> res3c_branch2b (in-place)
I1208 21:41:13.802877  1647 net.cpp:150] Setting up res3c_branch2b_relu
I1208 21:41:13.802907  1647 net.cpp:157] Top shape: 50 128 28 28 (5017600)
I1208 21:41:13.802922  1647 net.cpp:165] Memory required for data: 7456154200
I1208 21:41:13.802935  1647 layer_factory.hpp:77] Creating layer res3c_branch2c
I1208 21:41:13.802999  1647 net.cpp:100] Creating Layer res3c_branch2c
I1208 21:41:13.803017  1647 net.cpp:434] res3c_branch2c <- res3c_branch2b
I1208 21:41:13.803036  1647 net.cpp:408] res3c_branch2c -> res3c_branch2c
I1208 21:41:13.807971  1647 net.cpp:150] Setting up res3c_branch2c
I1208 21:41:13.808034  1647 net.cpp:157] Top shape: 50 512 28 28 (20070400)
I1208 21:41:13.808054  1647 net.cpp:165] Memory required for data: 7536435800
I1208 21:41:13.808075  1647 layer_factory.hpp:77] Creating layer bn3c_branch2c
I1208 21:41:13.808095  1647 net.cpp:100] Creating Layer bn3c_branch2c
I1208 21:41:13.808110  1647 net.cpp:434] bn3c_branch2c <- res3c_branch2c
I1208 21:41:13.808126  1647 net.cpp:395] bn3c_branch2c -> res3c_branch2c (in-place)
I1208 21:41:13.808532  1647 net.cpp:150] Setting up bn3c_branch2c
I1208 21:41:13.808557  1647 net.cpp:157] Top shape: 50 512 28 28 (20070400)
I1208 21:41:13.808570  1647 net.cpp:165] Memory required for data: 7616717400
I1208 21:41:13.808589  1647 layer_factory.hpp:77] Creating layer scale3c_branch2c
I1208 21:41:13.808607  1647 net.cpp:100] Creating Layer scale3c_branch2c
I1208 21:41:13.808621  1647 net.cpp:434] scale3c_branch2c <- res3c_branch2c
I1208 21:41:13.808647  1647 net.cpp:395] scale3c_branch2c -> res3c_branch2c (in-place)
I1208 21:41:13.808768  1647 layer_factory.hpp:77] Creating layer scale3c_branch2c
I1208 21:41:13.809021  1647 net.cpp:150] Setting up scale3c_branch2c
I1208 21:41:13.809047  1647 net.cpp:157] Top shape: 50 512 28 28 (20070400)
I1208 21:41:13.809061  1647 net.cpp:165] Memory required for data: 7696999000
I1208 21:41:13.809078  1647 layer_factory.hpp:77] Creating layer res3c
I1208 21:41:13.809118  1647 net.cpp:100] Creating Layer res3c
I1208 21:41:13.809137  1647 net.cpp:434] res3c <- res3b_res3b_relu_0_split_1
I1208 21:41:13.809152  1647 net.cpp:434] res3c <- res3c_branch2c
I1208 21:41:13.809190  1647 net.cpp:408] res3c -> res3c
I1208 21:41:13.809247  1647 net.cpp:150] Setting up res3c
I1208 21:41:13.809267  1647 net.cpp:157] Top shape: 50 512 28 28 (20070400)
I1208 21:41:13.809279  1647 net.cpp:165] Memory required for data: 7777280600
I1208 21:41:13.809293  1647 layer_factory.hpp:77] Creating layer res3c_relu
I1208 21:41:13.809329  1647 net.cpp:100] Creating Layer res3c_relu
I1208 21:41:13.809348  1647 net.cpp:434] res3c_relu <- res3c
I1208 21:41:13.809363  1647 net.cpp:395] res3c_relu -> res3c (in-place)
I1208 21:41:13.809685  1647 net.cpp:150] Setting up res3c_relu
I1208 21:41:13.809715  1647 net.cpp:157] Top shape: 50 512 28 28 (20070400)
I1208 21:41:13.809728  1647 net.cpp:165] Memory required for data: 7857562200
I1208 21:41:13.809741  1647 layer_factory.hpp:77] Creating layer res3c_res3c_relu_0_split
I1208 21:41:13.809777  1647 net.cpp:100] Creating Layer res3c_res3c_relu_0_split
I1208 21:41:13.809795  1647 net.cpp:434] res3c_res3c_relu_0_split <- res3c
I1208 21:41:13.809816  1647 net.cpp:408] res3c_res3c_relu_0_split -> res3c_res3c_relu_0_split_0
I1208 21:41:13.809857  1647 net.cpp:408] res3c_res3c_relu_0_split -> res3c_res3c_relu_0_split_1
I1208 21:41:13.809953  1647 net.cpp:150] Setting up res3c_res3c_relu_0_split
I1208 21:41:13.809976  1647 net.cpp:157] Top shape: 50 512 28 28 (20070400)
I1208 21:41:13.809991  1647 net.cpp:157] Top shape: 50 512 28 28 (20070400)
I1208 21:41:13.810081  1647 net.cpp:165] Memory required for data: 8018125400
I1208 21:41:13.810151  1647 layer_factory.hpp:77] Creating layer res3d_branch2a
I1208 21:41:13.810202  1647 net.cpp:100] Creating Layer res3d_branch2a
I1208 21:41:13.810222  1647 net.cpp:434] res3d_branch2a <- res3c_res3c_relu_0_split_0
I1208 21:41:13.810261  1647 net.cpp:408] res3d_branch2a -> res3d_branch2a
I1208 21:41:13.823863  1647 net.cpp:150] Setting up res3d_branch2a
I1208 21:41:13.823904  1647 net.cpp:157] Top shape: 50 128 28 28 (5017600)
I1208 21:41:13.823921  1647 net.cpp:165] Memory required for data: 8038195800
I1208 21:41:13.823937  1647 layer_factory.hpp:77] Creating layer bn3d_branch2a
I1208 21:41:13.823982  1647 net.cpp:100] Creating Layer bn3d_branch2a
I1208 21:41:13.824002  1647 net.cpp:434] bn3d_branch2a <- res3d_branch2a
I1208 21:41:13.824039  1647 net.cpp:395] bn3d_branch2a -> res3d_branch2a (in-place)
I1208 21:41:13.824425  1647 net.cpp:150] Setting up bn3d_branch2a
I1208 21:41:13.824450  1647 net.cpp:157] Top shape: 50 128 28 28 (5017600)
I1208 21:41:13.824463  1647 net.cpp:165] Memory required for data: 8058266200
I1208 21:41:13.824542  1647 layer_factory.hpp:77] Creating layer scale3d_branch2a
I1208 21:41:13.824585  1647 net.cpp:100] Creating Layer scale3d_branch2a
I1208 21:41:13.824604  1647 net.cpp:434] scale3d_branch2a <- res3d_branch2a
I1208 21:41:13.824650  1647 net.cpp:395] scale3d_branch2a -> res3d_branch2a (in-place)
I1208 21:41:13.824733  1647 layer_factory.hpp:77] Creating layer scale3d_branch2a
I1208 21:41:13.824982  1647 net.cpp:150] Setting up scale3d_branch2a
I1208 21:41:13.825008  1647 net.cpp:157] Top shape: 50 128 28 28 (5017600)
I1208 21:41:13.825021  1647 net.cpp:165] Memory required for data: 8078336600
I1208 21:41:13.825038  1647 layer_factory.hpp:77] Creating layer res3d_branch2a_relu
I1208 21:41:13.825054  1647 net.cpp:100] Creating Layer res3d_branch2a_relu
I1208 21:41:13.825068  1647 net.cpp:434] res3d_branch2a_relu <- res3d_branch2a
I1208 21:41:13.825083  1647 net.cpp:395] res3d_branch2a_relu -> res3d_branch2a (in-place)
I1208 21:41:13.825453  1647 net.cpp:150] Setting up res3d_branch2a_relu
I1208 21:41:13.825482  1647 net.cpp:157] Top shape: 50 128 28 28 (5017600)
I1208 21:41:13.825495  1647 net.cpp:165] Memory required for data: 8098407000
I1208 21:41:13.825512  1647 layer_factory.hpp:77] Creating layer res3d_branch2b
I1208 21:41:13.825554  1647 net.cpp:100] Creating Layer res3d_branch2b
I1208 21:41:13.825572  1647 net.cpp:434] res3d_branch2b <- res3d_branch2a
I1208 21:41:13.825592  1647 net.cpp:408] res3d_branch2b -> res3d_branch2b
I1208 21:41:13.834302  1647 net.cpp:150] Setting up res3d_branch2b
I1208 21:41:13.834342  1647 net.cpp:157] Top shape: 50 128 28 28 (5017600)
I1208 21:41:13.834357  1647 net.cpp:165] Memory required for data: 8118477400
I1208 21:41:13.834374  1647 layer_factory.hpp:77] Creating layer bn3d_branch2b
I1208 21:41:13.834398  1647 net.cpp:100] Creating Layer bn3d_branch2b
I1208 21:41:13.834415  1647 net.cpp:434] bn3d_branch2b <- res3d_branch2b
I1208 21:41:13.834453  1647 net.cpp:395] bn3d_branch2b -> res3d_branch2b (in-place)
I1208 21:41:13.834875  1647 net.cpp:150] Setting up bn3d_branch2b
I1208 21:41:13.834903  1647 net.cpp:157] Top shape: 50 128 28 28 (5017600)
I1208 21:41:13.834916  1647 net.cpp:165] Memory required for data: 8138547800
I1208 21:41:13.834935  1647 layer_factory.hpp:77] Creating layer scale3d_branch2b
I1208 21:41:13.834954  1647 net.cpp:100] Creating Layer scale3d_branch2b
I1208 21:41:13.834967  1647 net.cpp:434] scale3d_branch2b <- res3d_branch2b
I1208 21:41:13.834983  1647 net.cpp:395] scale3d_branch2b -> res3d_branch2b (in-place)
I1208 21:41:13.835080  1647 layer_factory.hpp:77] Creating layer scale3d_branch2b
I1208 21:41:13.835333  1647 net.cpp:150] Setting up scale3d_branch2b
I1208 21:41:13.835358  1647 net.cpp:157] Top shape: 50 128 28 28 (5017600)
I1208 21:41:13.835371  1647 net.cpp:165] Memory required for data: 8158618200
I1208 21:41:13.835388  1647 layer_factory.hpp:77] Creating layer res3d_branch2b_relu
I1208 21:41:13.835404  1647 net.cpp:100] Creating Layer res3d_branch2b_relu
I1208 21:41:13.835465  1647 net.cpp:434] res3d_branch2b_relu <- res3d_branch2b
I1208 21:41:13.835530  1647 net.cpp:395] res3d_branch2b_relu -> res3d_branch2b (in-place)
I1208 21:41:13.835906  1647 net.cpp:150] Setting up res3d_branch2b_relu
I1208 21:41:13.835937  1647 net.cpp:157] Top shape: 50 128 28 28 (5017600)
I1208 21:41:13.835950  1647 net.cpp:165] Memory required for data: 8178688600
I1208 21:41:13.835968  1647 layer_factory.hpp:77] Creating layer res3d_branch2c
I1208 21:41:13.836011  1647 net.cpp:100] Creating Layer res3d_branch2c
I1208 21:41:13.836030  1647 net.cpp:434] res3d_branch2c <- res3d_branch2b
I1208 21:41:13.836066  1647 net.cpp:408] res3d_branch2c -> res3d_branch2c
I1208 21:41:13.840929  1647 net.cpp:150] Setting up res3d_branch2c
I1208 21:41:13.840970  1647 net.cpp:157] Top shape: 50 512 28 28 (20070400)
I1208 21:41:13.840986  1647 net.cpp:165] Memory required for data: 8258970200
I1208 21:41:13.841002  1647 layer_factory.hpp:77] Creating layer bn3d_branch2c
I1208 21:41:13.841042  1647 net.cpp:100] Creating Layer bn3d_branch2c
I1208 21:41:13.841063  1647 net.cpp:434] bn3d_branch2c <- res3d_branch2c
I1208 21:41:13.841080  1647 net.cpp:395] bn3d_branch2c -> res3d_branch2c (in-place)
I1208 21:41:13.841480  1647 net.cpp:150] Setting up bn3d_branch2c
I1208 21:41:13.841506  1647 net.cpp:157] Top shape: 50 512 28 28 (20070400)
I1208 21:41:13.841519  1647 net.cpp:165] Memory required for data: 8339251800
I1208 21:41:13.841538  1647 layer_factory.hpp:77] Creating layer scale3d_branch2c
I1208 21:41:13.841555  1647 net.cpp:100] Creating Layer scale3d_branch2c
I1208 21:41:13.841569  1647 net.cpp:434] scale3d_branch2c <- res3d_branch2c
I1208 21:41:13.841585  1647 net.cpp:395] scale3d_branch2c -> res3d_branch2c (in-place)
I1208 21:41:13.841699  1647 layer_factory.hpp:77] Creating layer scale3d_branch2c
I1208 21:41:13.841958  1647 net.cpp:150] Setting up scale3d_branch2c
I1208 21:41:13.841984  1647 net.cpp:157] Top shape: 50 512 28 28 (20070400)
I1208 21:41:13.841996  1647 net.cpp:165] Memory required for data: 8419533400
I1208 21:41:13.842015  1647 layer_factory.hpp:77] Creating layer res3d
I1208 21:41:13.842079  1647 net.cpp:100] Creating Layer res3d
I1208 21:41:13.842103  1647 net.cpp:434] res3d <- res3c_res3c_relu_0_split_1
I1208 21:41:13.842119  1647 net.cpp:434] res3d <- res3d_branch2c
I1208 21:41:13.842135  1647 net.cpp:408] res3d -> res3d
I1208 21:41:13.842214  1647 net.cpp:150] Setting up res3d
I1208 21:41:13.842238  1647 net.cpp:157] Top shape: 50 512 28 28 (20070400)
I1208 21:41:13.842252  1647 net.cpp:165] Memory required for data: 8499815000
I1208 21:41:13.842264  1647 layer_factory.hpp:77] Creating layer res3d_relu
I1208 21:41:13.842286  1647 net.cpp:100] Creating Layer res3d_relu
I1208 21:41:13.842301  1647 net.cpp:434] res3d_relu <- res3d
I1208 21:41:13.842335  1647 net.cpp:395] res3d_relu -> res3d (in-place)
I1208 21:41:13.843813  1647 net.cpp:150] Setting up res3d_relu
I1208 21:41:13.843849  1647 net.cpp:157] Top shape: 50 512 28 28 (20070400)
I1208 21:41:13.843864  1647 net.cpp:165] Memory required for data: 8580096600
I1208 21:41:13.843878  1647 layer_factory.hpp:77] Creating layer res3d_res3d_relu_0_split
I1208 21:41:13.843894  1647 net.cpp:100] Creating Layer res3d_res3d_relu_0_split
I1208 21:41:13.843909  1647 net.cpp:434] res3d_res3d_relu_0_split <- res3d
I1208 21:41:13.843947  1647 net.cpp:408] res3d_res3d_relu_0_split -> res3d_res3d_relu_0_split_0
I1208 21:41:13.843972  1647 net.cpp:408] res3d_res3d_relu_0_split -> res3d_res3d_relu_0_split_1
I1208 21:41:13.844074  1647 net.cpp:150] Setting up res3d_res3d_relu_0_split
I1208 21:41:13.844095  1647 net.cpp:157] Top shape: 50 512 28 28 (20070400)
I1208 21:41:13.844110  1647 net.cpp:157] Top shape: 50 512 28 28 (20070400)
I1208 21:41:13.844122  1647 net.cpp:165] Memory required for data: 8740659800
I1208 21:41:13.844135  1647 layer_factory.hpp:77] Creating layer res4a_branch1
I1208 21:41:13.844192  1647 net.cpp:100] Creating Layer res4a_branch1
I1208 21:41:13.844210  1647 net.cpp:434] res4a_branch1 <- res3d_res3d_relu_0_split_0
I1208 21:41:13.844274  1647 net.cpp:408] res4a_branch1 -> res4a_branch1
I1208 21:41:13.867909  1647 net.cpp:150] Setting up res4a_branch1
I1208 21:41:13.867950  1647 net.cpp:157] Top shape: 50 1024 14 14 (10035200)
I1208 21:41:13.867965  1647 net.cpp:165] Memory required for data: 8780800600
I1208 21:41:13.867982  1647 layer_factory.hpp:77] Creating layer bn4a_branch1
I1208 21:41:13.868003  1647 net.cpp:100] Creating Layer bn4a_branch1
I1208 21:41:13.868018  1647 net.cpp:434] bn4a_branch1 <- res4a_branch1
I1208 21:41:13.868036  1647 net.cpp:395] bn4a_branch1 -> res4a_branch1 (in-place)
I1208 21:41:13.868367  1647 net.cpp:150] Setting up bn4a_branch1
I1208 21:41:13.868391  1647 net.cpp:157] Top shape: 50 1024 14 14 (10035200)
I1208 21:41:13.868403  1647 net.cpp:165] Memory required for data: 8820941400
I1208 21:41:13.868423  1647 layer_factory.hpp:77] Creating layer scale4a_branch1
I1208 21:41:13.868444  1647 net.cpp:100] Creating Layer scale4a_branch1
I1208 21:41:13.868459  1647 net.cpp:434] scale4a_branch1 <- res4a_branch1
I1208 21:41:13.868477  1647 net.cpp:395] scale4a_branch1 -> res4a_branch1 (in-place)
I1208 21:41:13.868549  1647 layer_factory.hpp:77] Creating layer scale4a_branch1
I1208 21:41:13.868746  1647 net.cpp:150] Setting up scale4a_branch1
I1208 21:41:13.868770  1647 net.cpp:157] Top shape: 50 1024 14 14 (10035200)
I1208 21:41:13.868783  1647 net.cpp:165] Memory required for data: 8861082200
I1208 21:41:13.868804  1647 layer_factory.hpp:77] Creating layer res4a_branch2a
I1208 21:41:13.868829  1647 net.cpp:100] Creating Layer res4a_branch2a
I1208 21:41:13.868844  1647 net.cpp:434] res4a_branch2a <- res3d_res3d_relu_0_split_1
I1208 21:41:13.868860  1647 net.cpp:408] res4a_branch2a -> res4a_branch2a
I1208 21:41:13.874470  1647 net.cpp:150] Setting up res4a_branch2a
I1208 21:41:13.874527  1647 net.cpp:157] Top shape: 50 256 14 14 (2508800)
I1208 21:41:13.874543  1647 net.cpp:165] Memory required for data: 8871117400
I1208 21:41:13.874559  1647 layer_factory.hpp:77] Creating layer bn4a_branch2a
I1208 21:41:13.874577  1647 net.cpp:100] Creating Layer bn4a_branch2a
I1208 21:41:13.874593  1647 net.cpp:434] bn4a_branch2a <- res4a_branch2a
I1208 21:41:13.874639  1647 net.cpp:395] bn4a_branch2a -> res4a_branch2a (in-place)
I1208 21:41:13.875052  1647 net.cpp:150] Setting up bn4a_branch2a
I1208 21:41:13.875078  1647 net.cpp:157] Top shape: 50 256 14 14 (2508800)
I1208 21:41:13.875092  1647 net.cpp:165] Memory required for data: 8881152600
I1208 21:41:13.875111  1647 layer_factory.hpp:77] Creating layer scale4a_branch2a
I1208 21:41:13.875128  1647 net.cpp:100] Creating Layer scale4a_branch2a
I1208 21:41:13.875144  1647 net.cpp:434] scale4a_branch2a <- res4a_branch2a
I1208 21:41:13.875159  1647 net.cpp:395] scale4a_branch2a -> res4a_branch2a (in-place)
I1208 21:41:13.875254  1647 layer_factory.hpp:77] Creating layer scale4a_branch2a
I1208 21:41:13.875520  1647 net.cpp:150] Setting up scale4a_branch2a
I1208 21:41:13.875546  1647 net.cpp:157] Top shape: 50 256 14 14 (2508800)
I1208 21:41:13.875560  1647 net.cpp:165] Memory required for data: 8891187800
I1208 21:41:13.875576  1647 layer_factory.hpp:77] Creating layer res4a_branch2a_relu
I1208 21:41:13.875597  1647 net.cpp:100] Creating Layer res4a_branch2a_relu
I1208 21:41:13.875612  1647 net.cpp:434] res4a_branch2a_relu <- res4a_branch2a
I1208 21:41:13.875658  1647 net.cpp:395] res4a_branch2a_relu -> res4a_branch2a (in-place)
I1208 21:41:13.877163  1647 net.cpp:150] Setting up res4a_branch2a_relu
I1208 21:41:13.877200  1647 net.cpp:157] Top shape: 50 256 14 14 (2508800)
I1208 21:41:13.877215  1647 net.cpp:165] Memory required for data: 8901223000
I1208 21:41:13.877233  1647 layer_factory.hpp:77] Creating layer res4a_branch2b
I1208 21:41:13.877274  1647 net.cpp:100] Creating Layer res4a_branch2b
I1208 21:41:13.877295  1647 net.cpp:434] res4a_branch2b <- res4a_branch2a
I1208 21:41:13.877334  1647 net.cpp:408] res4a_branch2b -> res4a_branch2b
I1208 21:41:13.910518  1647 net.cpp:150] Setting up res4a_branch2b
I1208 21:41:13.910559  1647 net.cpp:157] Top shape: 50 256 14 14 (2508800)
I1208 21:41:13.910620  1647 net.cpp:165] Memory required for data: 8911258200
I1208 21:41:13.910683  1647 layer_factory.hpp:77] Creating layer bn4a_branch2b
I1208 21:41:13.910727  1647 net.cpp:100] Creating Layer bn4a_branch2b
I1208 21:41:13.910746  1647 net.cpp:434] bn4a_branch2b <- res4a_branch2b
I1208 21:41:13.910763  1647 net.cpp:395] bn4a_branch2b -> res4a_branch2b (in-place)
I1208 21:41:13.911159  1647 net.cpp:150] Setting up bn4a_branch2b
I1208 21:41:13.911185  1647 net.cpp:157] Top shape: 50 256 14 14 (2508800)
I1208 21:41:13.911198  1647 net.cpp:165] Memory required for data: 8921293400
I1208 21:41:13.911216  1647 layer_factory.hpp:77] Creating layer scale4a_branch2b
I1208 21:41:13.911260  1647 net.cpp:100] Creating Layer scale4a_branch2b
I1208 21:41:13.911279  1647 net.cpp:434] scale4a_branch2b <- res4a_branch2b
I1208 21:41:13.911295  1647 net.cpp:395] scale4a_branch2b -> res4a_branch2b (in-place)
I1208 21:41:13.911396  1647 layer_factory.hpp:77] Creating layer scale4a_branch2b
I1208 21:41:13.911672  1647 net.cpp:150] Setting up scale4a_branch2b
I1208 21:41:13.911700  1647 net.cpp:157] Top shape: 50 256 14 14 (2508800)
I1208 21:41:13.911713  1647 net.cpp:165] Memory required for data: 8931328600
I1208 21:41:13.911731  1647 layer_factory.hpp:77] Creating layer res4a_branch2b_relu
I1208 21:41:13.911746  1647 net.cpp:100] Creating Layer res4a_branch2b_relu
I1208 21:41:13.911761  1647 net.cpp:434] res4a_branch2b_relu <- res4a_branch2b
I1208 21:41:13.911798  1647 net.cpp:395] res4a_branch2b_relu -> res4a_branch2b (in-place)
I1208 21:41:13.912142  1647 net.cpp:150] Setting up res4a_branch2b_relu
I1208 21:41:13.912170  1647 net.cpp:157] Top shape: 50 256 14 14 (2508800)
I1208 21:41:13.912184  1647 net.cpp:165] Memory required for data: 8941363800
I1208 21:41:13.912197  1647 layer_factory.hpp:77] Creating layer res4a_branch2c
I1208 21:41:13.912242  1647 net.cpp:100] Creating Layer res4a_branch2c
I1208 21:41:13.912278  1647 net.cpp:434] res4a_branch2c <- res4a_branch2b
I1208 21:41:13.912298  1647 net.cpp:408] res4a_branch2c -> res4a_branch2c
I1208 21:41:13.932456  1647 net.cpp:150] Setting up res4a_branch2c
I1208 21:41:13.932498  1647 net.cpp:157] Top shape: 50 1024 14 14 (10035200)
I1208 21:41:13.932514  1647 net.cpp:165] Memory required for data: 8981504600
I1208 21:41:13.932531  1647 layer_factory.hpp:77] Creating layer bn4a_branch2c
I1208 21:41:13.932574  1647 net.cpp:100] Creating Layer bn4a_branch2c
I1208 21:41:13.932595  1647 net.cpp:434] bn4a_branch2c <- res4a_branch2c
I1208 21:41:13.932612  1647 net.cpp:395] bn4a_branch2c -> res4a_branch2c (in-place)
I1208 21:41:13.933033  1647 net.cpp:150] Setting up bn4a_branch2c
I1208 21:41:13.933060  1647 net.cpp:157] Top shape: 50 1024 14 14 (10035200)
I1208 21:41:13.933073  1647 net.cpp:165] Memory required for data: 9021645400
I1208 21:41:13.933092  1647 layer_factory.hpp:77] Creating layer scale4a_branch2c
I1208 21:41:13.933110  1647 net.cpp:100] Creating Layer scale4a_branch2c
I1208 21:41:13.933125  1647 net.cpp:434] scale4a_branch2c <- res4a_branch2c
I1208 21:41:13.933140  1647 net.cpp:395] scale4a_branch2c -> res4a_branch2c (in-place)
I1208 21:41:13.933241  1647 layer_factory.hpp:77] Creating layer scale4a_branch2c
I1208 21:41:13.933503  1647 net.cpp:150] Setting up scale4a_branch2c
I1208 21:41:13.933528  1647 net.cpp:157] Top shape: 50 1024 14 14 (10035200)
I1208 21:41:13.933542  1647 net.cpp:165] Memory required for data: 9061786200
I1208 21:41:13.933558  1647 layer_factory.hpp:77] Creating layer res4a
I1208 21:41:13.933598  1647 net.cpp:100] Creating Layer res4a
I1208 21:41:13.933615  1647 net.cpp:434] res4a <- res4a_branch1
I1208 21:41:13.933641  1647 net.cpp:434] res4a <- res4a_branch2c
I1208 21:41:13.933660  1647 net.cpp:408] res4a -> res4a
I1208 21:41:13.933739  1647 net.cpp:150] Setting up res4a
I1208 21:41:13.933763  1647 net.cpp:157] Top shape: 50 1024 14 14 (10035200)
I1208 21:41:13.933776  1647 net.cpp:165] Memory required for data: 9101927000
I1208 21:41:13.933789  1647 layer_factory.hpp:77] Creating layer res4a_relu
I1208 21:41:13.933852  1647 net.cpp:100] Creating Layer res4a_relu
I1208 21:41:13.933898  1647 net.cpp:434] res4a_relu <- res4a
I1208 21:41:13.933936  1647 net.cpp:395] res4a_relu -> res4a (in-place)
I1208 21:41:13.934336  1647 net.cpp:150] Setting up res4a_relu
I1208 21:41:13.934368  1647 net.cpp:157] Top shape: 50 1024 14 14 (10035200)
I1208 21:41:13.934382  1647 net.cpp:165] Memory required for data: 9142067800
I1208 21:41:13.934399  1647 layer_factory.hpp:77] Creating layer res4a_res4a_relu_0_split
I1208 21:41:13.934475  1647 net.cpp:100] Creating Layer res4a_res4a_relu_0_split
I1208 21:41:13.934494  1647 net.cpp:434] res4a_res4a_relu_0_split <- res4a
I1208 21:41:13.934512  1647 net.cpp:408] res4a_res4a_relu_0_split -> res4a_res4a_relu_0_split_0
I1208 21:41:13.934553  1647 net.cpp:408] res4a_res4a_relu_0_split -> res4a_res4a_relu_0_split_1
I1208 21:41:13.934660  1647 net.cpp:150] Setting up res4a_res4a_relu_0_split
I1208 21:41:13.934685  1647 net.cpp:157] Top shape: 50 1024 14 14 (10035200)
I1208 21:41:13.934700  1647 net.cpp:157] Top shape: 50 1024 14 14 (10035200)
I1208 21:41:13.934712  1647 net.cpp:165] Memory required for data: 9222349400
I1208 21:41:13.934725  1647 layer_factory.hpp:77] Creating layer res4b_branch2a
I1208 21:41:13.934770  1647 net.cpp:100] Creating Layer res4b_branch2a
I1208 21:41:13.934789  1647 net.cpp:434] res4b_branch2a <- res4a_res4a_relu_0_split_0
I1208 21:41:13.934828  1647 net.cpp:408] res4b_branch2a -> res4b_branch2a
I1208 21:41:13.947336  1647 net.cpp:150] Setting up res4b_branch2a
I1208 21:41:13.947377  1647 net.cpp:157] Top shape: 50 256 14 14 (2508800)
I1208 21:41:13.947392  1647 net.cpp:165] Memory required for data: 9232384600
I1208 21:41:13.947409  1647 layer_factory.hpp:77] Creating layer bn4b_branch2a
I1208 21:41:13.947448  1647 net.cpp:100] Creating Layer bn4b_branch2a
I1208 21:41:13.947468  1647 net.cpp:434] bn4b_branch2a <- res4b_branch2a
I1208 21:41:13.947484  1647 net.cpp:395] bn4b_branch2a -> res4b_branch2a (in-place)
I1208 21:41:13.947891  1647 net.cpp:150] Setting up bn4b_branch2a
I1208 21:41:13.947918  1647 net.cpp:157] Top shape: 50 256 14 14 (2508800)
I1208 21:41:13.947932  1647 net.cpp:165] Memory required for data: 9242419800
I1208 21:41:13.947952  1647 layer_factory.hpp:77] Creating layer scale4b_branch2a
I1208 21:41:13.947990  1647 net.cpp:100] Creating Layer scale4b_branch2a
I1208 21:41:13.948010  1647 net.cpp:434] scale4b_branch2a <- res4b_branch2a
I1208 21:41:13.948026  1647 net.cpp:395] scale4b_branch2a -> res4b_branch2a (in-place)
I1208 21:41:13.948128  1647 layer_factory.hpp:77] Creating layer scale4b_branch2a
I1208 21:41:13.948400  1647 net.cpp:150] Setting up scale4b_branch2a
I1208 21:41:13.948426  1647 net.cpp:157] Top shape: 50 256 14 14 (2508800)
I1208 21:41:13.948439  1647 net.cpp:165] Memory required for data: 9252455000
I1208 21:41:13.948460  1647 layer_factory.hpp:77] Creating layer res4b_branch2a_relu
I1208 21:41:13.948480  1647 net.cpp:100] Creating Layer res4b_branch2a_relu
I1208 21:41:13.948495  1647 net.cpp:434] res4b_branch2a_relu <- res4b_branch2a
I1208 21:41:13.948529  1647 net.cpp:395] res4b_branch2a_relu -> res4b_branch2a (in-place)
I1208 21:41:13.948879  1647 net.cpp:150] Setting up res4b_branch2a_relu
I1208 21:41:13.948909  1647 net.cpp:157] Top shape: 50 256 14 14 (2508800)
I1208 21:41:13.948921  1647 net.cpp:165] Memory required for data: 9262490200
I1208 21:41:13.948935  1647 layer_factory.hpp:77] Creating layer res4b_branch2b
I1208 21:41:13.948976  1647 net.cpp:100] Creating Layer res4b_branch2b
I1208 21:41:13.948995  1647 net.cpp:434] res4b_branch2b <- res4b_branch2a
I1208 21:41:13.949033  1647 net.cpp:408] res4b_branch2b -> res4b_branch2b
I1208 21:41:13.982354  1647 net.cpp:150] Setting up res4b_branch2b
I1208 21:41:13.982393  1647 net.cpp:157] Top shape: 50 256 14 14 (2508800)
I1208 21:41:13.982409  1647 net.cpp:165] Memory required for data: 9272525400
I1208 21:41:13.982426  1647 layer_factory.hpp:77] Creating layer bn4b_branch2b
I1208 21:41:13.982445  1647 net.cpp:100] Creating Layer bn4b_branch2b
I1208 21:41:13.982460  1647 net.cpp:434] bn4b_branch2b <- res4b_branch2b
I1208 21:41:13.982532  1647 net.cpp:395] bn4b_branch2b -> res4b_branch2b (in-place)
I1208 21:41:13.982960  1647 net.cpp:150] Setting up bn4b_branch2b
I1208 21:41:13.982988  1647 net.cpp:157] Top shape: 50 256 14 14 (2508800)
I1208 21:41:13.983002  1647 net.cpp:165] Memory required for data: 9282560600
I1208 21:41:13.983021  1647 layer_factory.hpp:77] Creating layer scale4b_branch2b
I1208 21:41:13.983062  1647 net.cpp:100] Creating Layer scale4b_branch2b
I1208 21:41:13.983080  1647 net.cpp:434] scale4b_branch2b <- res4b_branch2b
I1208 21:41:13.983116  1647 net.cpp:395] scale4b_branch2b -> res4b_branch2b (in-place)
I1208 21:41:13.983222  1647 layer_factory.hpp:77] Creating layer scale4b_branch2b
I1208 21:41:13.983474  1647 net.cpp:150] Setting up scale4b_branch2b
I1208 21:41:13.983500  1647 net.cpp:157] Top shape: 50 256 14 14 (2508800)
I1208 21:41:13.983513  1647 net.cpp:165] Memory required for data: 9292595800
I1208 21:41:13.983530  1647 layer_factory.hpp:77] Creating layer res4b_branch2b_relu
I1208 21:41:13.983575  1647 net.cpp:100] Creating Layer res4b_branch2b_relu
I1208 21:41:13.983593  1647 net.cpp:434] res4b_branch2b_relu <- res4b_branch2b
I1208 21:41:13.983609  1647 net.cpp:395] res4b_branch2b_relu -> res4b_branch2b (in-place)
I1208 21:41:13.983955  1647 net.cpp:150] Setting up res4b_branch2b_relu
I1208 21:41:13.983984  1647 net.cpp:157] Top shape: 50 256 14 14 (2508800)
I1208 21:41:13.983997  1647 net.cpp:165] Memory required for data: 9302631000
I1208 21:41:13.984011  1647 layer_factory.hpp:77] Creating layer res4b_branch2c
I1208 21:41:13.984068  1647 net.cpp:100] Creating Layer res4b_branch2c
I1208 21:41:13.984088  1647 net.cpp:434] res4b_branch2c <- res4b_branch2b
I1208 21:41:13.984107  1647 net.cpp:408] res4b_branch2c -> res4b_branch2c
I1208 21:41:14.004125  1647 net.cpp:150] Setting up res4b_branch2c
I1208 21:41:14.004166  1647 net.cpp:157] Top shape: 50 1024 14 14 (10035200)
I1208 21:41:14.004182  1647 net.cpp:165] Memory required for data: 9342771800
I1208 21:41:14.004199  1647 layer_factory.hpp:77] Creating layer bn4b_branch2c
I1208 21:41:14.004240  1647 net.cpp:100] Creating Layer bn4b_branch2c
I1208 21:41:14.004261  1647 net.cpp:434] bn4b_branch2c <- res4b_branch2c
I1208 21:41:14.004278  1647 net.cpp:395] bn4b_branch2c -> res4b_branch2c (in-place)
I1208 21:41:14.004709  1647 net.cpp:150] Setting up bn4b_branch2c
I1208 21:41:14.004737  1647 net.cpp:157] Top shape: 50 1024 14 14 (10035200)
I1208 21:41:14.004750  1647 net.cpp:165] Memory required for data: 9382912600
I1208 21:41:14.004770  1647 layer_factory.hpp:77] Creating layer scale4b_branch2c
I1208 21:41:14.004792  1647 net.cpp:100] Creating Layer scale4b_branch2c
I1208 21:41:14.004807  1647 net.cpp:434] scale4b_branch2c <- res4b_branch2c
I1208 21:41:14.004842  1647 net.cpp:395] scale4b_branch2c -> res4b_branch2c (in-place)
I1208 21:41:14.004922  1647 layer_factory.hpp:77] Creating layer scale4b_branch2c
I1208 21:41:14.005203  1647 net.cpp:150] Setting up scale4b_branch2c
I1208 21:41:14.005228  1647 net.cpp:157] Top shape: 50 1024 14 14 (10035200)
I1208 21:41:14.005240  1647 net.cpp:165] Memory required for data: 9423053400
I1208 21:41:14.005257  1647 layer_factory.hpp:77] Creating layer res4b
I1208 21:41:14.005275  1647 net.cpp:100] Creating Layer res4b
I1208 21:41:14.005288  1647 net.cpp:434] res4b <- res4a_res4a_relu_0_split_1
I1208 21:41:14.005303  1647 net.cpp:434] res4b <- res4b_branch2c
I1208 21:41:14.005321  1647 net.cpp:408] res4b -> res4b
I1208 21:41:14.005400  1647 net.cpp:150] Setting up res4b
I1208 21:41:14.005424  1647 net.cpp:157] Top shape: 50 1024 14 14 (10035200)
I1208 21:41:14.005435  1647 net.cpp:165] Memory required for data: 9463194200
I1208 21:41:14.005452  1647 layer_factory.hpp:77] Creating layer res4b_relu
I1208 21:41:14.005489  1647 net.cpp:100] Creating Layer res4b_relu
I1208 21:41:14.005507  1647 net.cpp:434] res4b_relu <- res4b
I1208 21:41:14.005522  1647 net.cpp:395] res4b_relu -> res4b (in-place)
I1208 21:41:14.007050  1647 net.cpp:150] Setting up res4b_relu
I1208 21:41:14.007088  1647 net.cpp:157] Top shape: 50 1024 14 14 (10035200)
I1208 21:41:14.007174  1647 net.cpp:165] Memory required for data: 9503335000
I1208 21:41:14.007191  1647 layer_factory.hpp:77] Creating layer res4b_res4b_relu_0_split
I1208 21:41:14.007230  1647 net.cpp:100] Creating Layer res4b_res4b_relu_0_split
I1208 21:41:14.007249  1647 net.cpp:434] res4b_res4b_relu_0_split <- res4b
I1208 21:41:14.007267  1647 net.cpp:408] res4b_res4b_relu_0_split -> res4b_res4b_relu_0_split_0
I1208 21:41:14.007287  1647 net.cpp:408] res4b_res4b_relu_0_split -> res4b_res4b_relu_0_split_1
I1208 21:41:14.007429  1647 net.cpp:150] Setting up res4b_res4b_relu_0_split
I1208 21:41:14.007453  1647 net.cpp:157] Top shape: 50 1024 14 14 (10035200)
I1208 21:41:14.007469  1647 net.cpp:157] Top shape: 50 1024 14 14 (10035200)
I1208 21:41:14.007481  1647 net.cpp:165] Memory required for data: 9583616600
I1208 21:41:14.007494  1647 layer_factory.hpp:77] Creating layer res4c_branch2a
I1208 21:41:14.007539  1647 net.cpp:100] Creating Layer res4c_branch2a
I1208 21:41:14.007558  1647 net.cpp:434] res4c_branch2a <- res4b_res4b_relu_0_split_0
I1208 21:41:14.007597  1647 net.cpp:408] res4c_branch2a -> res4c_branch2a
I1208 21:41:14.017761  1647 net.cpp:150] Setting up res4c_branch2a
I1208 21:41:14.017822  1647 net.cpp:157] Top shape: 50 256 14 14 (2508800)
I1208 21:41:14.017841  1647 net.cpp:165] Memory required for data: 9593651800
I1208 21:41:14.017858  1647 layer_factory.hpp:77] Creating layer bn4c_branch2a
I1208 21:41:14.017876  1647 net.cpp:100] Creating Layer bn4c_branch2a
I1208 21:41:14.017891  1647 net.cpp:434] bn4c_branch2a <- res4c_branch2a
I1208 21:41:14.017930  1647 net.cpp:395] bn4c_branch2a -> res4c_branch2a (in-place)
I1208 21:41:14.018357  1647 net.cpp:150] Setting up bn4c_branch2a
I1208 21:41:14.018386  1647 net.cpp:157] Top shape: 50 256 14 14 (2508800)
I1208 21:41:14.018399  1647 net.cpp:165] Memory required for data: 9603687000
I1208 21:41:14.018422  1647 layer_factory.hpp:77] Creating layer scale4c_branch2a
I1208 21:41:14.018441  1647 net.cpp:100] Creating Layer scale4c_branch2a
I1208 21:41:14.018456  1647 net.cpp:434] scale4c_branch2a <- res4c_branch2a
I1208 21:41:14.018472  1647 net.cpp:395] scale4c_branch2a -> res4c_branch2a (in-place)
I1208 21:41:14.018575  1647 layer_factory.hpp:77] Creating layer scale4c_branch2a
I1208 21:41:14.018862  1647 net.cpp:150] Setting up scale4c_branch2a
I1208 21:41:14.018888  1647 net.cpp:157] Top shape: 50 256 14 14 (2508800)
I1208 21:41:14.018901  1647 net.cpp:165] Memory required for data: 9613722200
I1208 21:41:14.018919  1647 layer_factory.hpp:77] Creating layer res4c_branch2a_relu
I1208 21:41:14.018941  1647 net.cpp:100] Creating Layer res4c_branch2a_relu
I1208 21:41:14.018956  1647 net.cpp:434] res4c_branch2a_relu <- res4c_branch2a
I1208 21:41:14.018992  1647 net.cpp:395] res4c_branch2a_relu -> res4c_branch2a (in-place)
I1208 21:41:14.020489  1647 net.cpp:150] Setting up res4c_branch2a_relu
I1208 21:41:14.020525  1647 net.cpp:157] Top shape: 50 256 14 14 (2508800)
I1208 21:41:14.020540  1647 net.cpp:165] Memory required for data: 9623757400
I1208 21:41:14.020555  1647 layer_factory.hpp:77] Creating layer res4c_branch2b
I1208 21:41:14.020596  1647 net.cpp:100] Creating Layer res4c_branch2b
I1208 21:41:14.020617  1647 net.cpp:434] res4c_branch2b <- res4c_branch2a
I1208 21:41:14.020669  1647 net.cpp:408] res4c_branch2b -> res4c_branch2b
I1208 21:41:14.053705  1647 net.cpp:150] Setting up res4c_branch2b
I1208 21:41:14.053746  1647 net.cpp:157] Top shape: 50 256 14 14 (2508800)
I1208 21:41:14.053762  1647 net.cpp:165] Memory required for data: 9633792600
I1208 21:41:14.053781  1647 layer_factory.hpp:77] Creating layer bn4c_branch2b
I1208 21:41:14.053819  1647 net.cpp:100] Creating Layer bn4c_branch2b
I1208 21:41:14.053839  1647 net.cpp:434] bn4c_branch2b <- res4c_branch2b
I1208 21:41:14.053879  1647 net.cpp:395] bn4c_branch2b -> res4c_branch2b (in-place)
I1208 21:41:14.054347  1647 net.cpp:150] Setting up bn4c_branch2b
I1208 21:41:14.054378  1647 net.cpp:157] Top shape: 50 256 14 14 (2508800)
I1208 21:41:14.054392  1647 net.cpp:165] Memory required for data: 9643827800
I1208 21:41:14.054486  1647 layer_factory.hpp:77] Creating layer scale4c_branch2b
I1208 21:41:14.054533  1647 net.cpp:100] Creating Layer scale4c_branch2b
I1208 21:41:14.054553  1647 net.cpp:434] scale4c_branch2b <- res4c_branch2b
I1208 21:41:14.054571  1647 net.cpp:395] scale4c_branch2b -> res4c_branch2b (in-place)
I1208 21:41:14.054688  1647 layer_factory.hpp:77] Creating layer scale4c_branch2b
I1208 21:41:14.054966  1647 net.cpp:150] Setting up scale4c_branch2b
I1208 21:41:14.054992  1647 net.cpp:157] Top shape: 50 256 14 14 (2508800)
I1208 21:41:14.055006  1647 net.cpp:165] Memory required for data: 9653863000
I1208 21:41:14.055022  1647 layer_factory.hpp:77] Creating layer res4c_branch2b_relu
I1208 21:41:14.055044  1647 net.cpp:100] Creating Layer res4c_branch2b_relu
I1208 21:41:14.055059  1647 net.cpp:434] res4c_branch2b_relu <- res4c_branch2b
I1208 21:41:14.055095  1647 net.cpp:395] res4c_branch2b_relu -> res4c_branch2b (in-place)
I1208 21:41:14.055440  1647 net.cpp:150] Setting up res4c_branch2b_relu
I1208 21:41:14.055469  1647 net.cpp:157] Top shape: 50 256 14 14 (2508800)
I1208 21:41:14.055482  1647 net.cpp:165] Memory required for data: 9663898200
I1208 21:41:14.055496  1647 layer_factory.hpp:77] Creating layer res4c_branch2c
I1208 21:41:14.055537  1647 net.cpp:100] Creating Layer res4c_branch2c
I1208 21:41:14.055557  1647 net.cpp:434] res4c_branch2c <- res4c_branch2b
I1208 21:41:14.055596  1647 net.cpp:408] res4c_branch2c -> res4c_branch2c
I1208 21:41:14.075654  1647 net.cpp:150] Setting up res4c_branch2c
I1208 21:41:14.075695  1647 net.cpp:157] Top shape: 50 1024 14 14 (10035200)
I1208 21:41:14.075711  1647 net.cpp:165] Memory required for data: 9704039000
I1208 21:41:14.075727  1647 layer_factory.hpp:77] Creating layer bn4c_branch2c
I1208 21:41:14.075745  1647 net.cpp:100] Creating Layer bn4c_branch2c
I1208 21:41:14.075759  1647 net.cpp:434] bn4c_branch2c <- res4c_branch2c
I1208 21:41:14.075778  1647 net.cpp:395] bn4c_branch2c -> res4c_branch2c (in-place)
I1208 21:41:14.076084  1647 net.cpp:150] Setting up bn4c_branch2c
I1208 21:41:14.076108  1647 net.cpp:157] Top shape: 50 1024 14 14 (10035200)
I1208 21:41:14.076122  1647 net.cpp:165] Memory required for data: 9744179800
I1208 21:41:14.076141  1647 layer_factory.hpp:77] Creating layer scale4c_branch2c
I1208 21:41:14.076164  1647 net.cpp:100] Creating Layer scale4c_branch2c
I1208 21:41:14.076179  1647 net.cpp:434] scale4c_branch2c <- res4c_branch2c
I1208 21:41:14.076194  1647 net.cpp:395] scale4c_branch2c -> res4c_branch2c (in-place)
I1208 21:41:14.076273  1647 layer_factory.hpp:77] Creating layer scale4c_branch2c
I1208 21:41:14.076467  1647 net.cpp:150] Setting up scale4c_branch2c
I1208 21:41:14.076488  1647 net.cpp:157] Top shape: 50 1024 14 14 (10035200)
I1208 21:41:14.076500  1647 net.cpp:165] Memory required for data: 9784320600
I1208 21:41:14.076522  1647 layer_factory.hpp:77] Creating layer res4c
I1208 21:41:14.076544  1647 net.cpp:100] Creating Layer res4c
I1208 21:41:14.076558  1647 net.cpp:434] res4c <- res4b_res4b_relu_0_split_1
I1208 21:41:14.076572  1647 net.cpp:434] res4c <- res4c_branch2c
I1208 21:41:14.076588  1647 net.cpp:408] res4c -> res4c
I1208 21:41:14.076656  1647 net.cpp:150] Setting up res4c
I1208 21:41:14.076678  1647 net.cpp:157] Top shape: 50 1024 14 14 (10035200)
I1208 21:41:14.076690  1647 net.cpp:165] Memory required for data: 9824461400
I1208 21:41:14.076704  1647 layer_factory.hpp:77] Creating layer res4c_relu
I1208 21:41:14.076719  1647 net.cpp:100] Creating Layer res4c_relu
I1208 21:41:14.076732  1647 net.cpp:434] res4c_relu <- res4c
I1208 21:41:14.076750  1647 net.cpp:395] res4c_relu -> res4c (in-place)
I1208 21:41:14.076998  1647 net.cpp:150] Setting up res4c_relu
I1208 21:41:14.077024  1647 net.cpp:157] Top shape: 50 1024 14 14 (10035200)
I1208 21:41:14.077038  1647 net.cpp:165] Memory required for data: 9864602200
I1208 21:41:14.077050  1647 layer_factory.hpp:77] Creating layer res4c_res4c_relu_0_split
I1208 21:41:14.077066  1647 net.cpp:100] Creating Layer res4c_res4c_relu_0_split
I1208 21:41:14.077090  1647 net.cpp:434] res4c_res4c_relu_0_split <- res4c
I1208 21:41:14.077119  1647 net.cpp:408] res4c_res4c_relu_0_split -> res4c_res4c_relu_0_split_0
I1208 21:41:14.077139  1647 net.cpp:408] res4c_res4c_relu_0_split -> res4c_res4c_relu_0_split_1
I1208 21:41:14.077224  1647 net.cpp:150] Setting up res4c_res4c_relu_0_split
I1208 21:41:14.077245  1647 net.cpp:157] Top shape: 50 1024 14 14 (10035200)
I1208 21:41:14.077260  1647 net.cpp:157] Top shape: 50 1024 14 14 (10035200)
I1208 21:41:14.077271  1647 net.cpp:165] Memory required for data: 9944883800
I1208 21:41:14.077283  1647 layer_factory.hpp:77] Creating layer res4d_branch2a
I1208 21:41:14.077308  1647 net.cpp:100] Creating Layer res4d_branch2a
I1208 21:41:14.077325  1647 net.cpp:434] res4d_branch2a <- res4c_res4c_relu_0_split_0
I1208 21:41:14.077342  1647 net.cpp:408] res4d_branch2a -> res4d_branch2a
I1208 21:41:14.088138  1647 net.cpp:150] Setting up res4d_branch2a
I1208 21:41:14.088178  1647 net.cpp:157] Top shape: 50 256 14 14 (2508800)
I1208 21:41:14.088193  1647 net.cpp:165] Memory required for data: 9954919000
I1208 21:41:14.088217  1647 layer_factory.hpp:77] Creating layer bn4d_branch2a
I1208 21:41:14.088240  1647 net.cpp:100] Creating Layer bn4d_branch2a
I1208 21:41:14.088256  1647 net.cpp:434] bn4d_branch2a <- res4d_branch2a
I1208 21:41:14.088274  1647 net.cpp:395] bn4d_branch2a -> res4d_branch2a (in-place)
I1208 21:41:14.088564  1647 net.cpp:150] Setting up bn4d_branch2a
I1208 21:41:14.088587  1647 net.cpp:157] Top shape: 50 256 14 14 (2508800)
I1208 21:41:14.088599  1647 net.cpp:165] Memory required for data: 9964954200
I1208 21:41:14.088627  1647 layer_factory.hpp:77] Creating layer scale4d_branch2a
I1208 21:41:14.088647  1647 net.cpp:100] Creating Layer scale4d_branch2a
I1208 21:41:14.088661  1647 net.cpp:434] scale4d_branch2a <- res4d_branch2a
I1208 21:41:14.088680  1647 net.cpp:395] scale4d_branch2a -> res4d_branch2a (in-place)
I1208 21:41:14.088764  1647 layer_factory.hpp:77] Creating layer scale4d_branch2a
I1208 21:41:14.088950  1647 net.cpp:150] Setting up scale4d_branch2a
I1208 21:41:14.088975  1647 net.cpp:157] Top shape: 50 256 14 14 (2508800)
I1208 21:41:14.088989  1647 net.cpp:165] Memory required for data: 9974989400
I1208 21:41:14.089005  1647 layer_factory.hpp:77] Creating layer res4d_branch2a_relu
I1208 21:41:14.089021  1647 net.cpp:100] Creating Layer res4d_branch2a_relu
I1208 21:41:14.089035  1647 net.cpp:434] res4d_branch2a_relu <- res4d_branch2a
I1208 21:41:14.089049  1647 net.cpp:395] res4d_branch2a_relu -> res4d_branch2a (in-place)
I1208 21:41:14.089296  1647 net.cpp:150] Setting up res4d_branch2a_relu
I1208 21:41:14.089321  1647 net.cpp:157] Top shape: 50 256 14 14 (2508800)
I1208 21:41:14.089334  1647 net.cpp:165] Memory required for data: 9985024600
I1208 21:41:14.089347  1647 layer_factory.hpp:77] Creating layer res4d_branch2b
I1208 21:41:14.089376  1647 net.cpp:100] Creating Layer res4d_branch2b
I1208 21:41:14.089392  1647 net.cpp:434] res4d_branch2b <- res4d_branch2a
I1208 21:41:14.089409  1647 net.cpp:408] res4d_branch2b -> res4d_branch2b
I1208 21:41:14.118336  1647 net.cpp:150] Setting up res4d_branch2b
I1208 21:41:14.118377  1647 net.cpp:157] Top shape: 50 256 14 14 (2508800)
I1208 21:41:14.118393  1647 net.cpp:165] Memory required for data: 9995059800
I1208 21:41:14.118415  1647 layer_factory.hpp:77] Creating layer bn4d_branch2b
I1208 21:41:14.118463  1647 net.cpp:100] Creating Layer bn4d_branch2b
I1208 21:41:14.118482  1647 net.cpp:434] bn4d_branch2b <- res4d_branch2b
I1208 21:41:14.118499  1647 net.cpp:395] bn4d_branch2b -> res4d_branch2b (in-place)
I1208 21:41:14.118938  1647 net.cpp:150] Setting up bn4d_branch2b
I1208 21:41:14.118966  1647 net.cpp:157] Top shape: 50 256 14 14 (2508800)
I1208 21:41:14.118980  1647 net.cpp:165] Memory required for data: 10005095000
I1208 21:41:14.119000  1647 layer_factory.hpp:77] Creating layer scale4d_branch2b
I1208 21:41:14.119019  1647 net.cpp:100] Creating Layer scale4d_branch2b
I1208 21:41:14.119032  1647 net.cpp:434] scale4d_branch2b <- res4d_branch2b
I1208 21:41:14.119115  1647 net.cpp:395] scale4d_branch2b -> res4d_branch2b (in-place)
I1208 21:41:14.119235  1647 layer_factory.hpp:77] Creating layer scale4d_branch2b
I1208 21:41:14.119498  1647 net.cpp:150] Setting up scale4d_branch2b
I1208 21:41:14.119540  1647 net.cpp:157] Top shape: 50 256 14 14 (2508800)
I1208 21:41:14.119554  1647 net.cpp:165] Memory required for data: 10015130200
I1208 21:41:14.119572  1647 layer_factory.hpp:77] Creating layer res4d_branch2b_relu
I1208 21:41:14.119593  1647 net.cpp:100] Creating Layer res4d_branch2b_relu
I1208 21:41:14.119608  1647 net.cpp:434] res4d_branch2b_relu <- res4d_branch2b
I1208 21:41:14.119632  1647 net.cpp:395] res4d_branch2b_relu -> res4d_branch2b (in-place)
I1208 21:41:14.120013  1647 net.cpp:150] Setting up res4d_branch2b_relu
I1208 21:41:14.120043  1647 net.cpp:157] Top shape: 50 256 14 14 (2508800)
I1208 21:41:14.120055  1647 net.cpp:165] Memory required for data: 10025165400
I1208 21:41:14.120069  1647 layer_factory.hpp:77] Creating layer res4d_branch2c
I1208 21:41:14.120110  1647 net.cpp:100] Creating Layer res4d_branch2c
I1208 21:41:14.120129  1647 net.cpp:434] res4d_branch2c <- res4d_branch2b
I1208 21:41:14.120147  1647 net.cpp:408] res4d_branch2c -> res4d_branch2c
I1208 21:41:14.140316  1647 net.cpp:150] Setting up res4d_branch2c
I1208 21:41:14.140375  1647 net.cpp:157] Top shape: 50 1024 14 14 (10035200)
I1208 21:41:14.140393  1647 net.cpp:165] Memory required for data: 10065306200
I1208 21:41:14.140409  1647 layer_factory.hpp:77] Creating layer bn4d_branch2c
I1208 21:41:14.140427  1647 net.cpp:100] Creating Layer bn4d_branch2c
I1208 21:41:14.140444  1647 net.cpp:434] bn4d_branch2c <- res4d_branch2c
I1208 21:41:14.140481  1647 net.cpp:395] bn4d_branch2c -> res4d_branch2c (in-place)
I1208 21:41:14.140930  1647 net.cpp:150] Setting up bn4d_branch2c
I1208 21:41:14.140957  1647 net.cpp:157] Top shape: 50 1024 14 14 (10035200)
I1208 21:41:14.140971  1647 net.cpp:165] Memory required for data: 10105447000
I1208 21:41:14.140995  1647 layer_factory.hpp:77] Creating layer scale4d_branch2c
I1208 21:41:14.141014  1647 net.cpp:100] Creating Layer scale4d_branch2c
I1208 21:41:14.141029  1647 net.cpp:434] scale4d_branch2c <- res4d_branch2c
I1208 21:41:14.141044  1647 net.cpp:395] scale4d_branch2c -> res4d_branch2c (in-place)
I1208 21:41:14.141144  1647 layer_factory.hpp:77] Creating layer scale4d_branch2c
I1208 21:41:14.141435  1647 net.cpp:150] Setting up scale4d_branch2c
I1208 21:41:14.141461  1647 net.cpp:157] Top shape: 50 1024 14 14 (10035200)
I1208 21:41:14.141474  1647 net.cpp:165] Memory required for data: 10145587800
I1208 21:41:14.141492  1647 layer_factory.hpp:77] Creating layer res4d
I1208 21:41:14.141513  1647 net.cpp:100] Creating Layer res4d
I1208 21:41:14.141530  1647 net.cpp:434] res4d <- res4c_res4c_relu_0_split_1
I1208 21:41:14.141546  1647 net.cpp:434] res4d <- res4d_branch2c
I1208 21:41:14.141583  1647 net.cpp:408] res4d -> res4d
I1208 21:41:14.141659  1647 net.cpp:150] Setting up res4d
I1208 21:41:14.141682  1647 net.cpp:157] Top shape: 50 1024 14 14 (10035200)
I1208 21:41:14.141695  1647 net.cpp:165] Memory required for data: 10185728600
I1208 21:41:14.141707  1647 layer_factory.hpp:77] Creating layer res4d_relu
I1208 21:41:14.141746  1647 net.cpp:100] Creating Layer res4d_relu
I1208 21:41:14.141764  1647 net.cpp:434] res4d_relu <- res4d
I1208 21:41:14.141780  1647 net.cpp:395] res4d_relu -> res4d (in-place)
I1208 21:41:14.143302  1647 net.cpp:150] Setting up res4d_relu
I1208 21:41:14.143342  1647 net.cpp:157] Top shape: 50 1024 14 14 (10035200)
I1208 21:41:14.143357  1647 net.cpp:165] Memory required for data: 10225869400
I1208 21:41:14.143370  1647 layer_factory.hpp:77] Creating layer res4d_res4d_relu_0_split
I1208 21:41:14.143388  1647 net.cpp:100] Creating Layer res4d_res4d_relu_0_split
I1208 21:41:14.143401  1647 net.cpp:434] res4d_res4d_relu_0_split <- res4d
I1208 21:41:14.143419  1647 net.cpp:408] res4d_res4d_relu_0_split -> res4d_res4d_relu_0_split_0
I1208 21:41:14.143457  1647 net.cpp:408] res4d_res4d_relu_0_split -> res4d_res4d_relu_0_split_1
I1208 21:41:14.143609  1647 net.cpp:150] Setting up res4d_res4d_relu_0_split
I1208 21:41:14.143672  1647 net.cpp:157] Top shape: 50 1024 14 14 (10035200)
I1208 21:41:14.143689  1647 net.cpp:157] Top shape: 50 1024 14 14 (10035200)
I1208 21:41:14.143702  1647 net.cpp:165] Memory required for data: 10306151000
I1208 21:41:14.143718  1647 layer_factory.hpp:77] Creating layer res4e_branch2a
I1208 21:41:14.143759  1647 net.cpp:100] Creating Layer res4e_branch2a
I1208 21:41:14.143779  1647 net.cpp:434] res4e_branch2a <- res4d_res4d_relu_0_split_0
I1208 21:41:14.143817  1647 net.cpp:408] res4e_branch2a -> res4e_branch2a
I1208 21:41:14.154086  1647 net.cpp:150] Setting up res4e_branch2a
I1208 21:41:14.154147  1647 net.cpp:157] Top shape: 50 256 14 14 (2508800)
I1208 21:41:14.154166  1647 net.cpp:165] Memory required for data: 10316186200
I1208 21:41:14.154183  1647 layer_factory.hpp:77] Creating layer bn4e_branch2a
I1208 21:41:14.154206  1647 net.cpp:100] Creating Layer bn4e_branch2a
I1208 21:41:14.154222  1647 net.cpp:434] bn4e_branch2a <- res4e_branch2a
I1208 21:41:14.154258  1647 net.cpp:395] bn4e_branch2a -> res4e_branch2a (in-place)
I1208 21:41:14.154695  1647 net.cpp:150] Setting up bn4e_branch2a
I1208 21:41:14.154721  1647 net.cpp:157] Top shape: 50 256 14 14 (2508800)
I1208 21:41:14.154734  1647 net.cpp:165] Memory required for data: 10326221400
I1208 21:41:14.154754  1647 layer_factory.hpp:77] Creating layer scale4e_branch2a
I1208 21:41:14.154772  1647 net.cpp:100] Creating Layer scale4e_branch2a
I1208 21:41:14.154785  1647 net.cpp:434] scale4e_branch2a <- res4e_branch2a
I1208 21:41:14.154801  1647 net.cpp:395] scale4e_branch2a -> res4e_branch2a (in-place)
I1208 21:41:14.154906  1647 layer_factory.hpp:77] Creating layer scale4e_branch2a
I1208 21:41:14.155190  1647 net.cpp:150] Setting up scale4e_branch2a
I1208 21:41:14.155215  1647 net.cpp:157] Top shape: 50 256 14 14 (2508800)
I1208 21:41:14.155228  1647 net.cpp:165] Memory required for data: 10336256600
I1208 21:41:14.155246  1647 layer_factory.hpp:77] Creating layer res4e_branch2a_relu
I1208 21:41:14.155261  1647 net.cpp:100] Creating Layer res4e_branch2a_relu
I1208 21:41:14.155275  1647 net.cpp:434] res4e_branch2a_relu <- res4e_branch2a
I1208 21:41:14.155313  1647 net.cpp:395] res4e_branch2a_relu -> res4e_branch2a (in-place)
I1208 21:41:14.156829  1647 net.cpp:150] Setting up res4e_branch2a_relu
I1208 21:41:14.156864  1647 net.cpp:157] Top shape: 50 256 14 14 (2508800)
I1208 21:41:14.156879  1647 net.cpp:165] Memory required for data: 10346291800
I1208 21:41:14.156896  1647 layer_factory.hpp:77] Creating layer res4e_branch2b
I1208 21:41:14.156939  1647 net.cpp:100] Creating Layer res4e_branch2b
I1208 21:41:14.156958  1647 net.cpp:434] res4e_branch2b <- res4e_branch2a
I1208 21:41:14.156997  1647 net.cpp:408] res4e_branch2b -> res4e_branch2b
I1208 21:41:14.190312  1647 net.cpp:150] Setting up res4e_branch2b
I1208 21:41:14.190352  1647 net.cpp:157] Top shape: 50 256 14 14 (2508800)
I1208 21:41:14.190367  1647 net.cpp:165] Memory required for data: 10356327000
I1208 21:41:14.190384  1647 layer_factory.hpp:77] Creating layer bn4e_branch2b
I1208 21:41:14.190426  1647 net.cpp:100] Creating Layer bn4e_branch2b
I1208 21:41:14.190446  1647 net.cpp:434] bn4e_branch2b <- res4e_branch2b
I1208 21:41:14.190464  1647 net.cpp:395] bn4e_branch2b -> res4e_branch2b (in-place)
I1208 21:41:14.190881  1647 net.cpp:150] Setting up bn4e_branch2b
I1208 21:41:14.190909  1647 net.cpp:157] Top shape: 50 256 14 14 (2508800)
I1208 21:41:14.190923  1647 net.cpp:165] Memory required for data: 10366362200
I1208 21:41:14.190943  1647 layer_factory.hpp:77] Creating layer scale4e_branch2b
I1208 21:41:14.190981  1647 net.cpp:100] Creating Layer scale4e_branch2b
I1208 21:41:14.191001  1647 net.cpp:434] scale4e_branch2b <- res4e_branch2b
I1208 21:41:14.191018  1647 net.cpp:395] scale4e_branch2b -> res4e_branch2b (in-place)
I1208 21:41:14.191129  1647 layer_factory.hpp:77] Creating layer scale4e_branch2b
I1208 21:41:14.191406  1647 net.cpp:150] Setting up scale4e_branch2b
I1208 21:41:14.191431  1647 net.cpp:157] Top shape: 50 256 14 14 (2508800)
I1208 21:41:14.191514  1647 net.cpp:165] Memory required for data: 10376397400
I1208 21:41:14.191536  1647 layer_factory.hpp:77] Creating layer res4e_branch2b_relu
I1208 21:41:14.191553  1647 net.cpp:100] Creating Layer res4e_branch2b_relu
I1208 21:41:14.191567  1647 net.cpp:434] res4e_branch2b_relu <- res4e_branch2b
I1208 21:41:14.191604  1647 net.cpp:395] res4e_branch2b_relu -> res4e_branch2b (in-place)
I1208 21:41:14.191967  1647 net.cpp:150] Setting up res4e_branch2b_relu
I1208 21:41:14.191995  1647 net.cpp:157] Top shape: 50 256 14 14 (2508800)
I1208 21:41:14.192009  1647 net.cpp:165] Memory required for data: 10386432600
I1208 21:41:14.192023  1647 layer_factory.hpp:77] Creating layer res4e_branch2c
I1208 21:41:14.192067  1647 net.cpp:100] Creating Layer res4e_branch2c
I1208 21:41:14.192104  1647 net.cpp:434] res4e_branch2c <- res4e_branch2b
I1208 21:41:14.192123  1647 net.cpp:408] res4e_branch2c -> res4e_branch2c
I1208 21:41:14.212239  1647 net.cpp:150] Setting up res4e_branch2c
I1208 21:41:14.212280  1647 net.cpp:157] Top shape: 50 1024 14 14 (10035200)
I1208 21:41:14.212296  1647 net.cpp:165] Memory required for data: 10426573400
I1208 21:41:14.212313  1647 layer_factory.hpp:77] Creating layer bn4e_branch2c
I1208 21:41:14.212352  1647 net.cpp:100] Creating Layer bn4e_branch2c
I1208 21:41:14.212373  1647 net.cpp:434] bn4e_branch2c <- res4e_branch2c
I1208 21:41:14.212389  1647 net.cpp:395] bn4e_branch2c -> res4e_branch2c (in-place)
I1208 21:41:14.212832  1647 net.cpp:150] Setting up bn4e_branch2c
I1208 21:41:14.212859  1647 net.cpp:157] Top shape: 50 1024 14 14 (10035200)
I1208 21:41:14.212872  1647 net.cpp:165] Memory required for data: 10466714200
I1208 21:41:14.212893  1647 layer_factory.hpp:77] Creating layer scale4e_branch2c
I1208 21:41:14.212909  1647 net.cpp:100] Creating Layer scale4e_branch2c
I1208 21:41:14.212924  1647 net.cpp:434] scale4e_branch2c <- res4e_branch2c
I1208 21:41:14.212961  1647 net.cpp:395] scale4e_branch2c -> res4e_branch2c (in-place)
I1208 21:41:14.213052  1647 layer_factory.hpp:77] Creating layer scale4e_branch2c
I1208 21:41:14.213321  1647 net.cpp:150] Setting up scale4e_branch2c
I1208 21:41:14.213364  1647 net.cpp:157] Top shape: 50 1024 14 14 (10035200)
I1208 21:41:14.213377  1647 net.cpp:165] Memory required for data: 10506855000
I1208 21:41:14.213395  1647 layer_factory.hpp:77] Creating layer res4e
I1208 21:41:14.213413  1647 net.cpp:100] Creating Layer res4e
I1208 21:41:14.213428  1647 net.cpp:434] res4e <- res4d_res4d_relu_0_split_1
I1208 21:41:14.213443  1647 net.cpp:434] res4e <- res4e_branch2c
I1208 21:41:14.213459  1647 net.cpp:408] res4e -> res4e
I1208 21:41:14.213537  1647 net.cpp:150] Setting up res4e
I1208 21:41:14.213559  1647 net.cpp:157] Top shape: 50 1024 14 14 (10035200)
I1208 21:41:14.213572  1647 net.cpp:165] Memory required for data: 10546995800
I1208 21:41:14.213584  1647 layer_factory.hpp:77] Creating layer res4e_relu
I1208 21:41:14.213637  1647 net.cpp:100] Creating Layer res4e_relu
I1208 21:41:14.213659  1647 net.cpp:434] res4e_relu <- res4e
I1208 21:41:14.213675  1647 net.cpp:395] res4e_relu -> res4e (in-place)
I1208 21:41:14.214025  1647 net.cpp:150] Setting up res4e_relu
I1208 21:41:14.214085  1647 net.cpp:157] Top shape: 50 1024 14 14 (10035200)
I1208 21:41:14.214148  1647 net.cpp:165] Memory required for data: 10587136600
I1208 21:41:14.214166  1647 layer_factory.hpp:77] Creating layer res4e_res4e_relu_0_split
I1208 21:41:14.214185  1647 net.cpp:100] Creating Layer res4e_res4e_relu_0_split
I1208 21:41:14.214200  1647 net.cpp:434] res4e_res4e_relu_0_split <- res4e
I1208 21:41:14.214216  1647 net.cpp:408] res4e_res4e_relu_0_split -> res4e_res4e_relu_0_split_0
I1208 21:41:14.214234  1647 net.cpp:408] res4e_res4e_relu_0_split -> res4e_res4e_relu_0_split_1
I1208 21:41:14.214352  1647 net.cpp:150] Setting up res4e_res4e_relu_0_split
I1208 21:41:14.214376  1647 net.cpp:157] Top shape: 50 1024 14 14 (10035200)
I1208 21:41:14.214390  1647 net.cpp:157] Top shape: 50 1024 14 14 (10035200)
I1208 21:41:14.214403  1647 net.cpp:165] Memory required for data: 10667418200
I1208 21:41:14.214488  1647 layer_factory.hpp:77] Creating layer res4f_branch2a
I1208 21:41:14.214532  1647 net.cpp:100] Creating Layer res4f_branch2a
I1208 21:41:14.214552  1647 net.cpp:434] res4f_branch2a <- res4e_res4e_relu_0_split_0
I1208 21:41:14.214588  1647 net.cpp:408] res4f_branch2a -> res4f_branch2a
I1208 21:41:14.226011  1647 net.cpp:150] Setting up res4f_branch2a
I1208 21:41:14.226079  1647 net.cpp:157] Top shape: 50 256 14 14 (2508800)
I1208 21:41:14.226099  1647 net.cpp:165] Memory required for data: 10677453400
I1208 21:41:14.226115  1647 layer_factory.hpp:77] Creating layer bn4f_branch2a
I1208 21:41:14.226171  1647 net.cpp:100] Creating Layer bn4f_branch2a
I1208 21:41:14.226191  1647 net.cpp:434] bn4f_branch2a <- res4f_branch2a
I1208 21:41:14.226208  1647 net.cpp:395] bn4f_branch2a -> res4f_branch2a (in-place)
I1208 21:41:14.226644  1647 net.cpp:150] Setting up bn4f_branch2a
I1208 21:41:14.226670  1647 net.cpp:157] Top shape: 50 256 14 14 (2508800)
I1208 21:41:14.226682  1647 net.cpp:165] Memory required for data: 10687488600
I1208 21:41:14.226702  1647 layer_factory.hpp:77] Creating layer scale4f_branch2a
I1208 21:41:14.226725  1647 net.cpp:100] Creating Layer scale4f_branch2a
I1208 21:41:14.226739  1647 net.cpp:434] scale4f_branch2a <- res4f_branch2a
I1208 21:41:14.226775  1647 net.cpp:395] scale4f_branch2a -> res4f_branch2a (in-place)
I1208 21:41:14.226862  1647 layer_factory.hpp:77] Creating layer scale4f_branch2a
I1208 21:41:14.227123  1647 net.cpp:150] Setting up scale4f_branch2a
I1208 21:41:14.227169  1647 net.cpp:157] Top shape: 50 256 14 14 (2508800)
I1208 21:41:14.227185  1647 net.cpp:165] Memory required for data: 10697523800
I1208 21:41:14.227206  1647 layer_factory.hpp:77] Creating layer res4f_branch2a_relu
I1208 21:41:14.227224  1647 net.cpp:100] Creating Layer res4f_branch2a_relu
I1208 21:41:14.227238  1647 net.cpp:434] res4f_branch2a_relu <- res4f_branch2a
I1208 21:41:14.227253  1647 net.cpp:395] res4f_branch2a_relu -> res4f_branch2a (in-place)
I1208 21:41:14.227633  1647 net.cpp:150] Setting up res4f_branch2a_relu
I1208 21:41:14.227663  1647 net.cpp:157] Top shape: 50 256 14 14 (2508800)
I1208 21:41:14.227677  1647 net.cpp:165] Memory required for data: 10707559000
I1208 21:41:14.227690  1647 layer_factory.hpp:77] Creating layer res4f_branch2b
I1208 21:41:14.227731  1647 net.cpp:100] Creating Layer res4f_branch2b
I1208 21:41:14.227751  1647 net.cpp:434] res4f_branch2b <- res4f_branch2a
I1208 21:41:14.227768  1647 net.cpp:408] res4f_branch2b -> res4f_branch2b
I1208 21:41:14.260848  1647 net.cpp:150] Setting up res4f_branch2b
I1208 21:41:14.260888  1647 net.cpp:157] Top shape: 50 256 14 14 (2508800)
I1208 21:41:14.260905  1647 net.cpp:165] Memory required for data: 10717594200
I1208 21:41:14.260943  1647 layer_factory.hpp:77] Creating layer bn4f_branch2b
I1208 21:41:14.260970  1647 net.cpp:100] Creating Layer bn4f_branch2b
I1208 21:41:14.260987  1647 net.cpp:434] bn4f_branch2b <- res4f_branch2b
I1208 21:41:14.261024  1647 net.cpp:395] bn4f_branch2b -> res4f_branch2b (in-place)
I1208 21:41:14.261440  1647 net.cpp:150] Setting up bn4f_branch2b
I1208 21:41:14.261466  1647 net.cpp:157] Top shape: 50 256 14 14 (2508800)
I1208 21:41:14.261479  1647 net.cpp:165] Memory required for data: 10727629400
I1208 21:41:14.261498  1647 layer_factory.hpp:77] Creating layer scale4f_branch2b
I1208 21:41:14.261536  1647 net.cpp:100] Creating Layer scale4f_branch2b
I1208 21:41:14.261555  1647 net.cpp:434] scale4f_branch2b <- res4f_branch2b
I1208 21:41:14.261571  1647 net.cpp:395] scale4f_branch2b -> res4f_branch2b (in-place)
I1208 21:41:14.261693  1647 layer_factory.hpp:77] Creating layer scale4f_branch2b
I1208 21:41:14.261976  1647 net.cpp:150] Setting up scale4f_branch2b
I1208 21:41:14.262001  1647 net.cpp:157] Top shape: 50 256 14 14 (2508800)
I1208 21:41:14.262015  1647 net.cpp:165] Memory required for data: 10737664600
I1208 21:41:14.262037  1647 layer_factory.hpp:77] Creating layer res4f_branch2b_relu
I1208 21:41:14.262086  1647 net.cpp:100] Creating Layer res4f_branch2b_relu
I1208 21:41:14.262190  1647 net.cpp:434] res4f_branch2b_relu <- res4f_branch2b
I1208 21:41:14.262262  1647 net.cpp:395] res4f_branch2b_relu -> res4f_branch2b (in-place)
I1208 21:41:14.262624  1647 net.cpp:150] Setting up res4f_branch2b_relu
I1208 21:41:14.262653  1647 net.cpp:157] Top shape: 50 256 14 14 (2508800)
I1208 21:41:14.262667  1647 net.cpp:165] Memory required for data: 10747699800
I1208 21:41:14.262681  1647 layer_factory.hpp:77] Creating layer res4f_branch2c
I1208 21:41:14.262722  1647 net.cpp:100] Creating Layer res4f_branch2c
I1208 21:41:14.262742  1647 net.cpp:434] res4f_branch2c <- res4f_branch2b
I1208 21:41:14.262781  1647 net.cpp:408] res4f_branch2c -> res4f_branch2c
I1208 21:41:14.283152  1647 net.cpp:150] Setting up res4f_branch2c
I1208 21:41:14.283195  1647 net.cpp:157] Top shape: 50 1024 14 14 (10035200)
I1208 21:41:14.283210  1647 net.cpp:165] Memory required for data: 10787840600
I1208 21:41:14.283226  1647 layer_factory.hpp:77] Creating layer bn4f_branch2c
I1208 21:41:14.283269  1647 net.cpp:100] Creating Layer bn4f_branch2c
I1208 21:41:14.283290  1647 net.cpp:434] bn4f_branch2c <- res4f_branch2c
I1208 21:41:14.283308  1647 net.cpp:395] bn4f_branch2c -> res4f_branch2c (in-place)
I1208 21:41:14.283756  1647 net.cpp:150] Setting up bn4f_branch2c
I1208 21:41:14.283782  1647 net.cpp:157] Top shape: 50 1024 14 14 (10035200)
I1208 21:41:14.283795  1647 net.cpp:165] Memory required for data: 10827981400
I1208 21:41:14.283936  1647 layer_factory.hpp:77] Creating layer scale4f_branch2c
I1208 21:41:14.283960  1647 net.cpp:100] Creating Layer scale4f_branch2c
I1208 21:41:14.283974  1647 net.cpp:434] scale4f_branch2c <- res4f_branch2c
I1208 21:41:14.283990  1647 net.cpp:395] scale4f_branch2c -> res4f_branch2c (in-place)
I1208 21:41:14.284092  1647 layer_factory.hpp:77] Creating layer scale4f_branch2c
I1208 21:41:14.284368  1647 net.cpp:150] Setting up scale4f_branch2c
I1208 21:41:14.284394  1647 net.cpp:157] Top shape: 50 1024 14 14 (10035200)
I1208 21:41:14.284406  1647 net.cpp:165] Memory required for data: 10868122200
I1208 21:41:14.284423  1647 layer_factory.hpp:77] Creating layer res4f
I1208 21:41:14.284463  1647 net.cpp:100] Creating Layer res4f
I1208 21:41:14.284482  1647 net.cpp:434] res4f <- res4e_res4e_relu_0_split_1
I1208 21:41:14.284497  1647 net.cpp:434] res4f <- res4f_branch2c
I1208 21:41:14.284513  1647 net.cpp:408] res4f -> res4f
I1208 21:41:14.284597  1647 net.cpp:150] Setting up res4f
I1208 21:41:14.284629  1647 net.cpp:157] Top shape: 50 1024 14 14 (10035200)
I1208 21:41:14.284643  1647 net.cpp:165] Memory required for data: 10908263000
I1208 21:41:14.284656  1647 layer_factory.hpp:77] Creating layer res4f_relu
I1208 21:41:14.284675  1647 net.cpp:100] Creating Layer res4f_relu
I1208 21:41:14.284692  1647 net.cpp:434] res4f_relu <- res4f
I1208 21:41:14.284730  1647 net.cpp:395] res4f_relu -> res4f (in-place)
I1208 21:41:14.286258  1647 net.cpp:150] Setting up res4f_relu
I1208 21:41:14.286298  1647 net.cpp:157] Top shape: 50 1024 14 14 (10035200)
I1208 21:41:14.286311  1647 net.cpp:165] Memory required for data: 10948403800
I1208 21:41:14.286325  1647 layer_factory.hpp:77] Creating layer res4f_res4f_relu_0_split
I1208 21:41:14.286342  1647 net.cpp:100] Creating Layer res4f_res4f_relu_0_split
I1208 21:41:14.286388  1647 net.cpp:434] res4f_res4f_relu_0_split <- res4f
I1208 21:41:14.286407  1647 net.cpp:408] res4f_res4f_relu_0_split -> res4f_res4f_relu_0_split_0
I1208 21:41:14.286427  1647 net.cpp:408] res4f_res4f_relu_0_split -> res4f_res4f_relu_0_split_1
I1208 21:41:14.286546  1647 net.cpp:150] Setting up res4f_res4f_relu_0_split
I1208 21:41:14.286569  1647 net.cpp:157] Top shape: 50 1024 14 14 (10035200)
I1208 21:41:14.286584  1647 net.cpp:157] Top shape: 50 1024 14 14 (10035200)
I1208 21:41:14.286597  1647 net.cpp:165] Memory required for data: 11028685400
I1208 21:41:14.286617  1647 layer_factory.hpp:77] Creating layer res5a_branch1
I1208 21:41:14.286661  1647 net.cpp:100] Creating Layer res5a_branch1
I1208 21:41:14.286681  1647 net.cpp:434] res5a_branch1 <- res4f_res4f_relu_0_split_0
I1208 21:41:14.286746  1647 net.cpp:408] res5a_branch1 -> res5a_branch1
I1208 21:41:14.386207  1647 net.cpp:150] Setting up res5a_branch1
I1208 21:41:14.386268  1647 net.cpp:157] Top shape: 50 2048 7 7 (5017600)
I1208 21:41:14.386284  1647 net.cpp:165] Memory required for data: 11048755800
I1208 21:41:14.386302  1647 layer_factory.hpp:77] Creating layer bn5a_branch1
I1208 21:41:14.386346  1647 net.cpp:100] Creating Layer bn5a_branch1
I1208 21:41:14.386368  1647 net.cpp:434] bn5a_branch1 <- res5a_branch1
I1208 21:41:14.386409  1647 net.cpp:395] bn5a_branch1 -> res5a_branch1 (in-place)
I1208 21:41:14.386883  1647 net.cpp:150] Setting up bn5a_branch1
I1208 21:41:14.386911  1647 net.cpp:157] Top shape: 50 2048 7 7 (5017600)
I1208 21:41:14.386925  1647 net.cpp:165] Memory required for data: 11068826200
I1208 21:41:14.386950  1647 layer_factory.hpp:77] Creating layer scale5a_branch1
I1208 21:41:14.386991  1647 net.cpp:100] Creating Layer scale5a_branch1
I1208 21:41:14.387012  1647 net.cpp:434] scale5a_branch1 <- res5a_branch1
I1208 21:41:14.387028  1647 net.cpp:395] scale5a_branch1 -> res5a_branch1 (in-place)
I1208 21:41:14.387136  1647 layer_factory.hpp:77] Creating layer scale5a_branch1
I1208 21:41:14.387440  1647 net.cpp:150] Setting up scale5a_branch1
I1208 21:41:14.387466  1647 net.cpp:157] Top shape: 50 2048 7 7 (5017600)
I1208 21:41:14.387480  1647 net.cpp:165] Memory required for data: 11088896600
I1208 21:41:14.387496  1647 layer_factory.hpp:77] Creating layer res5a_branch2a
I1208 21:41:14.387538  1647 net.cpp:100] Creating Layer res5a_branch2a
I1208 21:41:14.387557  1647 net.cpp:434] res5a_branch2a <- res4f_res4f_relu_0_split_1
I1208 21:41:14.387596  1647 net.cpp:408] res5a_branch2a -> res5a_branch2a
I1208 21:41:14.416435  1647 net.cpp:150] Setting up res5a_branch2a
I1208 21:41:14.416476  1647 net.cpp:157] Top shape: 50 512 7 7 (1254400)
I1208 21:41:14.416492  1647 net.cpp:165] Memory required for data: 11093914200
I1208 21:41:14.416509  1647 layer_factory.hpp:77] Creating layer bn5a_branch2a
I1208 21:41:14.416555  1647 net.cpp:100] Creating Layer bn5a_branch2a
I1208 21:41:14.416576  1647 net.cpp:434] bn5a_branch2a <- res5a_branch2a
I1208 21:41:14.416594  1647 net.cpp:395] bn5a_branch2a -> res5a_branch2a (in-place)
I1208 21:41:14.417078  1647 net.cpp:150] Setting up bn5a_branch2a
I1208 21:41:14.417104  1647 net.cpp:157] Top shape: 50 512 7 7 (1254400)
I1208 21:41:14.417119  1647 net.cpp:165] Memory required for data: 11098931800
I1208 21:41:14.417156  1647 layer_factory.hpp:77] Creating layer scale5a_branch2a
I1208 21:41:14.417179  1647 net.cpp:100] Creating Layer scale5a_branch2a
I1208 21:41:14.417194  1647 net.cpp:434] scale5a_branch2a <- res5a_branch2a
I1208 21:41:14.417210  1647 net.cpp:395] scale5a_branch2a -> res5a_branch2a (in-place)
I1208 21:41:14.417315  1647 layer_factory.hpp:77] Creating layer scale5a_branch2a
I1208 21:41:14.417625  1647 net.cpp:150] Setting up scale5a_branch2a
I1208 21:41:14.417652  1647 net.cpp:157] Top shape: 50 512 7 7 (1254400)
I1208 21:41:14.417666  1647 net.cpp:165] Memory required for data: 11103949400
I1208 21:41:14.417687  1647 layer_factory.hpp:77] Creating layer res5a_branch2a_relu
I1208 21:41:14.417731  1647 net.cpp:100] Creating Layer res5a_branch2a_relu
I1208 21:41:14.417749  1647 net.cpp:434] res5a_branch2a_relu <- res5a_branch2a
I1208 21:41:14.417764  1647 net.cpp:395] res5a_branch2a_relu -> res5a_branch2a (in-place)
I1208 21:41:14.420442  1647 net.cpp:150] Setting up res5a_branch2a_relu
I1208 21:41:14.420482  1647 net.cpp:157] Top shape: 50 512 7 7 (1254400)
I1208 21:41:14.420497  1647 net.cpp:165] Memory required for data: 11108967000
I1208 21:41:14.420511  1647 layer_factory.hpp:77] Creating layer res5a_branch2b
I1208 21:41:14.420557  1647 net.cpp:100] Creating Layer res5a_branch2b
I1208 21:41:14.420577  1647 net.cpp:434] res5a_branch2b <- res5a_branch2a
I1208 21:41:14.420594  1647 net.cpp:408] res5a_branch2b -> res5a_branch2b
I1208 21:41:14.533737  1647 net.cpp:150] Setting up res5a_branch2b
I1208 21:41:14.533790  1647 net.cpp:157] Top shape: 50 512 7 7 (1254400)
I1208 21:41:14.533859  1647 net.cpp:165] Memory required for data: 11113984600
I1208 21:41:14.533915  1647 layer_factory.hpp:77] Creating layer bn5a_branch2b
I1208 21:41:14.533958  1647 net.cpp:100] Creating Layer bn5a_branch2b
I1208 21:41:14.533980  1647 net.cpp:434] bn5a_branch2b <- res5a_branch2b
I1208 21:41:14.534016  1647 net.cpp:395] bn5a_branch2b -> res5a_branch2b (in-place)
I1208 21:41:14.534508  1647 net.cpp:150] Setting up bn5a_branch2b
I1208 21:41:14.534538  1647 net.cpp:157] Top shape: 50 512 7 7 (1254400)
I1208 21:41:14.534552  1647 net.cpp:165] Memory required for data: 11119002200
I1208 21:41:14.534571  1647 layer_factory.hpp:77] Creating layer scale5a_branch2b
I1208 21:41:14.534621  1647 net.cpp:100] Creating Layer scale5a_branch2b
I1208 21:41:14.534643  1647 net.cpp:434] scale5a_branch2b <- res5a_branch2b
I1208 21:41:14.534662  1647 net.cpp:395] scale5a_branch2b -> res5a_branch2b (in-place)
I1208 21:41:14.534746  1647 layer_factory.hpp:77] Creating layer scale5a_branch2b
I1208 21:41:14.535051  1647 net.cpp:150] Setting up scale5a_branch2b
I1208 21:41:14.535076  1647 net.cpp:157] Top shape: 50 512 7 7 (1254400)
I1208 21:41:14.535089  1647 net.cpp:165] Memory required for data: 11124019800
I1208 21:41:14.535111  1647 layer_factory.hpp:77] Creating layer res5a_branch2b_relu
I1208 21:41:14.535131  1647 net.cpp:100] Creating Layer res5a_branch2b_relu
I1208 21:41:14.535145  1647 net.cpp:434] res5a_branch2b_relu <- res5a_branch2b
I1208 21:41:14.535182  1647 net.cpp:395] res5a_branch2b_relu -> res5a_branch2b (in-place)
I1208 21:41:14.535550  1647 net.cpp:150] Setting up res5a_branch2b_relu
I1208 21:41:14.535579  1647 net.cpp:157] Top shape: 50 512 7 7 (1254400)
I1208 21:41:14.535593  1647 net.cpp:165] Memory required for data: 11129037400
I1208 21:41:14.535619  1647 layer_factory.hpp:77] Creating layer res5a_branch2c
I1208 21:41:14.535663  1647 net.cpp:100] Creating Layer res5a_branch2c
I1208 21:41:14.535682  1647 net.cpp:434] res5a_branch2c <- res5a_branch2b
I1208 21:41:14.535722  1647 net.cpp:408] res5a_branch2c -> res5a_branch2c
I1208 21:41:14.590229  1647 net.cpp:150] Setting up res5a_branch2c
I1208 21:41:14.590270  1647 net.cpp:157] Top shape: 50 2048 7 7 (5017600)
I1208 21:41:14.590284  1647 net.cpp:165] Memory required for data: 11149107800
I1208 21:41:14.590302  1647 layer_factory.hpp:77] Creating layer bn5a_branch2c
I1208 21:41:14.590320  1647 net.cpp:100] Creating Layer bn5a_branch2c
I1208 21:41:14.590335  1647 net.cpp:434] bn5a_branch2c <- res5a_branch2c
I1208 21:41:14.590375  1647 net.cpp:395] bn5a_branch2c -> res5a_branch2c (in-place)
I1208 21:41:14.590848  1647 net.cpp:150] Setting up bn5a_branch2c
I1208 21:41:14.590876  1647 net.cpp:157] Top shape: 50 2048 7 7 (5017600)
I1208 21:41:14.590890  1647 net.cpp:165] Memory required for data: 11169178200
I1208 21:41:14.590909  1647 layer_factory.hpp:77] Creating layer scale5a_branch2c
I1208 21:41:14.590932  1647 net.cpp:100] Creating Layer scale5a_branch2c
I1208 21:41:14.590948  1647 net.cpp:434] scale5a_branch2c <- res5a_branch2c
…
I1208 21:41:21.662552  1647 net.cpp:157] Top shape: 1 1024 14 14 (200704)
I1208 21:41:21.662564  1647 net.cpp:165] Memory required for data: 198897676
I1208 21:41:21.662577  1647 layer_factory.hpp:77] Creating layer res4d_branch2a
I1208 21:41:21.662602  1647 net.cpp:100] Creating Layer res4d_branch2a
I1208 21:41:21.662618  1647 net.cpp:434] res4d_branch2a <- res4c_res4c_relu_0_split_0
I1208 21:41:21.662636  1647 net.cpp:408] res4d_branch2a -> res4d_branch2a
I1208 21:41:21.673740  1647 net.cpp:150] Setting up res4d_branch2a
I1208 21:41:21.673789  1647 net.cpp:157] Top shape: 1 256 14 14 (50176)
I1208 21:41:21.673806  1647 net.cpp:165] Memory required for data: 199098380
I1208 21:41:21.673823  1647 layer_factory.hpp:77] Creating layer bn4d_branch2a
I1208 21:41:21.673841  1647 net.cpp:100] Creating Layer bn4d_branch2a
I1208 21:41:21.673856  1647 net.cpp:434] bn4d_branch2a <- res4d_branch2a
I1208 21:41:21.673872  1647 net.cpp:395] bn4d_branch2a -> res4d_branch2a (in-place)
I1208 21:41:21.674329  1647 net.cpp:150] Setting up bn4d_branch2a
I1208 21:41:21.674360  1647 net.cpp:157] Top shape: 1 256 14 14 (50176)
I1208 21:41:21.674373  1647 net.cpp:165] Memory required for data: 199299084
I1208 21:41:21.674392  1647 layer_factory.hpp:77] Creating layer scale4d_branch2a
I1208 21:41:21.674410  1647 net.cpp:100] Creating Layer scale4d_branch2a
I1208 21:41:21.674424  1647 net.cpp:434] scale4d_branch2a <- res4d_branch2a
I1208 21:41:21.674440  1647 net.cpp:395] scale4d_branch2a -> res4d_branch2a (in-place)
I1208 21:41:21.674554  1647 layer_factory.hpp:77] Creating layer scale4d_branch2a
I1208 21:41:21.674813  1647 net.cpp:150] Setting up scale4d_branch2a
I1208 21:41:21.674854  1647 net.cpp:157] Top shape: 1 256 14 14 (50176)
I1208 21:41:21.674881  1647 net.cpp:165] Memory required for data: 199499788
I1208 21:41:21.674899  1647 layer_factory.hpp:77] Creating layer res4d_branch2a_relu
I1208 21:41:21.674917  1647 net.cpp:100] Creating Layer res4d_branch2a_relu
I1208 21:41:21.674931  1647 net.cpp:434] res4d_branch2a_relu <- res4d_branch2a
I1208 21:41:21.674952  1647 net.cpp:395] res4d_branch2a_relu -> res4d_branch2a (in-place)
I1208 21:41:21.676498  1647 net.cpp:150] Setting up res4d_branch2a_relu
I1208 21:41:21.676535  1647 net.cpp:157] Top shape: 1 256 14 14 (50176)
I1208 21:41:21.676550  1647 net.cpp:165] Memory required for data: 199700492
I1208 21:41:21.676563  1647 layer_factory.hpp:77] Creating layer res4d_branch2b
I1208 21:41:21.676590  1647 net.cpp:100] Creating Layer res4d_branch2b
I1208 21:41:21.676609  1647 net.cpp:434] res4d_branch2b <- res4d_branch2a
I1208 21:41:21.676627  1647 net.cpp:408] res4d_branch2b -> res4d_branch2b
I1208 21:41:21.701449  1647 net.cpp:150] Setting up res4d_branch2b
I1208 21:41:21.701498  1647 net.cpp:157] Top shape: 1 256 14 14 (50176)
I1208 21:41:21.701516  1647 net.cpp:165] Memory required for data: 199901196
I1208 21:41:21.701534  1647 layer_factory.hpp:77] Creating layer bn4d_branch2b
I1208 21:41:21.701551  1647 net.cpp:100] Creating Layer bn4d_branch2b
I1208 21:41:21.701567  1647 net.cpp:434] bn4d_branch2b <- res4d_branch2b
I1208 21:41:21.701591  1647 net.cpp:395] bn4d_branch2b -> res4d_branch2b (in-place)
I1208 21:41:21.702003  1647 net.cpp:150] Setting up bn4d_branch2b
I1208 21:41:21.702026  1647 net.cpp:157] Top shape: 1 256 14 14 (50176)
I1208 21:41:21.702066  1647 net.cpp:165] Memory required for data: 200101900
I1208 21:41:21.702093  1647 layer_factory.hpp:77] Creating layer scale4d_branch2b
I1208 21:41:21.702112  1647 net.cpp:100] Creating Layer scale4d_branch2b
I1208 21:41:21.702127  1647 net.cpp:434] scale4d_branch2b <- res4d_branch2b
I1208 21:41:21.702143  1647 net.cpp:395] scale4d_branch2b -> res4d_branch2b (in-place)
I1208 21:41:21.702249  1647 layer_factory.hpp:77] Creating layer scale4d_branch2b
I1208 21:41:21.702522  1647 net.cpp:150] Setting up scale4d_branch2b
I1208 21:41:21.702548  1647 net.cpp:157] Top shape: 1 256 14 14 (50176)
I1208 21:41:21.702560  1647 net.cpp:165] Memory required for data: 200302604
I1208 21:41:21.702577  1647 layer_factory.hpp:77] Creating layer res4d_branch2b_relu
I1208 21:41:21.702594  1647 net.cpp:100] Creating Layer res4d_branch2b_relu
I1208 21:41:21.702608  1647 net.cpp:434] res4d_branch2b_relu <- res4d_branch2b
I1208 21:41:21.702630  1647 net.cpp:395] res4d_branch2b_relu -> res4d_branch2b (in-place)
I1208 21:41:21.704136  1647 net.cpp:150] Setting up res4d_branch2b_relu
I1208 21:41:21.704172  1647 net.cpp:157] Top shape: 1 256 14 14 (50176)
I1208 21:41:21.704187  1647 net.cpp:165] Memory required for data: 200503308
I1208 21:41:21.704200  1647 layer_factory.hpp:77] Creating layer res4d_branch2c
I1208 21:41:21.704227  1647 net.cpp:100] Creating Layer res4d_branch2c
I1208 21:41:21.704246  1647 net.cpp:434] res4d_branch2c <- res4d_branch2b
I1208 21:41:21.704263  1647 net.cpp:408] res4d_branch2c -> res4d_branch2c
I1208 21:41:21.717978  1647 net.cpp:150] Setting up res4d_branch2c
I1208 21:41:21.718019  1647 net.cpp:157] Top shape: 1 1024 14 14 (200704)
I1208 21:41:21.718035  1647 net.cpp:165] Memory required for data: 201306124
I1208 21:41:21.718091  1647 layer_factory.hpp:77] Creating layer bn4d_branch2c
I1208 21:41:21.718112  1647 net.cpp:100] Creating Layer bn4d_branch2c
I1208 21:41:21.718215  1647 net.cpp:434] bn4d_branch2c <- res4d_branch2c
I1208 21:41:21.718335  1647 net.cpp:395] bn4d_branch2c -> res4d_branch2c (in-place)
I1208 21:41:21.718904  1647 net.cpp:150] Setting up bn4d_branch2c
I1208 21:41:21.718935  1647 net.cpp:157] Top shape: 1 1024 14 14 (200704)
I1208 21:41:21.718951  1647 net.cpp:165] Memory required for data: 202108940
I1208 21:41:21.718973  1647 layer_factory.hpp:77] Creating layer scale4d_branch2c
I1208 21:41:21.718994  1647 net.cpp:100] Creating Layer scale4d_branch2c
I1208 21:41:21.719072  1647 net.cpp:434] scale4d_branch2c <- res4d_branch2c
I1208 21:41:21.719130  1647 net.cpp:395] scale4d_branch2c -> res4d_branch2c (in-place)
I1208 21:41:21.719259  1647 layer_factory.hpp:77] Creating layer scale4d_branch2c
I1208 21:41:21.719617  1647 net.cpp:150] Setting up scale4d_branch2c
I1208 21:41:21.719648  1647 net.cpp:157] Top shape: 1 1024 14 14 (200704)
I1208 21:41:21.719663  1647 net.cpp:165] Memory required for data: 202911756
I1208 21:41:21.719683  1647 layer_factory.hpp:77] Creating layer res4d
I1208 21:41:21.719725  1647 net.cpp:100] Creating Layer res4d
I1208 21:41:21.719748  1647 net.cpp:434] res4d <- res4c_res4c_relu_0_split_1
I1208 21:41:21.719765  1647 net.cpp:434] res4d <- res4d_branch2c
I1208 21:41:21.719784  1647 net.cpp:408] res4d -> res4d
I1208 21:41:21.719872  1647 net.cpp:150] Setting up res4d
I1208 21:41:21.719897  1647 net.cpp:157] Top shape: 1 1024 14 14 (200704)
I1208 21:41:21.719911  1647 net.cpp:165] Memory required for data: 203714572
I1208 21:41:21.719926  1647 layer_factory.hpp:77] Creating layer res4d_relu
I1208 21:41:21.719944  1647 net.cpp:100] Creating Layer res4d_relu
I1208 21:41:21.719961  1647 net.cpp:434] res4d_relu <- res4d
I1208 21:41:21.719987  1647 net.cpp:395] res4d_relu -> res4d (in-place)
I1208 21:41:21.720403  1647 net.cpp:150] Setting up res4d_relu
I1208 21:41:21.720437  1647 net.cpp:157] Top shape: 1 1024 14 14 (200704)
I1208 21:41:21.720451  1647 net.cpp:165] Memory required for data: 204517388
I1208 21:41:21.720468  1647 layer_factory.hpp:77] Creating layer res4d_res4d_relu_0_split
I1208 21:41:21.720486  1647 net.cpp:100] Creating Layer res4d_res4d_relu_0_split
I1208 21:41:21.720502  1647 net.cpp:434] res4d_res4d_relu_0_split <- res4d
I1208 21:41:21.720543  1647 net.cpp:408] res4d_res4d_relu_0_split -> res4d_res4d_relu_0_split_0
I1208 21:41:21.720571  1647 net.cpp:408] res4d_res4d_relu_0_split -> res4d_res4d_relu_0_split_1
I1208 21:41:21.720683  1647 net.cpp:150] Setting up res4d_res4d_relu_0_split
I1208 21:41:21.720717  1647 net.cpp:157] Top shape: 1 1024 14 14 (200704)
I1208 21:41:21.720736  1647 net.cpp:157] Top shape: 1 1024 14 14 (200704)
I1208 21:41:21.720749  1647 net.cpp:165] Memory required for data: 206123020
I1208 21:41:21.720764  1647 layer_factory.hpp:77] Creating layer res4e_branch2a
I1208 21:41:21.720785  1647 net.cpp:100] Creating Layer res4e_branch2a
I1208 21:41:21.720803  1647 net.cpp:434] res4e_branch2a <- res4d_res4d_relu_0_split_0
I1208 21:41:21.720851  1647 net.cpp:408] res4e_branch2a -> res4e_branch2a
I1208 21:41:21.733633  1647 net.cpp:150] Setting up res4e_branch2a
I1208 21:41:21.733676  1647 net.cpp:157] Top shape: 1 256 14 14 (50176)
I1208 21:41:21.733693  1647 net.cpp:165] Memory required for data: 206323724
I1208 21:41:21.733713  1647 layer_factory.hpp:77] Creating layer bn4e_branch2a
I1208 21:41:21.733759  1647 net.cpp:100] Creating Layer bn4e_branch2a
I1208 21:41:21.733783  1647 net.cpp:434] bn4e_branch2a <- res4e_branch2a
I1208 21:41:21.733801  1647 net.cpp:395] bn4e_branch2a -> res4e_branch2a (in-place)
I1208 21:41:21.734336  1647 net.cpp:150] Setting up bn4e_branch2a
I1208 21:41:21.734370  1647 net.cpp:157] Top shape: 1 256 14 14 (50176)
I1208 21:41:21.734386  1647 net.cpp:165] Memory required for data: 206524428
I1208 21:41:21.734408  1647 layer_factory.hpp:77] Creating layer scale4e_branch2a
I1208 21:41:21.734436  1647 net.cpp:100] Creating Layer scale4e_branch2a
I1208 21:41:21.734454  1647 net.cpp:434] scale4e_branch2a <- res4e_branch2a
I1208 21:41:21.734473  1647 net.cpp:395] scale4e_branch2a -> res4e_branch2a (in-place)
I1208 21:41:21.734589  1647 layer_factory.hpp:77] Creating layer scale4e_branch2a
I1208 21:41:21.734855  1647 net.cpp:150] Setting up scale4e_branch2a
I1208 21:41:21.734882  1647 net.cpp:157] Top shape: 1 256 14 14 (50176)
I1208 21:41:21.734896  1647 net.cpp:165] Memory required for data: 206725132
I1208 21:41:21.734915  1647 layer_factory.hpp:77] Creating layer res4e_branch2a_relu
I1208 21:41:21.734941  1647 net.cpp:100] Creating Layer res4e_branch2a_relu
I1208 21:41:21.734975  1647 net.cpp:434] res4e_branch2a_relu <- res4e_branch2a
I1208 21:41:21.735009  1647 net.cpp:395] res4e_branch2a_relu -> res4e_branch2a (in-place)
I1208 21:41:21.735374  1647 net.cpp:150] Setting up res4e_branch2a_relu
I1208 21:41:21.735405  1647 net.cpp:157] Top shape: 1 256 14 14 (50176)
I1208 21:41:21.735421  1647 net.cpp:165] Memory required for data: 206925836
I1208 21:41:21.735436  1647 layer_factory.hpp:77] Creating layer res4e_branch2b
I1208 21:41:21.735468  1647 net.cpp:100] Creating Layer res4e_branch2b
I1208 21:41:21.735488  1647 net.cpp:434] res4e_branch2b <- res4e_branch2a
I1208 21:41:21.735508  1647 net.cpp:408] res4e_branch2b -> res4e_branch2b
I1208 21:41:21.761490  1647 net.cpp:150] Setting up res4e_branch2b
I1208 21:41:21.761534  1647 net.cpp:157] Top shape: 1 256 14 14 (50176)
I1208 21:41:21.761562  1647 net.cpp:165] Memory required for data: 207126540
I1208 21:41:21.761582  1647 layer_factory.hpp:77] Creating layer bn4e_branch2b
I1208 21:41:21.761603  1647 net.cpp:100] Creating Layer bn4e_branch2b
I1208 21:41:21.761620  1647 net.cpp:434] bn4e_branch2b <- res4e_branch2b
I1208 21:41:21.761639  1647 net.cpp:395] bn4e_branch2b -> res4e_branch2b (in-place)
I1208 21:41:21.762084  1647 net.cpp:150] Setting up bn4e_branch2b
I1208 21:41:21.762114  1647 net.cpp:157] Top shape: 1 256 14 14 (50176)
I1208 21:41:21.762128  1647 net.cpp:165] Memory required for data: 207327244
I1208 21:41:21.762151  1647 layer_factory.hpp:77] Creating layer scale4e_branch2b
I1208 21:41:21.762171  1647 net.cpp:100] Creating Layer scale4e_branch2b
I1208 21:41:21.762187  1647 net.cpp:434] scale4e_branch2b <- res4e_branch2b
I1208 21:41:21.762204  1647 net.cpp:395] scale4e_branch2b -> res4e_branch2b (in-place)
I1208 21:41:21.762331  1647 layer_factory.hpp:77] Creating layer scale4e_branch2b
I1208 21:41:21.762599  1647 net.cpp:150] Setting up scale4e_branch2b
I1208 21:41:21.762626  1647 net.cpp:157] Top shape: 1 256 14 14 (50176)
I1208 21:41:21.762641  1647 net.cpp:165] Memory required for data: 207527948
I1208 21:41:21.762660  1647 layer_factory.hpp:77] Creating layer res4e_branch2b_relu
I1208 21:41:21.762686  1647 net.cpp:100] Creating Layer res4e_branch2b_relu
I1208 21:41:21.762703  1647 net.cpp:434] res4e_branch2b_relu <- res4e_branch2b
I1208 21:41:21.762722  1647 net.cpp:395] res4e_branch2b_relu -> res4e_branch2b (in-place)
I1208 21:41:21.763068  1647 net.cpp:150] Setting up res4e_branch2b_relu
I1208 21:41:21.763100  1647 net.cpp:157] Top shape: 1 256 14 14 (50176)
I1208 21:41:21.763115  1647 net.cpp:165] Memory required for data: 207728652
I1208 21:41:21.763130  1647 layer_factory.hpp:77] Creating layer res4e_branch2c
I1208 21:41:21.763159  1647 net.cpp:100] Creating Layer res4e_branch2c
I1208 21:41:21.763178  1647 net.cpp:434] res4e_branch2c <- res4e_branch2b
I1208 21:41:21.763198  1647 net.cpp:408] res4e_branch2c -> res4e_branch2c
I1208 21:41:21.776829  1647 net.cpp:150] Setting up res4e_branch2c
I1208 21:41:21.776872  1647 net.cpp:157] Top shape: 1 1024 14 14 (200704)
I1208 21:41:21.776890  1647 net.cpp:165] Memory required for data: 208531468
I1208 21:41:21.776909  1647 layer_factory.hpp:77] Creating layer bn4e_branch2c
I1208 21:41:21.776933  1647 net.cpp:100] Creating Layer bn4e_branch2c
I1208 21:41:21.776950  1647 net.cpp:434] bn4e_branch2c <- res4e_branch2c
I1208 21:41:21.776971  1647 net.cpp:395] bn4e_branch2c -> res4e_branch2c (in-place)
I1208 21:41:21.777381  1647 net.cpp:150] Setting up bn4e_branch2c
I1208 21:41:21.777410  1647 net.cpp:157] Top shape: 1 1024 14 14 (200704)
I1208 21:41:21.777426  1647 net.cpp:165] Memory required for data: 209334284
I1208 21:41:21.777446  1647 layer_factory.hpp:77] Creating layer scale4e_branch2c
I1208 21:41:21.777468  1647 net.cpp:100] Creating Layer scale4e_branch2c
I1208 21:41:21.777485  1647 net.cpp:434] scale4e_branch2c <- res4e_branch2c
I1208 21:41:21.777503  1647 net.cpp:395] scale4e_branch2c -> res4e_branch2c (in-place)
I1208 21:41:21.777606  1647 layer_factory.hpp:77] Creating layer scale4e_branch2c
I1208 21:41:21.777884  1647 net.cpp:150] Setting up scale4e_branch2c
I1208 21:41:21.777922  1647 net.cpp:157] Top shape: 1 1024 14 14 (200704)
I1208 21:41:21.777947  1647 net.cpp:165] Memory required for data: 210137100
I1208 21:41:21.777967  1647 layer_factory.hpp:77] Creating layer res4e
I1208 21:41:21.777987  1647 net.cpp:100] Creating Layer res4e
I1208 21:41:21.778004  1647 net.cpp:434] res4e <- res4d_res4d_relu_0_split_1
I1208 21:41:21.778021  1647 net.cpp:434] res4e <- res4e_branch2c
I1208 21:41:21.778067  1647 net.cpp:408] res4e -> res4e
I1208 21:41:21.778162  1647 net.cpp:150] Setting up res4e
I1208 21:41:21.778188  1647 net.cpp:157] Top shape: 1 1024 14 14 (200704)
I1208 21:41:21.778203  1647 net.cpp:165] Memory required for data: 210939916
I1208 21:41:21.778218  1647 layer_factory.hpp:77] Creating layer res4e_relu
I1208 21:41:21.778235  1647 net.cpp:100] Creating Layer res4e_relu
I1208 21:41:21.778251  1647 net.cpp:434] res4e_relu <- res4e
I1208 21:41:21.778268  1647 net.cpp:395] res4e_relu -> res4e (in-place)
I1208 21:41:21.778560  1647 net.cpp:150] Setting up res4e_relu
I1208 21:41:21.778589  1647 net.cpp:157] Top shape: 1 1024 14 14 (200704)
I1208 21:41:21.778604  1647 net.cpp:165] Memory required for data: 211742732
I1208 21:41:21.778620  1647 layer_factory.hpp:77] Creating layer res4e_res4e_relu_0_split
I1208 21:41:21.778638  1647 net.cpp:100] Creating Layer res4e_res4e_relu_0_split
I1208 21:41:21.778654  1647 net.cpp:434] res4e_res4e_relu_0_split <- res4e
I1208 21:41:21.778681  1647 net.cpp:408] res4e_res4e_relu_0_split -> res4e_res4e_relu_0_split_0
I1208 21:41:21.778705  1647 net.cpp:408] res4e_res4e_relu_0_split -> res4e_res4e_relu_0_split_1
I1208 21:41:21.778817  1647 net.cpp:150] Setting up res4e_res4e_relu_0_split
I1208 21:41:21.778842  1647 net.cpp:157] Top shape: 1 1024 14 14 (200704)
I1208 21:41:21.778858  1647 net.cpp:157] Top shape: 1 1024 14 14 (200704)
I1208 21:41:21.778872  1647 net.cpp:165] Memory required for data: 213348364
I1208 21:41:21.778887  1647 layer_factory.hpp:77] Creating layer res4f_branch2a
I1208 21:41:21.778918  1647 net.cpp:100] Creating Layer res4f_branch2a
I1208 21:41:21.778937  1647 net.cpp:434] res4f_branch2a <- res4e_res4e_relu_0_split_0
I1208 21:41:21.778956  1647 net.cpp:408] res4f_branch2a -> res4f_branch2a
I1208 21:41:21.790063  1647 net.cpp:150] Setting up res4f_branch2a
I1208 21:41:21.790103  1647 net.cpp:157] Top shape: 1 256 14 14 (50176)
I1208 21:41:21.790122  1647 net.cpp:165] Memory required for data: 213549068
I1208 21:41:21.790140  1647 layer_factory.hpp:77] Creating layer bn4f_branch2a
I1208 21:41:21.790169  1647 net.cpp:100] Creating Layer bn4f_branch2a
I1208 21:41:21.790189  1647 net.cpp:434] bn4f_branch2a <- res4f_branch2a
I1208 21:41:21.790210  1647 net.cpp:395] bn4f_branch2a -> res4f_branch2a (in-place)
I1208 21:41:21.790611  1647 net.cpp:150] Setting up bn4f_branch2a
I1208 21:41:21.790639  1647 net.cpp:157] Top shape: 1 256 14 14 (50176)
I1208 21:41:21.790655  1647 net.cpp:165] Memory required for data: 213749772
I1208 21:41:21.790678  1647 layer_factory.hpp:77] Creating layer scale4f_branch2a
I1208 21:41:21.790699  1647 net.cpp:100] Creating Layer scale4f_branch2a
I1208 21:41:21.790716  1647 net.cpp:434] scale4f_branch2a <- res4f_branch2a
I1208 21:41:21.790735  1647 net.cpp:395] scale4f_branch2a -> res4f_branch2a (in-place)
I1208 21:41:21.790838  1647 layer_factory.hpp:77] Creating layer scale4f_branch2a
I1208 21:41:21.791085  1647 net.cpp:150] Setting up scale4f_branch2a
I1208 21:41:21.791111  1647 net.cpp:157] Top shape: 1 256 14 14 (50176)
I1208 21:41:21.791126  1647 net.cpp:165] Memory required for data: 213950476
I1208 21:41:21.791144  1647 layer_factory.hpp:77] Creating layer res4f_branch2a_relu
I1208 21:41:21.791163  1647 net.cpp:100] Creating Layer res4f_branch2a_relu
I1208 21:41:21.791179  1647 net.cpp:434] res4f_branch2a_relu <- res4f_branch2a
I1208 21:41:21.791199  1647 net.cpp:395] res4f_branch2a_relu -> res4f_branch2a (in-place)
I1208 21:41:21.792769  1647 net.cpp:150] Setting up res4f_branch2a_relu
I1208 21:41:21.792807  1647 net.cpp:157] Top shape: 1 256 14 14 (50176)
I1208 21:41:21.792824  1647 net.cpp:165] Memory required for data: 214151180
I1208 21:41:21.792850  1647 layer_factory.hpp:77] Creating layer res4f_branch2b
I1208 21:41:21.792886  1647 net.cpp:100] Creating Layer res4f_branch2b
I1208 21:41:21.792906  1647 net.cpp:434] res4f_branch2b <- res4f_branch2a
I1208 21:41:21.792928  1647 net.cpp:408] res4f_branch2b -> res4f_branch2b
I1208 21:41:21.817358  1647 net.cpp:150] Setting up res4f_branch2b
I1208 21:41:21.817400  1647 net.cpp:157] Top shape: 1 256 14 14 (50176)
I1208 21:41:21.817418  1647 net.cpp:165] Memory required for data: 214351884
I1208 21:41:21.817438  1647 layer_factory.hpp:77] Creating layer bn4f_branch2b
I1208 21:41:21.817468  1647 net.cpp:100] Creating Layer bn4f_branch2b
I1208 21:41:21.817488  1647 net.cpp:434] bn4f_branch2b <- res4f_branch2b
I1208 21:41:21.817507  1647 net.cpp:395] bn4f_branch2b -> res4f_branch2b (in-place)
I1208 21:41:21.817930  1647 net.cpp:150] Setting up bn4f_branch2b
I1208 21:41:21.817956  1647 net.cpp:157] Top shape: 1 256 14 14 (50176)
I1208 21:41:21.817971  1647 net.cpp:165] Memory required for data: 214552588
I1208 21:41:21.817998  1647 layer_factory.hpp:77] Creating layer scale4f_branch2b
I1208 21:41:21.818020  1647 net.cpp:100] Creating Layer scale4f_branch2b
I1208 21:41:21.818037  1647 net.cpp:434] scale4f_branch2b <- res4f_branch2b
I1208 21:41:21.818083  1647 net.cpp:395] scale4f_branch2b -> res4f_branch2b (in-place)
I1208 21:41:21.818200  1647 layer_factory.hpp:77] Creating layer scale4f_branch2b
I1208 21:41:21.818481  1647 net.cpp:150] Setting up scale4f_branch2b
I1208 21:41:21.818509  1647 net.cpp:157] Top shape: 1 256 14 14 (50176)
I1208 21:41:21.818524  1647 net.cpp:165] Memory required for data: 214753292
I1208 21:41:21.818543  1647 layer_factory.hpp:77] Creating layer res4f_branch2b_relu
I1208 21:41:21.818568  1647 net.cpp:100] Creating Layer res4f_branch2b_relu
I1208 21:41:21.818588  1647 net.cpp:434] res4f_branch2b_relu <- res4f_branch2b
I1208 21:41:21.818605  1647 net.cpp:395] res4f_branch2b_relu -> res4f_branch2b (in-place)
I1208 21:41:21.820124  1647 net.cpp:150] Setting up res4f_branch2b_relu
I1208 21:41:21.820163  1647 net.cpp:157] Top shape: 1 256 14 14 (50176)
I1208 21:41:21.820179  1647 net.cpp:165] Memory required for data: 214953996
I1208 21:41:21.820195  1647 layer_factory.hpp:77] Creating layer res4f_branch2c
I1208 21:41:21.820225  1647 net.cpp:100] Creating Layer res4f_branch2c
I1208 21:41:21.820245  1647 net.cpp:434] res4f_branch2c <- res4f_branch2b
I1208 21:41:21.820271  1647 net.cpp:408] res4f_branch2c -> res4f_branch2c
I1208 21:41:21.834113  1647 net.cpp:150] Setting up res4f_branch2c
I1208 21:41:21.834156  1647 net.cpp:157] Top shape: 1 1024 14 14 (200704)
I1208 21:41:21.834182  1647 net.cpp:165] Memory required for data: 215756812
I1208 21:41:21.834201  1647 layer_factory.hpp:77] Creating layer bn4f_branch2c
I1208 21:41:21.834223  1647 net.cpp:100] Creating Layer bn4f_branch2c
I1208 21:41:21.834239  1647 net.cpp:434] bn4f_branch2c <- res4f_branch2c
I1208 21:41:21.834259  1647 net.cpp:395] bn4f_branch2c -> res4f_branch2c (in-place)
I1208 21:41:21.834688  1647 net.cpp:150] Setting up bn4f_branch2c
I1208 21:41:21.834717  1647 net.cpp:157] Top shape: 1 1024 14 14 (200704)
I1208 21:41:21.834731  1647 net.cpp:165] Memory required for data: 216559628
I1208 21:41:21.834811  1647 layer_factory.hpp:77] Creating layer scale4f_branch2c
I1208 21:41:21.834842  1647 net.cpp:100] Creating Layer scale4f_branch2c
I1208 21:41:21.834861  1647 net.cpp:434] scale4f_branch2c <- res4f_branch2c
I1208 21:41:21.834879  1647 net.cpp:395] scale4f_branch2c -> res4f_branch2c (in-place)
I1208 21:41:21.834990  1647 layer_factory.hpp:77] Creating layer scale4f_branch2c
I1208 21:41:21.835252  1647 net.cpp:150] Setting up scale4f_branch2c
I1208 21:41:21.835285  1647 net.cpp:157] Top shape: 1 1024 14 14 (200704)
I1208 21:41:21.835302  1647 net.cpp:165] Memory required for data: 217362444
I1208 21:41:21.835321  1647 layer_factory.hpp:77] Creating layer res4f
I1208 21:41:21.835341  1647 net.cpp:100] Creating Layer res4f
I1208 21:41:21.835358  1647 net.cpp:434] res4f <- res4e_res4e_relu_0_split_1
I1208 21:41:21.835397  1647 net.cpp:434] res4f <- res4f_branch2c
I1208 21:41:21.835433  1647 net.cpp:408] res4f -> res4f
I1208 21:41:21.835523  1647 net.cpp:150] Setting up res4f
I1208 21:41:21.835547  1647 net.cpp:157] Top shape: 1 1024 14 14 (200704)
I1208 21:41:21.835561  1647 net.cpp:165] Memory required for data: 218165260
I1208 21:41:21.835577  1647 layer_factory.hpp:77] Creating layer res4f_relu
I1208 21:41:21.835602  1647 net.cpp:100] Creating Layer res4f_relu
I1208 21:41:21.835619  1647 net.cpp:434] res4f_relu <- res4f
I1208 21:41:21.835636  1647 net.cpp:395] res4f_relu -> res4f (in-place)
I1208 21:41:21.835942  1647 net.cpp:150] Setting up res4f_relu
I1208 21:41:21.835978  1647 net.cpp:157] Top shape: 1 1024 14 14 (200704)
I1208 21:41:21.835994  1647 net.cpp:165] Memory required for data: 218968076
I1208 21:41:21.836010  1647 layer_factory.hpp:77] Creating layer res4f_res4f_relu_0_split
I1208 21:41:21.836028  1647 net.cpp:100] Creating Layer res4f_res4f_relu_0_split
I1208 21:41:21.836045  1647 net.cpp:434] res4f_res4f_relu_0_split <- res4f
I1208 21:41:21.836062  1647 net.cpp:408] res4f_res4f_relu_0_split -> res4f_res4f_relu_0_split_0
I1208 21:41:21.836082  1647 net.cpp:408] res4f_res4f_relu_0_split -> res4f_res4f_relu_0_split_1
I1208 21:41:21.836195  1647 net.cpp:150] Setting up res4f_res4f_relu_0_split
I1208 21:41:21.836220  1647 net.cpp:157] Top shape: 1 1024 14 14 (200704)
I1208 21:41:21.836236  1647 net.cpp:157] Top shape: 1 1024 14 14 (200704)
I1208 21:41:21.836248  1647 net.cpp:165] Memory required for data: 220573708
I1208 21:41:21.836263  1647 layer_factory.hpp:77] Creating layer res5a_branch1
I1208 21:41:21.836300  1647 net.cpp:100] Creating Layer res5a_branch1
I1208 21:41:21.836321  1647 net.cpp:434] res5a_branch1 <- res4f_res4f_relu_0_split_0
I1208 21:41:21.836347  1647 net.cpp:408] res5a_branch1 -> res5a_branch1
I1208 21:41:21.917001  1647 net.cpp:150] Setting up res5a_branch1
I1208 21:41:21.917045  1647 net.cpp:157] Top shape: 1 2048 7 7 (100352)
I1208 21:41:21.917062  1647 net.cpp:165] Memory required for data: 220975116
I1208 21:41:21.917083  1647 layer_factory.hpp:77] Creating layer bn5a_branch1
I1208 21:41:21.917102  1647 net.cpp:100] Creating Layer bn5a_branch1
I1208 21:41:21.917119  1647 net.cpp:434] bn5a_branch1 <- res5a_branch1
I1208 21:41:21.917145  1647 net.cpp:395] bn5a_branch1 -> res5a_branch1 (in-place)
I1208 21:41:21.917628  1647 net.cpp:150] Setting up bn5a_branch1
I1208 21:41:21.917656  1647 net.cpp:157] Top shape: 1 2048 7 7 (100352)
I1208 21:41:21.917671  1647 net.cpp:165] Memory required for data: 221376524
I1208 21:41:21.917693  1647 layer_factory.hpp:77] Creating layer scale5a_branch1
I1208 21:41:21.917713  1647 net.cpp:100] Creating Layer scale5a_branch1
I1208 21:41:21.917729  1647 net.cpp:434] scale5a_branch1 <- res5a_branch1
I1208 21:41:21.917747  1647 net.cpp:395] scale5a_branch1 -> res5a_branch1 (in-place)
I1208 21:41:21.917860  1647 layer_factory.hpp:77] Creating layer scale5a_branch1
I1208 21:41:21.918205  1647 net.cpp:150] Setting up scale5a_branch1
I1208 21:41:21.918237  1647 net.cpp:157] Top shape: 1 2048 7 7 (100352)
I1208 21:41:21.918252  1647 net.cpp:165] Memory required for data: 221777932
I1208 21:41:21.918282  1647 layer_factory.hpp:77] Creating layer res5a_branch2a
I1208 21:41:21.918315  1647 net.cpp:100] Creating Layer res5a_branch2a
I1208 21:41:21.918335  1647 net.cpp:434] res5a_branch2a <- res4f_res4f_relu_0_split_1
I1208 21:41:21.918361  1647 net.cpp:408] res5a_branch2a -> res5a_branch2a
I1208 21:41:21.940790  1647 net.cpp:150] Setting up res5a_branch2a
I1208 21:41:21.940837  1647 net.cpp:157] Top shape: 1 512 7 7 (25088)
I1208 21:41:21.940855  1647 net.cpp:165] Memory required for data: 221878284
I1208 21:41:21.940874  1647 layer_factory.hpp:77] Creating layer bn5a_branch2a
I1208 21:41:21.940902  1647 net.cpp:100] Creating Layer bn5a_branch2a
I1208 21:41:21.940922  1647 net.cpp:434] bn5a_branch2a <- res5a_branch2a
I1208 21:41:21.940942  1647 net.cpp:395] bn5a_branch2a -> res5a_branch2a (in-place)
I1208 21:41:21.941392  1647 net.cpp:150] Setting up bn5a_branch2a
I1208 21:41:21.941437  1647 net.cpp:157] Top shape: 1 512 7 7 (25088)
I1208 21:41:21.941473  1647 net.cpp:165] Memory required for data: 221978636
I1208 21:41:21.941498  1647 layer_factory.hpp:77] Creating layer scale5a_branch2a
I1208 21:41:21.941524  1647 net.cpp:100] Creating Layer scale5a_branch2a
I1208 21:41:21.941543  1647 net.cpp:434] scale5a_branch2a <- res5a_branch2a
I1208 21:41:21.941561  1647 net.cpp:395] scale5a_branch2a -> res5a_branch2a (in-place)
I1208 21:41:21.941673  1647 layer_factory.hpp:77] Creating layer scale5a_branch2a
I1208 21:41:21.941952  1647 net.cpp:150] Setting up scale5a_branch2a
I1208 21:41:21.941978  1647 net.cpp:157] Top shape: 1 512 7 7 (25088)
I1208 21:41:21.941992  1647 net.cpp:165] Memory required for data: 222078988
I1208 21:41:21.942011  1647 layer_factory.hpp:77] Creating layer res5a_branch2a_relu
I1208 21:41:21.942039  1647 net.cpp:100] Creating Layer res5a_branch2a_relu
I1208 21:41:21.942083  1647 net.cpp:434] res5a_branch2a_relu <- res5a_branch2a
I1208 21:41:21.942102  1647 net.cpp:395] res5a_branch2a_relu -> res5a_branch2a (in-place)
I1208 21:41:21.942428  1647 net.cpp:150] Setting up res5a_branch2a_relu
I1208 21:41:21.942459  1647 net.cpp:157] Top shape: 1 512 7 7 (25088)
I1208 21:41:21.942474  1647 net.cpp:165] Memory required for data: 222179340
I1208 21:41:21.942490  1647 layer_factory.hpp:77] Creating layer res5a_branch2b
I1208 21:41:21.942523  1647 net.cpp:100] Creating Layer res5a_branch2b
I1208 21:41:21.942543  1647 net.cpp:434] res5a_branch2b <- res5a_branch2a
I1208 21:41:21.942564  1647 net.cpp:408] res5a_branch2b -> res5a_branch2b
I1208 21:41:22.034340  1647 net.cpp:150] Setting up res5a_branch2b
I1208 21:41:22.034412  1647 net.cpp:157] Top shape: 1 512 7 7 (25088)
I1208 21:41:22.034430  1647 net.cpp:165] Memory required for data: 222279692
I1208 21:41:22.034453  1647 layer_factory.hpp:77] Creating layer bn5a_branch2b
I1208 21:41:22.034492  1647 net.cpp:100] Creating Layer bn5a_branch2b
I1208 21:41:22.034514  1647 net.cpp:434] bn5a_branch2b <- res5a_branch2b
I1208 21:41:22.034535  1647 net.cpp:395] bn5a_branch2b -> res5a_branch2b (in-place)
I1208 21:41:22.035003  1647 net.cpp:150] Setting up bn5a_branch2b
I1208 21:41:22.035030  1647 net.cpp:157] Top shape: 1 512 7 7 (25088)
I1208 21:41:22.035045  1647 net.cpp:165] Memory required for data: 222380044
I1208 21:41:22.035073  1647 layer_factory.hpp:77] Creating layer scale5a_branch2b
I1208 21:41:22.035099  1647 net.cpp:100] Creating Layer scale5a_branch2b
I1208 21:41:22.035115  1647 net.cpp:434] scale5a_branch2b <- res5a_branch2b
I1208 21:41:22.035133  1647 net.cpp:395] scale5a_branch2b -> res5a_branch2b (in-place)
I1208 21:41:22.035245  1647 layer_factory.hpp:77] Creating layer scale5a_branch2b
I1208 21:41:22.035547  1647 net.cpp:150] Setting up scale5a_branch2b
I1208 21:41:22.035578  1647 net.cpp:157] Top shape: 1 512 7 7 (25088)
I1208 21:41:22.035591  1647 net.cpp:165] Memory required for data: 222480396
I1208 21:41:22.035611  1647 layer_factory.hpp:77] Creating layer res5a_branch2b_relu
I1208 21:41:22.035639  1647 net.cpp:100] Creating Layer res5a_branch2b_relu
I1208 21:41:22.035657  1647 net.cpp:434] res5a_branch2b_relu <- res5a_branch2b
I1208 21:41:22.035676  1647 net.cpp:395] res5a_branch2b_relu -> res5a_branch2b (in-place)
I1208 21:41:22.035989  1647 net.cpp:150] Setting up res5a_branch2b_relu
I1208 21:41:22.036018  1647 net.cpp:157] Top shape: 1 512 7 7 (25088)
I1208 21:41:22.036033  1647 net.cpp:165] Memory required for data: 222580748
I1208 21:41:22.036049  1647 layer_factory.hpp:77] Creating layer res5a_branch2c
I1208 21:41:22.036084  1647 net.cpp:100] Creating Layer res5a_branch2c
I1208 21:41:22.036104  1647 net.cpp:434] res5a_branch2c <- res5a_branch2b
I1208 21:41:22.036125  1647 net.cpp:408] res5a_branch2c -> res5a_branch2c
I1208 21:41:22.078016  1647 net.cpp:150] Setting up res5a_branch2c
I1208 21:41:22.078094  1647 net.cpp:157] Top shape: 1 2048 7 7 (100352)
I1208 21:41:22.078114  1647 net.cpp:165] Memory required for data: 222982156
I1208 21:41:22.078133  1647 layer_factory.hpp:77] Creating layer bn5a_branch2c
I1208 21:41:22.078181  1647 net.cpp:100] Creating Layer bn5a_branch2c
I1208 21:41:22.078220  1647 net.cpp:434] bn5a_branch2c <- res5a_branch2c
I1208 21:41:22.078248  1647 net.cpp:395] bn5a_branch2c -> res5a_branch2c (in-place)
I1208 21:41:22.078708  1647 net.cpp:150] Setting up bn5a_branch2c
I1208 21:41:22.078737  1647 net.cpp:157] Top shape: 1 2048 7 7 (100352)
I1208 21:41:22.078752  1647 net.cpp:165] Memory required for data: 223383564
I1208 21:41:22.078774  1647 layer_factory.hpp:77] Creating layer scale5a_branch2c
I1208 21:41:22.078794  1647 net.cpp:100] Creating Layer scale5a_branch2c
I1208 21:41:22.078811  1647 net.cpp:434] scale5a_branch2c <- res5a_branch2c
I1208 21:41:22.078835  1647 net.cpp:395] scale5a_branch2c -> res5a_branch2c (in-place)
I1208 21:41:22.078943  1647 layer_factory.hpp:77] Creating layer scale5a_branch2c
I1208 21:41:22.079238  1647 net.cpp:150] Setting up scale5a_branch2c
I1208 21:41:22.079273  1647 net.cpp:157] Top shape: 1 2048 7 7 (100352)
I1208 21:41:22.079290  1647 net.cpp:165] Memory required for data: 223784972
I1208 21:41:22.079309  1647 layer_factory.hpp:77] Creating layer res5a
I1208 21:41:22.079331  1647 net.cpp:100] Creating Layer res5a
I1208 21:41:22.079349  1647 net.cpp:434] res5a <- res5a_branch1
I1208 21:41:22.079365  1647 net.cpp:434] res5a <- res5a_branch2c
I1208 21:41:22.079383  1647 net.cpp:408] res5a -> res5a
I1208 21:41:22.079470  1647 net.cpp:150] Setting up res5a
I1208 21:41:22.079494  1647 net.cpp:157] Top shape: 1 2048 7 7 (100352)
I1208 21:41:22.079509  1647 net.cpp:165] Memory required for data: 224186380
I1208 21:41:22.079524  1647 layer_factory.hpp:77] Creating layer res5a_relu
I1208 21:41:22.079547  1647 net.cpp:100] Creating Layer res5a_relu
I1208 21:41:22.079566  1647 net.cpp:434] res5a_relu <- res5a
I1208 21:41:22.079582  1647 net.cpp:395] res5a_relu -> res5a (in-place)
I1208 21:41:22.079900  1647 net.cpp:150] Setting up res5a_relu
I1208 21:41:22.079934  1647 net.cpp:157] Top shape: 1 2048 7 7 (100352)
I1208 21:41:22.079952  1647 net.cpp:165] Memory required for data: 224587788
I1208 21:41:22.079967  1647 layer_factory.hpp:77] Creating layer res5a_res5a_relu_0_split
I1208 21:41:22.079987  1647 net.cpp:100] Creating Layer res5a_res5a_relu_0_split
I1208 21:41:22.080001  1647 net.cpp:434] res5a_res5a_relu_0_split <- res5a
I1208 21:41:22.080020  1647 net.cpp:408] res5a_res5a_relu_0_split -> res5a_res5a_relu_0_split_0
I1208 21:41:22.080040  1647 net.cpp:408] res5a_res5a_relu_0_split -> res5a_res5a_relu_0_split_1
I1208 21:41:22.080160  1647 net.cpp:150] Setting up res5a_res5a_relu_0_split
I1208 21:41:22.080185  1647 net.cpp:157] Top shape: 1 2048 7 7 (100352)
I1208 21:41:22.080200  1647 net.cpp:157] Top shape: 1 2048 7 7 (100352)
I1208 21:41:22.080214  1647 net.cpp:165] Memory required for data: 225390604
I1208 21:41:22.080229  1647 layer_factory.hpp:77] Creating layer res5b_branch2a
I1208 21:41:22.080256  1647 net.cpp:100] Creating Layer res5b_branch2a
I1208 21:41:22.080284  1647 net.cpp:434] res5b_branch2a <- res5a_res5a_relu_0_split_0
I1208 21:41:22.080312  1647 net.cpp:408] res5b_branch2a -> res5b_branch2a
I1208 21:41:22.121619  1647 net.cpp:150] Setting up res5b_branch2a
I1208 21:41:22.121670  1647 net.cpp:157] Top shape: 1 512 7 7 (25088)
I1208 21:41:22.121690  1647 net.cpp:165] Memory required for data: 225490956
I1208 21:41:22.121709  1647 layer_factory.hpp:77] Creating layer bn5b_branch2a
I1208 21:41:22.121733  1647 net.cpp:100] Creating Layer bn5b_branch2a
I1208 21:41:22.121752  1647 net.cpp:434] bn5b_branch2a <- res5b_branch2a
I1208 21:41:22.121770  1647 net.cpp:395] bn5b_branch2a -> res5b_branch2a (in-place)
I1208 21:41:22.122227  1647 net.cpp:150] Setting up bn5b_branch2a
I1208 21:41:22.122258  1647 net.cpp:157] Top shape: 1 512 7 7 (25088)
I1208 21:41:22.122285  1647 net.cpp:165] Memory required for data: 225591308
I1208 21:41:22.122313  1647 layer_factory.hpp:77] Creating layer scale5b_branch2a
I1208 21:41:22.122334  1647 net.cpp:100] Creating Layer scale5b_branch2a
I1208 21:41:22.122350  1647 net.cpp:434] scale5b_branch2a <- res5b_branch2a
I1208 21:41:22.122380  1647 net.cpp:395] scale5b_branch2a -> res5b_branch2a (in-place)
I1208 21:41:22.122500  1647 layer_factory.hpp:77] Creating layer scale5b_branch2a
I1208 21:41:22.122772  1647 net.cpp:150] Setting up scale5b_branch2a
I1208 21:41:22.122799  1647 net.cpp:157] Top shape: 1 512 7 7 (25088)
I1208 21:41:22.122814  1647 net.cpp:165] Memory required for data: 225691660
I1208 21:41:22.122833  1647 layer_factory.hpp:77] Creating layer res5b_branch2a_relu
I1208 21:41:22.122855  1647 net.cpp:100] Creating Layer res5b_branch2a_relu
I1208 21:41:22.122872  1647 net.cpp:434] res5b_branch2a_relu <- res5b_branch2a
I1208 21:41:22.122889  1647 net.cpp:395] res5b_branch2a_relu -> res5b_branch2a (in-place)
I1208 21:41:22.123185  1647 net.cpp:150] Setting up res5b_branch2a_relu
I1208 21:41:22.123214  1647 net.cpp:157] Top shape: 1 512 7 7 (25088)
I1208 21:41:22.123232  1647 net.cpp:165] Memory required for data: 225792012
I1208 21:41:22.123247  1647 layer_factory.hpp:77] Creating layer res5b_branch2b
I1208 21:41:22.123286  1647 net.cpp:100] Creating Layer res5b_branch2b
I1208 21:41:22.123306  1647 net.cpp:434] res5b_branch2b <- res5b_branch2a
I1208 21:41:22.123327  1647 net.cpp:408] res5b_branch2b -> res5b_branch2b
I1208 21:41:22.215131  1647 net.cpp:150] Setting up res5b_branch2b
I1208 21:41:22.215185  1647 net.cpp:157] Top shape: 1 512 7 7 (25088)
I1208 21:41:22.215203  1647 net.cpp:165] Memory required for data: 225892364
I1208 21:41:22.215221  1647 layer_factory.hpp:77] Creating layer bn5b_branch2b
I1208 21:41:22.215250  1647 net.cpp:100] Creating Layer bn5b_branch2b
I1208 21:41:22.215279  1647 net.cpp:434] bn5b_branch2b <- res5b_branch2b
I1208 21:41:22.215299  1647 net.cpp:395] bn5b_branch2b -> res5b_branch2b (in-place)
I1208 21:41:22.215750  1647 net.cpp:150] Setting up bn5b_branch2b
I1208 21:41:22.215775  1647 net.cpp:157] Top shape: 1 512 7 7 (25088)
I1208 21:41:22.215787  1647 net.cpp:165] Memory required for data: 225992716
I1208 21:41:22.215807  1647 layer_factory.hpp:77] Creating layer scale5b_branch2b
I1208 21:41:22.215826  1647 net.cpp:100] Creating Layer scale5b_branch2b
I1208 21:41:22.215839  1647 net.cpp:434] scale5b_branch2b <- res5b_branch2b
I1208 21:41:22.215862  1647 net.cpp:395] scale5b_branch2b -> res5b_branch2b (in-place)
I1208 21:41:22.215960  1647 layer_factory.hpp:77] Creating layer scale5b_branch2b
I1208 21:41:22.216234  1647 net.cpp:150] Setting up scale5b_branch2b
I1208 21:41:22.216274  1647 net.cpp:157] Top shape: 1 512 7 7 (25088)
I1208 21:41:22.216291  1647 net.cpp:165] Memory required for data: 226093068
I1208 21:41:22.216308  1647 layer_factory.hpp:77] Creating layer res5b_branch2b_relu
I1208 21:41:22.216325  1647 net.cpp:100] Creating Layer res5b_branch2b_relu
I1208 21:41:22.216338  1647 net.cpp:434] res5b_branch2b_relu <- res5b_branch2b
I1208 21:41:22.216353  1647 net.cpp:395] res5b_branch2b_relu -> res5b_branch2b (in-place)
I1208 21:41:22.217893  1647 net.cpp:150] Setting up res5b_branch2b_relu
I1208 21:41:22.217929  1647 net.cpp:157] Top shape: 1 512 7 7 (25088)
I1208 21:41:22.217944  1647 net.cpp:165] Memory required for data: 226193420
I1208 21:41:22.217957  1647 layer_factory.hpp:77] Creating layer res5b_branch2c
I1208 21:41:22.217988  1647 net.cpp:100] Creating Layer res5b_branch2c
I1208 21:41:22.218006  1647 net.cpp:434] res5b_branch2c <- res5b_branch2b
I1208 21:41:22.218024  1647 net.cpp:408] res5b_branch2c -> res5b_branch2c
I1208 21:41:22.259927  1647 net.cpp:150] Setting up res5b_branch2c
I1208 21:41:22.259968  1647 net.cpp:157] Top shape: 1 2048 7 7 (100352)
I1208 21:41:22.259984  1647 net.cpp:165] Memory required for data: 226594828
I1208 21:41:22.260001  1647 layer_factory.hpp:77] Creating layer bn5b_branch2c
I1208 21:41:22.260025  1647 net.cpp:100] Creating Layer bn5b_branch2c
I1208 21:41:22.260043  1647 net.cpp:434] bn5b_branch2c <- res5b_branch2c
I1208 21:41:22.260061  1647 net.cpp:395] bn5b_branch2c -> res5b_branch2c (in-place)
I1208 21:41:22.260514  1647 net.cpp:150] Setting up bn5b_branch2c
I1208 21:41:22.260540  1647 net.cpp:157] Top shape: 1 2048 7 7 (100352)
I1208 21:41:22.260571  1647 net.cpp:165] Memory required for data: 226996236
I1208 21:41:22.260608  1647 layer_factory.hpp:77] Creating layer scale5b_branch2c
I1208 21:41:22.260627  1647 net.cpp:100] Creating Layer scale5b_branch2c
I1208 21:41:22.260643  1647 net.cpp:434] scale5b_branch2c <- res5b_branch2c
I1208 21:41:22.260663  1647 net.cpp:395] scale5b_branch2c -> res5b_branch2c (in-place)
I1208 21:41:22.260764  1647 layer_factory.hpp:77] Creating layer scale5b_branch2c
I1208 21:41:22.261041  1647 net.cpp:150] Setting up scale5b_branch2c
I1208 21:41:22.261065  1647 net.cpp:157] Top shape: 1 2048 7 7 (100352)
I1208 21:41:22.261077  1647 net.cpp:165] Memory required for data: 227397644
I1208 21:41:22.261095  1647 layer_factory.hpp:77] Creating layer res5b
I1208 21:41:22.261114  1647 net.cpp:100] Creating Layer res5b
I1208 21:41:22.261128  1647 net.cpp:434] res5b <- res5a_res5a_relu_0_split_1
I1208 21:41:22.261143  1647 net.cpp:434] res5b <- res5b_branch2c
I1208 21:41:22.261159  1647 net.cpp:408] res5b -> res5b
I1208 21:41:22.261240  1647 net.cpp:150] Setting up res5b
I1208 21:41:22.261272  1647 net.cpp:157] Top shape: 1 2048 7 7 (100352)
I1208 21:41:22.261286  1647 net.cpp:165] Memory required for data: 227799052
I1208 21:41:22.261299  1647 layer_factory.hpp:77] Creating layer res5b_relu
I1208 21:41:22.261322  1647 net.cpp:100] Creating Layer res5b_relu
I1208 21:41:22.261337  1647 net.cpp:434] res5b_relu <- res5b
I1208 21:41:22.261353  1647 net.cpp:395] res5b_relu -> res5b (in-place)
I1208 21:41:22.261651  1647 net.cpp:150] Setting up res5b_relu
I1208 21:41:22.261682  1647 net.cpp:157] Top shape: 1 2048 7 7 (100352)
I1208 21:41:22.261698  1647 net.cpp:165] Memory required for data: 228200460
I1208 21:41:22.261710  1647 layer_factory.hpp:77] Creating layer res5b_res5b_relu_0_split
I1208 21:41:22.261729  1647 net.cpp:100] Creating Layer res5b_res5b_relu_0_split
I1208 21:41:22.261741  1647 net.cpp:434] res5b_res5b_relu_0_split <- res5b
I1208 21:41:22.261757  1647 net.cpp:408] res5b_res5b_relu_0_split -> res5b_res5b_relu_0_split_0
I1208 21:41:22.261775  1647 net.cpp:408] res5b_res5b_relu_0_split -> res5b_res5b_relu_0_split_1
I1208 21:41:22.261886  1647 net.cpp:150] Setting up res5b_res5b_relu_0_split
I1208 21:41:22.261907  1647 net.cpp:157] Top shape: 1 2048 7 7 (100352)
I1208 21:41:22.261921  1647 net.cpp:157] Top shape: 1 2048 7 7 (100352)
I1208 21:41:22.261934  1647 net.cpp:165] Memory required for data: 229003276
I1208 21:41:22.261946  1647 layer_factory.hpp:77] Creating layer res5c_branch2a
I1208 21:41:22.261970  1647 net.cpp:100] Creating Layer res5c_branch2a
I1208 21:41:22.261986  1647 net.cpp:434] res5c_branch2a <- res5b_res5b_relu_0_split_0
I1208 21:41:22.262009  1647 net.cpp:408] res5c_branch2a -> res5c_branch2a
I1208 21:41:22.305661  1647 net.cpp:150] Setting up res5c_branch2a
I1208 21:41:22.305735  1647 net.cpp:157] Top shape: 1 512 7 7 (25088)
I1208 21:41:22.305765  1647 net.cpp:165] Memory required for data: 229103628
I1208 21:41:22.305796  1647 layer_factory.hpp:77] Creating layer bn5c_branch2a
I1208 21:41:22.305830  1647 net.cpp:100] Creating Layer bn5c_branch2a
I1208 21:41:22.305858  1647 net.cpp:434] bn5c_branch2a <- res5c_branch2a
I1208 21:41:22.305901  1647 net.cpp:395] bn5c_branch2a -> res5c_branch2a (in-place)
I1208 21:41:22.306661  1647 net.cpp:150] Setting up bn5c_branch2a
I1208 21:41:22.306711  1647 net.cpp:157] Top shape: 1 512 7 7 (25088)
I1208 21:41:22.306737  1647 net.cpp:165] Memory required for data: 229203980
I1208 21:41:22.306772  1647 layer_factory.hpp:77] Creating layer scale5c_branch2a
I1208 21:41:22.306805  1647 net.cpp:100] Creating Layer scale5c_branch2a
I1208 21:41:22.306833  1647 net.cpp:434] scale5c_branch2a <- res5c_branch2a
I1208 21:41:22.306862  1647 net.cpp:395] scale5c_branch2a -> res5c_branch2a (in-place)
I1208 21:41:22.307034  1647 layer_factory.hpp:77] Creating layer scale5c_branch2a
I1208 21:41:22.307497  1647 net.cpp:150] Setting up scale5c_branch2a
I1208 21:41:22.307540  1647 net.cpp:157] Top shape: 1 512 7 7 (25088)
I1208 21:41:22.307564  1647 net.cpp:165] Memory required for data: 229304332
I1208 21:41:22.307623  1647 layer_factory.hpp:77] Creating layer res5c_branch2a_relu
I1208 21:41:22.307687  1647 net.cpp:100] Creating Layer res5c_branch2a_relu
I1208 21:41:22.307718  1647 net.cpp:434] res5c_branch2a_relu <- res5c_branch2a
I1208 21:41:22.307746  1647 net.cpp:395] res5c_branch2a_relu -> res5c_branch2a (in-place)
I1208 21:41:22.308310  1647 net.cpp:150] Setting up res5c_branch2a_relu
I1208 21:41:22.308358  1647 net.cpp:157] Top shape: 1 512 7 7 (25088)
I1208 21:41:22.308383  1647 net.cpp:165] Memory required for data: 229404684
I1208 21:41:22.308408  1647 layer_factory.hpp:77] Creating layer res5c_branch2b
I1208 21:41:22.308454  1647 net.cpp:100] Creating Layer res5c_branch2b
I1208 21:41:22.308485  1647 net.cpp:434] res5c_branch2b <- res5c_branch2a
I1208 21:41:22.308526  1647 net.cpp:408] res5c_branch2b -> res5c_branch2b
I1208 21:41:22.417644  1647 net.cpp:150] Setting up res5c_branch2b
I1208 21:41:22.417690  1647 net.cpp:157] Top shape: 1 512 7 7 (25088)
I1208 21:41:22.417708  1647 net.cpp:165] Memory required for data: 229505036
I1208 21:41:22.417728  1647 layer_factory.hpp:77] Creating layer bn5c_branch2b
I1208 21:41:22.417757  1647 net.cpp:100] Creating Layer bn5c_branch2b
I1208 21:41:22.417778  1647 net.cpp:434] bn5c_branch2b <- res5c_branch2b
I1208 21:41:22.417796  1647 net.cpp:395] bn5c_branch2b -> res5c_branch2b (in-place)
I1208 21:41:22.418303  1647 net.cpp:150] Setting up bn5c_branch2b
I1208 21:41:22.418334  1647 net.cpp:157] Top shape: 1 512 7 7 (25088)
I1208 21:41:22.418350  1647 net.cpp:165] Memory required for data: 229605388
I1208 21:41:22.418372  1647 layer_factory.hpp:77] Creating layer scale5c_branch2b
I1208 21:41:22.418392  1647 net.cpp:100] Creating Layer scale5c_branch2b
I1208 21:41:22.418409  1647 net.cpp:434] scale5c_branch2b <- res5c_branch2b
I1208 21:41:22.418434  1647 net.cpp:395] scale5c_branch2b -> res5c_branch2b (in-place)
I1208 21:41:22.418543  1647 layer_factory.hpp:77] Creating layer scale5c_branch2b
I1208 21:41:22.418836  1647 net.cpp:150] Setting up scale5c_branch2b
I1208 21:41:22.418864  1647 net.cpp:157] Top shape: 1 512 7 7 (25088)
I1208 21:41:22.418877  1647 net.cpp:165] Memory required for data: 229705740
I1208 21:41:22.418897  1647 layer_factory.hpp:77] Creating layer res5c_branch2b_relu
I1208 21:41:22.418922  1647 net.cpp:100] Creating Layer res5c_branch2b_relu
I1208 21:41:22.418941  1647 net.cpp:434] res5c_branch2b_relu <- res5c_branch2b
I1208 21:41:22.418958  1647 net.cpp:395] res5c_branch2b_relu -> res5c_branch2b (in-place)
I1208 21:41:22.419293  1647 net.cpp:150] Setting up res5c_branch2b_relu
I1208 21:41:22.419330  1647 net.cpp:157] Top shape: 1 512 7 7 (25088)
I1208 21:41:22.419348  1647 net.cpp:165] Memory required for data: 229806092
I1208 21:41:22.419364  1647 layer_factory.hpp:77] Creating layer res5c_branch2c
I1208 21:41:22.419386  1647 net.cpp:100] Creating Layer res5c_branch2c
I1208 21:41:22.419404  1647 net.cpp:434] res5c_branch2c <- res5c_branch2b
I1208 21:41:22.419430  1647 net.cpp:408] res5c_branch2c -> res5c_branch2c
I1208 21:41:22.461920  1647 net.cpp:150] Setting up res5c_branch2c
I1208 21:41:22.461966  1647 net.cpp:157] Top shape: 1 2048 7 7 (100352)
I1208 21:41:22.461982  1647 net.cpp:165] Memory required for data: 230207500
I1208 21:41:22.462002  1647 layer_factory.hpp:77] Creating layer bn5c_branch2c
I1208 21:41:22.462030  1647 net.cpp:100] Creating Layer bn5c_branch2c
I1208 21:41:22.462082  1647 net.cpp:434] bn5c_branch2c <- res5c_branch2c
I1208 21:41:22.462106  1647 net.cpp:395] bn5c_branch2c -> res5c_branch2c (in-place)
I1208 21:41:22.462587  1647 net.cpp:150] Setting up bn5c_branch2c
I1208 21:41:22.462616  1647 net.cpp:157] Top shape: 1 2048 7 7 (100352)
I1208 21:41:22.462631  1647 net.cpp:165] Memory required for data: 230608908
I1208 21:41:22.462652  1647 layer_factory.hpp:77] Creating layer scale5c_branch2c
I1208 21:41:22.462672  1647 net.cpp:100] Creating Layer scale5c_branch2c
I1208 21:41:22.462689  1647 net.cpp:434] scale5c_branch2c <- res5c_branch2c
I1208 21:41:22.462707  1647 net.cpp:395] scale5c_branch2c -> res5c_branch2c (in-place)
I1208 21:41:22.462852  1647 layer_factory.hpp:77] Creating layer scale5c_branch2c
I1208 21:41:22.463182  1647 net.cpp:150] Setting up scale5c_branch2c
I1208 21:41:22.463210  1647 net.cpp:157] Top shape: 1 2048 7 7 (100352)
I1208 21:41:22.463225  1647 net.cpp:165] Memory required for data: 231010316
I1208 21:41:22.463244  1647 layer_factory.hpp:77] Creating layer res5c
I1208 21:41:22.463284  1647 net.cpp:100] Creating Layer res5c
I1208 21:41:22.463304  1647 net.cpp:434] res5c <- res5b_res5b_relu_0_split_1
I1208 21:41:22.463321  1647 net.cpp:434] res5c <- res5c_branch2c
I1208 21:41:22.463340  1647 net.cpp:408] res5c -> res5c
I1208 21:41:22.463433  1647 net.cpp:150] Setting up res5c
I1208 21:41:22.463457  1647 net.cpp:157] Top shape: 1 2048 7 7 (100352)
I1208 21:41:22.463471  1647 net.cpp:165] Memory required for data: 231411724
I1208 21:41:22.463486  1647 layer_factory.hpp:77] Creating layer res5c_relu
I1208 21:41:22.463503  1647 net.cpp:100] Creating Layer res5c_relu
I1208 21:41:22.463521  1647 net.cpp:434] res5c_relu <- res5c
I1208 21:41:22.463544  1647 net.cpp:395] res5c_relu -> res5c (in-place)
I1208 21:41:22.463891  1647 net.cpp:150] Setting up res5c_relu
I1208 21:41:22.463922  1647 net.cpp:157] Top shape: 1 2048 7 7 (100352)
I1208 21:41:22.463937  1647 net.cpp:165] Memory required for data: 231813132
I1208 21:41:22.463953  1647 layer_factory.hpp:77] Creating layer pool5
I1208 21:41:22.463979  1647 net.cpp:100] Creating Layer pool5
I1208 21:41:22.463999  1647 net.cpp:434] pool5 <- res5c
I1208 21:41:22.464018  1647 net.cpp:408] pool5 -> pool5
I1208 21:41:22.467523  1647 net.cpp:150] Setting up pool5
I1208 21:41:22.467566  1647 net.cpp:157] Top shape: 1 2048 1 1 (2048)
I1208 21:41:22.467583  1647 net.cpp:165] Memory required for data: 231821324
I1208 21:41:22.467599  1647 layer_factory.hpp:77] Creating layer fc10000
I1208 21:41:22.467622  1647 net.cpp:100] Creating Layer fc10000
I1208 21:41:22.467638  1647 net.cpp:434] fc10000 <- pool5
I1208 21:41:22.467665  1647 net.cpp:408] fc10000 -> fc10000
I1208 21:41:24.423360  1647 net.cpp:150] Setting up fc10000
I1208 21:41:24.424052  1647 net.cpp:157] Top shape: 1 81773 (81773)
I1208 21:41:24.424072  1647 net.cpp:165] Memory required for data: 232148416
I1208 21:41:24.424113  1647 layer_factory.hpp:77] Creating layer fc10000_fc10000_0_split
I1208 21:41:24.424178  1647 net.cpp:100] Creating Layer fc10000_fc10000_0_split
I1208 21:41:24.424202  1647 net.cpp:434] fc10000_fc10000_0_split <- fc10000
I1208 21:41:24.424222  1647 net.cpp:408] fc10000_fc10000_0_split -> fc10000_fc10000_0_split_0
I1208 21:41:24.424245  1647 net.cpp:408] fc10000_fc10000_0_split -> fc10000_fc10000_0_split_1
I1208 21:41:24.424329  1647 net.cpp:150] Setting up fc10000_fc10000_0_split
I1208 21:41:24.424350  1647 net.cpp:157] Top shape: 1 81773 (81773)
I1208 21:41:24.424365  1647 net.cpp:157] Top shape: 1 81773 (81773)
I1208 21:41:24.424376  1647 net.cpp:165] Memory required for data: 232802600
I1208 21:41:24.424389  1647 layer_factory.hpp:77] Creating layer loss
I1208 21:41:24.424407  1647 net.cpp:100] Creating Layer loss
I1208 21:41:24.424420  1647 net.cpp:434] loss <- fc10000_fc10000_0_split_0
I1208 21:41:24.424435  1647 net.cpp:434] loss <- label_data_1_split_0
I1208 21:41:24.424458  1647 net.cpp:408] loss -> loss
…
