…
I1210 01:55:24.957993  1671 solver.cpp:81] Creating training net from train_net file: ResNet_50_train.prototxt
I1210 01:55:24.963172  1671 net.cpp:58] Initializing net from parameters: 
name: "ResNet-50"
state {
  phase: TRAIN
  level: 0
  stage: ""
}
layer {
  name: "data"
  type: "ImageData"
  top: "data"
  top: "label"
  transform_param {
    mirror: true
    crop_size: 224
    mean_value: 104
    mean_value: 117
    mean_value: 123
  }
  image_data_param {
    source: "/data/face_recongize/resnet/trainAll.list"
    batch_size: 50
    shuffle: true
    root_folder: "/data/msra_lfw/msra/MsCelebV1-Faces-Cropped_all_224x224/"
  }
}
layer {
  name: "conv1"
  type: "Convolution"
  bottom: "data"
  top: "conv1"
  convolution_param {
    num_output: 64
    bias_term: true
    pad: 3
    kernel_size: 7
    stride: 2
    weight_filler {
      type: "msra"
    }
  }
}
layer {
  name: "bn_conv1"
  type: "BatchNorm"
  bottom: "conv1"
  top: "conv1"
  batch_norm_param {
    use_global_stats: false
  }
}
layer {
  name: "scale_conv1"
  type: "Scale"
  bottom: "conv1"
  top: "conv1"
  scale_param {
    bias_term: true
  }
}
layer {
  name: "conv1_relu"
  type: "ReLU"
  bottom: "conv1"
  top: "conv1"
}
layer {
  name: "pool1"
  type: "Pooling"
  bottom: "conv1"
  top: "pool1"
  pooling_param {
    pool: MAX
    kernel_size: 3
    stride: 2
  }
}
layer {
  name: "res2a_branch1"
  type: "Convolution"
  bottom: "pool1"
  top: "res2a_branch1"
  convolution_param {
    num_output: 256
    bias_term: false
    pad: 0
    kernel_size: 1
    stride: 1
    weight_filler {
      type: "msra"
    }
  }
}
layer {
  name: "bn2a_branch1"
  type: "BatchNorm"
  bottom: "res2a_branch1"
  top: "res2a_branch1"
  batch_norm_param {
    use_global_stats: false
  }
}
layer {
  name: "scale2a_branch1"
  type: "Scale"
  bottom: "res2a_branch1"
  top: "res2a_branch1"
  scale_param {
    bias_term: true
  }
}
layer {
  name: "res2a_branch2a"
  type: "Convolution"
  bottom: "pool1"
  top: "res2a_branch2a"
  convolution_param {
    num_output: 64
    bias_term: false
    pad: 0
    kernel_size: 1
    stride: 1
    weight_filler {
      type: "msra"
    }
  }
}
layer {
  name: "bn2a_branch2a"
  type: "BatchNorm"
  bottom: "res2a_branch2a"
  top: "res2a_branch2a"
  batch_norm_param {
    use_global_stats: false
  }
}
layer {
  name: "scale2a_branch2a"
  type: "Scale"
  bottom: "res2a_branch2a"
  top: "res2a_branch2a"
  scale_param {
    bias_term: true
  }
}
layer {
  name: "res2a_branch2a_relu"
  type: "ReLU"
  bottom: "res2a_branch2a"
  top: "res2a_branch2a"
}
layer {
  name: "res2a_branch2b"
  type: "Convolution"
  bottom: "res2a_branch2a"
  top: "res2a_branch2b"
  convolution_param {
    num_output: 64
    bias_term: false
    pad: 1
    kernel_size: 3
    stride: 1
    weight_filler {
      type: "msra"
    }
  }
}
layer {
  name: "bn2a_branch2b"
  type: "BatchNorm"
  bottom: "res2a_branch2b"
  top: "res2a_branch2b"
  batch_norm_param {
    use_global_stats: false
  }
}
layer {
  name: "scale2a_branch2b"
  type: "Scale"
  bottom: "res2a_branch2b"
  top: "res2a_branch2b"
  scale_param {
    bias_term: true
  }
}
layer {
  name: "res2a_branch2b_relu"
  type: "ReLU"
  bottom: "res2a_branch2b"
  top: "res2a_branch2b"
}
layer {
  name: "res2a_branch2c"
  type: "Convolution"
  bottom: "res2a_branch2b"
  top: "res2a_branch2c"
  convolution_param {
    num_output: 256
    bias_term: false
    pad: 0
    kernel_size: 1
    stride: 1
    weight_filler {
      type: "msra"
    }
  }
}
layer {
  name: "bn2a_branch2c"
  type: "BatchNorm"
  bottom: "res2a_branch2c"
  top: "res2a_branch2c"
  batch_norm_param {
    use_global_stats: false
  }
}
layer {
  name: "scale2a_branch2c"
  type: "Scale"
  bottom: "res2a_branch2c"
  top: "res2a_branch2c"
  scale_param {
    bias_term: true
  }
}
layer {
  name: "res2a"
  type: "Eltwise"
  bottom: "res2a_branch1"
  bottom: "res2a_branch2c"
  top: "res2a"
  eltwise_param {
    operation: SUM
  }
}
layer {
  name: "res2a_relu"
  type: "ReLU"
  bottom: "res2a"
  top: "res2a"
}
layer {
  name: "res2b_branch2a"
  type: "Convolution"
  bottom: "res2a"
  top: "res2b_branch2a"
  convolution_param {
    num_output: 64
    bias_term: false
    pad: 0
    kernel_size: 1
    stride: 1
    weight_filler {
      type: "msra"
    }
  }
}
layer {
  name: "bn2b_branch2a"
  type: "BatchNorm"
  bottom: "res2b_branch2a"
  top: "res2b_branch2a"
  batch_norm_param {
    use_global_stats: false
  }
}
layer {
  name: "scale2b_branch2a"
  type: "Scale"
  bottom: "res2b_branch2a"
  top: "res2b_branch2a"
  scale_param {
    bias_term: true
  }
}
layer {
  name: "res2b_branch2a_relu"
  type: "ReLU"
  bottom: "res2b_branch2a"
  top: "res2b_branch2a"
}
layer {
  name: "res2b_branch2b"
  type: "Convolution"
  bottom: "res2b_branch2a"
  top: "res2b_branch2b"
  convolution_param {
    num_output: 64
    bias_term: false
    pad: 1
    kernel_size: 3
    stride: 1
    weight_filler {
      type: "msra"
    }
  }
}
layer {
  name: "bn2b_branch2b"
  type: "BatchNorm"
  bottom: "res2b_branch2b"
  top: "res2b_branch2b"
  batch_norm_param {
    use_global_stats: false
  }
}
layer {
  name: "scale2b_branch2b"
  type: "Scale"
  bottom: "res2b_branch2b"
  top: "res2b_branch2b"
  scale_param {
    bias_term: true
  }
}
layer {
  name: "res2b_branch2b_relu"
  type: "ReLU"
  bottom: "res2b_branch2b"
  top: "res2b_branch2b"
}
layer {
  name: "res2b_branch2c"
  type: "Convolution"
  bottom: "res2b_branch2b"
  top: "res2b_branch2c"
  convolution_param {
    num_output: 256
    bias_term: false
    pad: 0
    kernel_size: 1
    stride: 1
    weight_filler {
      type: "msra"
    }
  }
}
layer {
  name: "bn2b_branch2c"
  type: "BatchNorm"
  bottom: "res2b_branch2c"
  top: "res2b_branch2c"
  batch_norm_param {
    use_global_stats: false
  }
}
layer {
  name: "scale2b_branch2c"
  type: "Scale"
  bottom: "res2b_branch2c"
  top: "res2b_branch2c"
  scale_param {
    bias_term: true
  }
}
layer {
  name: "res2b"
  type: "Eltwise"
  bottom: "res2a"
  bottom: "res2b_branch2c"
  top: "res2b"
  eltwise_param {
    operation: SUM
  }
}
layer {
  name: "res2b_relu"
  type: "ReLU"
  bottom: "res2b"
  top: "res2b"
}
layer {
  name: "res2c_branch2a"
  type: "Convolution"
  bottom: "res2b"
  top: "res2c_branch2a"
  convolution_param {
    num_output: 64
    bias_term: false
    pad: 0
    kernel_size: 1
    stride: 1
    weight_filler {
      type: "msra"
    }
  }
}
layer {
  name: "bn2c_branch2a"
  type: "BatchNorm"
  bottom: "res2c_branch2a"
  top: "res2c_branch2a"
  batch_norm_param {
    use_global_stats: false
  }
}
layer {
  name: "scale2c_branch2a"
  type: "Scale"
  bottom: "res2c_branch2a"
  top: "res2c_branch2a"
  scale_param {
    bias_term: true
  }
}
layer {
  name: "res2c_branch2a_relu"
  type: "ReLU"
  bottom: "res2c_branch2a"
  top: "res2c_branch2a"
}
layer {
  name: "res2c_branch2b"
  type: "Convolution"
  bottom: "res2c_branch2a"
  top: "res2c_branch2b"
  convolution_param {
    num_output: 64
    bias_term: false
    pad: 1
    kernel_size: 3
    stride: 1
    weight_filler {
      type: "msra"
    }
  }
}
layer {
  name: "bn2c_branch2b"
  type: "BatchNorm"
  bottom: "res2c_branch2b"
  top: "res2c_branch2b"
  batch_norm_param {
    use_global_stats: false
  }
}
layer {
  name: "scale2c_branch2b"
  type: "Scale"
  bottom: "res2c_branch2b"
  top: "res2c_branch2b"
  scale_param {
    bias_term: true
  }
}
layer {
  name: "res2c_branch2b_relu"
  type: "ReLU"
  bottom: "res2c_branch2b"
  top: "res2c_branch2b"
}
layer {
  name: "res2c_branch2c"
  type: "Convolution"
  bottom: "res2c_branch2b"
  top: "res2c_branch2c"
  convolution_param {
    num_output: 256
    bias_term: false
    pad: 0
    kernel_size: 1
    stride: 1
    weight_filler {
      type: "msra"
    }
  }
}
layer {
  name: "bn2c_branch2c"
  type: "BatchNorm"
  bottom: "res2c_branch2c"
  top: "res2c_branch2c"
  batch_norm_param {
    use_global_stats: false
  }
}
layer {
  name: "scale2c_branch2c"
  type: "Scale"
  bottom: "res2c_branch2c"
  top: "res2c_branch2c"
  scale_param {
    bias_term: true
  }
}
layer {
  name: "res2c"
  type: "Eltwise"
  bottom: "res2b"
  bottom: "res2c_branch2c"
  top: "res2c"
  eltwise_param {
    operation: SUM
  }
}
layer {
  name: "res2c_relu"
  type: "ReLU"
  bottom: "res2c"
  top: "res2c"
}
layer {
  name: "res3a_branch1"
  type: "Convolution"
  bottom: "res2c"
  top: "res3a_branch1"
  convolution_param {
    num_output: 512
    bias_term: false
    pad: 0
    kernel_size: 1
    stride: 2
    weight_filler {
      type: "msra"
    }
  }
}
layer {
  name: "bn3a_branch1"
  type: "BatchNorm"
  bottom: "res3a_branch1"
  top: "res3a_branch1"
  batch_norm_param {
    use_global_stats: false
  }
}
layer {
  name: "scale3a_branch1"
  type: "Scale"
  bottom: "res3a_branch1"
  top: "res3a_branch1"
  scale_param {
    bias_term: true
  }
}
layer {
  name: "res3a_branch2a"
  type: "Convolution"
  bottom: "res2c"
  top: "res3a_branch2a"
  convolution_param {
    num_output: 128
    bias_term: false
    pad: 0
    kernel_size: 1
    stride: 2
    weight_filler {
      type: "msra"
    }
  }
}
layer {
  name: "bn3a_branch2a"
  type: "BatchNorm"
  bottom: "res3a_branch2a"
  top: "res3a_branch2a"
  batch_norm_param {
    use_global_stats: false
  }
}
layer {
  name: "scale3a_branch2a"
  type: "Scale"
  bottom: "res3a_branch2a"
  top: "res3a_branch2a"
  scale_param {
    bias_term: true
  }
}
layer {
  name: "res3a_branch2a_relu"
  type: "ReLU"
  bottom: "res3a_branch2a"
  top: "res3a_branch2a"
}
layer {
  name: "res3a_branch2b"
  type: "Convolution"
  bottom: "res3a_branch2a"
  top: "res3a_branch2b"
  convolution_param {
    num_output: 128
    bias_term: false
    pad: 1
    kernel_size: 3
    stride: 1
    weight_filler {
      type: "msra"
    }
  }
}
layer {
  name: "bn3a_branch2b"
  type: "BatchNorm"
  bottom: "res3a_branch2b"
  top: "res3a_branch2b"
  batch_norm_param {
    use_global_stats: false
  }
}
layer {
  name: "scale3a_branch2b"
  type: "Scale"
  bottom: "res3a_branch2b"
  top: "res3a_branch2b"
  scale_param {
    bias_term: true
  }
}
layer {
  name: "res3a_branch2b_relu"
  type: "ReLU"
  bottom: "res3a_branch2b"
  top: "res3a_branch2b"
}
layer {
  name: "res3a_branch2c"
  type: "Convolution"
  bottom: "res3a_branch2b"
  top: "res3a_branch2c"
  convolution_param {
    num_output: 512
    bias_term: false
    pad: 0
    kernel_size: 1
    stride: 1
    weight_filler {
      type: "msra"
    }
  }
}
layer {
  name: "bn3a_branch2c"
  type: "BatchNorm"
  bottom: "res3a_branch2c"
  top: "res3a_branch2c"
  batch_norm_param {
    use_global_stats: false
  }
}
layer {
  name: "scale3a_branch2c"
  type: "Scale"
  bottom: "res3a_branch2c"
  top: "res3a_branch2c"
  scale_param {
    bias_term: true
  }
}
layer {
  name: "res3a"
  type: "Eltwise"
  bottom: "res3a_branch1"
  bottom: "res3a_branch2c"
  top: "res3a"
  eltwise_param {
    operation: SUM
  }
}
layer {
  name: "res3a_relu"
  type: "ReLU"
  bottom: "res3a"
  top: "res3a"
}
layer {
  name: "res3b_branch2a"
  type: "Convolution"
  bottom: "res3a"
  top: "res3b_branch2a"
  convolution_param {
    num_output: 128
    bias_term: false
    pad: 0
    kernel_size: 1
    stride: 1
    weight_filler {
      type: "msra"
    }
  }
}
layer {
  name: "bn3b_branch2a"
  type: "BatchNorm"
  bottom: "res3b_branch2a"
  top: "res3b_branch2a"
  batch_norm_param {
    use_global_stats: false
  }
}
layer {
  name: "scale3b_branch2a"
  type: "Scale"
  bottom: "res3b_branch2a"
  top: "res3b_branch2a"
  scale_param {
    bias_term: true
  }
}
layer {
  name: "res3b_branch2a_relu"
  type: "ReLU"
  bottom: "res3b_branch2a"
  top: "res3b_branch2a"
}
layer {
  name: "res3b_branch2b"
  type: "Convolution"
  bottom: "res3b_branch2a"
  top: "res3b_branch2b"
  convolution_param {
    num_output: 128
    bias_term: false
    pad: 1
    kernel_size: 3
    stride: 1
    weight_filler {
      type: "msra"
    }
  }
}
layer {
  name: "bn3b_branch2b"
  type: "BatchNorm"
  bottom: "res3b_branch2b"
  top: "res3b_branch2b"
  batch_norm_param {
    use_global_stats: false
  }
}
layer {
  name: "scale3b_branch2b"
  type: "Scale"
  bottom: "res3b_branch2b"
  top: "res3b_branch2b"
  scale_param {
    bias_term: true
  }
}
layer {
  name: "res3b_branch2b_relu"
  type: "ReLU"
  bottom: "res3b_branch2b"
  top: "res3b_branch2b"
}
layer {
  name: "res3b_branch2c"
  type: "Convolution"
  bottom: "res3b_branch2b"
  top: "res3b_branch2c"
  convolution_param {
    num_output: 512
    bias_term: false
    pad: 0
    kernel_size: 1
    stride: 1
    weight_filler {
      type: "msra"
    }
  }
}
layer {
  name: "bn3b_branch2c"
  type: "BatchNorm"
  bottom: "res3b_branch2c"
  top: "res3b_branch2c"
  batch_norm_param {
    use_global_stats: false
  }
}
layer {
  name: "scale3b_branch2c"
  type: "Scale"
  bottom: "res3b_branch2c"
  top: "res3b_branch2c"
  scale_param {
    bias_term: true
  }
}
layer {
  name: "res3b"
  type: "Eltwise"
  bottom: "res3a"
  bottom: "res3b_branch2c"
  top: "res3b"
  eltwise_param {
    operation: SUM
  }
}
layer {
  name: "res3b_relu"
  type: "ReLU"
  bottom: "res3b"
  top: "res3b"
}
layer {
  name: "res3c_branch2a"
  type: "Convolution"
  bottom: "res3b"
  top: "res3c_branch2a"
  convolution_param {
    num_output: 128
    bias_term: false
    pad: 0
    kernel_size: 1
    stride: 1
    weight_filler {
      type: "msra"
    }
  }
}
layer {
  name: "bn3c_branch2a"
  type: "BatchNorm"
  bottom: "res3c_branch2a"
  top: "res3c_branch2a"
  batch_norm_param {
    use_global_stats: false
  }
}
layer {
  name: "scale3c_branch2a"
  type: "Scale"
  bottom: "res3c_branch2a"
  top: "res3c_branch2a"
  scale_param {
    bias_term: true
  }
}
layer {
  name: "res3c_branch2a_relu"
  type: "ReLU"
  bottom: "res3c_branch2a"
  top: "res3c_branch2a"
}
layer {
  name: "res3c_branch2b"
  type: "Convolution"
  bottom: "res3c_branch2a"
  top: "res3c_branch2b"
  convolution_param {
    num_output: 128
    bias_term: false
    pad: 1
    kernel_size: 3
    stride: 1
    weight_filler {
      type: "msra"
    }
  }
}
layer {
  name: "bn3c_branch2b"
  type: "BatchNorm"
  bottom: "res3c_branch2b"
  top: "res3c_branch2b"
  batch_norm_param {
    use_global_stats: false
  }
}
layer {
  name: "scale3c_branch2b"
  type: "Scale"
  bottom: "res3c_branch2b"
  top: "res3c_branch2b"
  scale_param {
    bias_term: true
  }
}
layer {
  name: "res3c_branch2b_relu"
  type: "ReLU"
  bottom: "res3c_branch2b"
  top: "res3c_branch2b"
}
layer {
  name: "res3c_branch2c"
  type: "Convolution"
  bottom: "res3c_branch2b"
  top: "res3c_branch2c"
  convolution_param {
    num_output: 512
    bias_term: false
    pad: 0
    kernel_size: 1
    stride: 1
    weight_filler {
      type: "msra"
    }
  }
}
layer {
  name: "bn3c_branch2c"
  type: "BatchNorm"
  bottom: "res3c_branch2c"
  top: "res3c_branch2c"
  batch_norm_param {
    use_global_stats: false
  }
}
layer {
  name: "scale3c_branch2c"
  type: "Scale"
  bottom: "res3c_branch2c"
  top: "res3c_branch2c"
  scale_param {
    bias_term: true
  }
}
layer {
  name: "res3c"
  type: "Eltwise"
  bottom: "res3b"
  bottom: "res3c_branch2c"
  top: "res3c"
  eltwise_param {
    operation: SUM
  }
}
layer {
  name: "res3c_relu"
  type: "ReLU"
  bottom: "res3c"
  top: "res3c"
}
layer {
  name: "res3d_branch2a"
  type: "Convolution"
  bottom: "res3c"
  top: "res3d_branch2a"
  convolution_param {
    num_output: 128
    bias_term: false
    pad: 0
    kernel_size: 1
    stride: 1
    weight_filler {
      type: "msra"
    }
  }
}
layer {
  name: "bn3d_branch2a"
  type: "BatchNorm"
  bottom: "res3d_branch2a"
  top: "res3d_branch2a"
  batch_norm_param {
    use_global_stats: false
  }
}
layer {
  name: "scale3d_branch2a"
  type: "Scale"
  bottom: "res3d_branch2a"
  top: "res3d_branch2a"
  scale_param {
    bias_term: true
  }
}
layer {
  name: "res3d_branch2a_relu"
  type: "ReLU"
  bottom: "res3d_branch2a"
  top: "res3d_branch2a"
}
layer {
  name: "res3d_branch2b"
  type: "Convolution"
  bottom: "res3d_branch2a"
  top: "res3d_branch2b"
  convolution_param {
    num_output: 128
    bias_term: false
    pad: 1
    kernel_size: 3
    stride: 1
    weight_filler {
      type: "msra"
    }
  }
}
layer {
  name: "bn3d_branch2b"
  type: "BatchNorm"
  bottom: "res3d_branch2b"
  top: "res3d_branch2b"
  batch_norm_param {
    use_global_stats: false
  }
}
layer {
  name: "scale3d_branch2b"
  type: "Scale"
  bottom: "res3d_branch2b"
  top: "res3d_branch2b"
  scale_param {
    bias_term: true
  }
}
layer {
  name: "res3d_branch2b_relu"
  type: "ReLU"
  bottom: "res3d_branch2b"
  top: "res3d_branch2b"
}
layer {
  name: "res3d_branch2c"
  type: "Convolution"
  bottom: "res3d_branch2b"
  top: "res3d_branch2c"
  convolution_param {
    num_output: 512
    bias_term: false
    pad: 0
    kernel_size: 1
    stride: 1
    weight_filler {
      type: "msra"
    }
  }
}
layer {
  name: "bn3d_branch2c"
  type: "BatchNorm"
  bottom: "res3d_branch2c"
  top: "res3d_branch2c"
  batch_norm_param {
    use_global_stats: false
  }
}
layer {
  name: "scale3d_branch2c"
  type: "Scale"
  bottom: "res3d_branch2c"
  top: "res3d_branch2c"
  scale_param {
    bias_term: true
  }
}
layer {
  name: "res3d"
  type: "Eltwise"
  bottom: "res3c"
  bottom: "res3d_branch2c"
  top: "res3d"
  eltwise_param {
    operation: SUM
  }
}
layer {
  name: "res3d_relu"
  type: "ReLU"
  bottom: "res3d"
  top: "res3d"
}
layer {
  name: "res4a_branch1"
  type: "Convolution"
  bottom: "res3d"
  top: "res4a_branch1"
  convolution_param {
    num_output: 1024
    bias_term: false
    pad: 0
    kernel_size: 1
    stride: 2
    weight_filler {
      type: "msra"
    }
  }
}
layer {
  name: "bn4a_branch1"
  type: "BatchNorm"
  bottom: "res4a_branch1"
  top: "res4a_branch1"
  batch_norm_param {
    use_global_stats: false
  }
}
layer {
  name: "scale4a_branch1"
  type: "Scale"
  bottom: "res4a_branch1"
  top: "res4a_branch1"
  scale_param {
    bias_term: true
  }
}
layer {
  name: "res4a_branch2a"
  type: "Convolution"
  bottom: "res3d"
  top: "res4a_branch2a"
  convolution_param {
    num_output: 256
    bias_term: false
    pad: 0
    kernel_size: 1
    stride: 2
    weight_filler {
      type: "msra"
    }
  }
}
layer {
  name: "bn4a_branch2a"
  type: "BatchNorm"
  bottom: "res4a_branch2a"
  top: "res4a_branch2a"
  batch_norm_param {
    use_global_stats: false
  }
}
layer {
  name: "scale4a_branch2a"
  type: "Scale"
  bottom: "res4a_branch2a"
  top: "res4a_branch2a"
  scale_param {
    bias_term: true
  }
}
layer {
  name: "res4a_branch2a_relu"
  type: "ReLU"
  bottom: "res4a_branch2a"
  top: "res4a_branch2a"
}
layer {
  name: "res4a_branch2b"
  type: "Convolution"
  bottom: "res4a_branch2a"
  top: "res4a_branch2b"
  convolution_param {
    num_output: 256
    bias_term: false
    pad: 1
    kernel_size: 3
    stride: 1
    weight_filler {
      type: "msra"
    }
  }
}
layer {
  name: "bn4a_branch2b"
  type: "BatchNorm"
  bottom: "res4a_branch2b"
  top: "res4a_branch2b"
  batch_norm_param {
    use_global_stats: false
  }
}
layer {
  name: "scale4a_branch2b"
  type: "Scale"
  bottom: "res4a_branch2b"
  top: "res4a_branch2b"
  scale_param {
    bias_term: true
  }
}
layer {
  name: "res4a_branch2b_relu"
  type: "ReLU"
  bottom: "res4a_branch2b"
  top: "res4a_branch2b"
}
layer {
  name: "res4a_branch2c"
  type: "Convolution"
  bottom: "res4a_branch2b"
  top: "res4a_branch2c"
  convolution_param {
    num_output: 1024
    bias_term: false
    pad: 0
    kernel_size: 1
    stride: 1
    weight_filler {
      type: "msra"
    }
  }
}
layer {
  name: "bn4a_branch2c"
  type: "BatchNorm"
  bottom: "res4a_branch2c"
  top: "res4a_branch2c"
  batch_norm_param {
    use_global_stats: false
  }
}
layer {
  name: "scale4a_branch2c"
  type: "Scale"
  bottom: "res4a_branch2c"
  top: "res4a_branch2c"
  scale_param {
    bias_term: true
  }
}
layer {
  name: "res4a"
  type: "Eltwise"
  bottom: "res4a_branch1"
  bottom: "res4a_branch2c"
  top: "res4a"
  eltwise_param {
    operation: SUM
  }
}
layer {
  name: "res4a_relu"
  type: "ReLU"
  bottom: "res4a"
  top: "res4a"
}
layer {
  name: "res4b_branch2a"
  type: "Convolution"
  bottom: "res4a"
  top: "res4b_branch2a"
  convolution_param {
    num_output: 256
    bias_term: false
    pad: 0
    kernel_size: 1
    stride: 1
    weight_filler {
      type: "msra"
    }
  }
}
layer {
  name: "bn4b_branch2a"
  type: "BatchNorm"
  bottom: "res4b_branch2a"
  top: "res4b_branch2a"
  batch_norm_param {
    use_global_stats: false
  }
}
layer {
  name: "scale4b_branch2a"
  type: "Scale"
  bottom: "res4b_branch2a"
  top: "res4b_branch2a"
  scale_param {
    bias_term: true
  }
}
layer {
  name: "res4b_branch2a_relu"
  type: "ReLU"
  bottom: "res4b_branch2a"
  top: "res4b_branch2a"
}
layer {
  name: "res4b_branch2b"
  type: "Convolution"
  bottom: "res4b_branch2a"
  top: "res4b_branch2b"
  convolution_param {
    num_output: 256
    bias_term: false
    pad: 1
    kernel_size: 3
    stride: 1
    weight_filler {
      type: "msra"
    }
  }
}
layer {
  name: "bn4b_branch2b"
  type: "BatchNorm"
  bottom: "res4b_branch2b"
  top: "res4b_branch2b"
  batch_norm_param {
    use_global_stats: false
  }
}
layer {
  name: "scale4b_branch2b"
  type: "Scale"
  bottom: "res4b_branch2b"
  top: "res4b_branch2b"
  scale_param {
    bias_term: true
  }
}
layer {
  name: "res4b_branch2b_relu"
  type: "ReLU"
  bottom: "res4b_branch2b"
  top: "res4b_branch2b"
}
layer {
  name: "res4b_branch2c"
  type: "Convolution"
  bottom: "res4b_branch2b"
  top: "res4b_branch2c"
  convolution_param {
    num_output: 1024
    bias_term: false
    pad: 0
    kernel_size: 1
    stride: 1
    weight_filler {
      type: "msra"
    }
  }
}
layer {
  name: "bn4b_branch2c"
  type: "BatchNorm"
  bottom: "res4b_branch2c"
  top: "res4b_branch2c"
  batch_norm_param {
    use_global_stats: false
  }
}
layer {
  name: "scale4b_branch2c"
  type: "Scale"
  bottom: "res4b_branch2c"
  top: "res4b_branch2c"
  scale_param {
    bias_term: true
  }
}
layer {
  name: "res4b"
  type: "Eltwise"
  bottom: "res4a"
  bottom: "res4b_branch2c"
  top: "res4b"
  eltwise_param {
    operation: SUM
  }
}
layer {
  name: "res4b_relu"
  type: "ReLU"
  bottom: "res4b"
  top: "res4b"
}
layer {
  name: "res4c_branch2a"
  type: "Convolution"
  bottom: "res4b"
  top: "res4c_branch2a"
  convolution_param {
    num_output: 256
    bias_term: false
    pad: 0
    kernel_size: 1
    stride: 1
    weight_filler {
      type: "msra"
    }
  }
}
layer {
  name: "bn4c_branch2a"
  type: "BatchNorm"
  bottom: "res4c_branch2a"
  top: "res4c_branch2a"
  batch_norm_param {
    use_global_stats: false
  }
}
layer {
  name: "scale4c_branch2a"
  type: "Scale"
  bottom: "res4c_branch2a"
  top: "res4c_branch2a"
  scale_param {
    bias_term: true
  }
}
layer {
  name: "res4c_branch2a_relu"
  type: "ReLU"
  bottom: "res4c_branch2a"
  top: "res4c_branch2a"
}
layer {
  name: "res4c_branch2b"
  type: "Convolution"
  bottom: "res4c_branch2a"
  top: "res4c_branch2b"
  convolution_param {
    num_output: 256
    bias_term: false
    pad: 1
    kernel_size: 3
    stride: 1
    weight_filler {
      type: "msra"
    }
  }
}
layer {
  name: "bn4c_branch2b"
  type: "BatchNorm"
  bottom: "res4c_branch2b"
  top: "res4c_branch2b"
  batch_norm_param {
    use_global_stats: false
  }
}
layer {
  name: "scale4c_branch2b"
  type: "Scale"
  bottom: "res4c_branch2b"
  top: "res4c_branch2b"
  scale_param {
    bias_term: true
  }
}
layer {
  name: "res4c_branch2b_relu"
  type: "ReLU"
  bottom: "res4c_branch2b"
  top: "res4c_branch2b"
}
layer {
  name: "res4c_branch2c"
  type: "Convolution"
  bottom: "res4c_branch2b"
  top: "res4c_branch2c"
  convolution_param {
    num_output: 1024
    bias_term: false
    pad: 0
    kernel_size: 1
    stride: 1
    weight_filler {
      type: "msra"
    }
  }
}
layer {
  name: "bn4c_branch2c"
  type: "BatchNorm"
  bottom: "res4c_branch2c"
  top: "res4c_branch2c"
  batch_norm_param {
    use_global_stats: false
  }
}
layer {
  name: "scale4c_branch2c"
  type: "Scale"
  bottom: "res4c_branch2c"
  top: "res4c_branch2c"
  scale_param {
    bias_term: true
  }
}
layer {
  name: "res4c"
  type: "Eltwise"
  bottom: "res4b"
  bottom: "res4c_branch2c"
  top: "res4c"
  eltwise_param {
    operation: SUM
  }
}
layer {
  name: "res4c_relu"
  type: "ReLU"
  bottom: "res4c"
  top: "res4c"
}
layer {
  name: "res4d_branch2a"
  type: "Convolution"
  bottom: "res4c"
  top: "res4d_branch2a"
  convolution_param {
    num_output: 256
    bias_term: false
    pad: 0
    kernel_size: 1
    stride: 1
    weight_filler {
      type: "msra"
    }
  }
}
layer {
  name: "bn4d_branch2a"
  type: "BatchNorm"
  bottom: "res4d_branch2a"
  top: "res4d_branch2a"
  batch_norm_param {
    use_global_stats: false
  }
}
layer {
  name: "scale4d_branch2a"
  type: "Scale"
  bottom: "res4d_branch2a"
  top: "res4d_branch2a"
  scale_param {
    bias_term: true
  }
}
layer {
  name: "res4d_branch2a_relu"
  type: "ReLU"
  bottom: "res4d_branch2a"
  top: "res4d_branch2a"
}
layer {
  name: "res4d_branch2b"
  type: "Convolution"
  bottom: "res4d_branch2a"
  top: "res4d_branch2b"
  convolution_param {
    num_output: 256
    bias_term: false
    pad: 1
    kernel_size: 3
    stride: 1
    weight_filler {
      type: "msra"
    }
  }
}
layer {
  name: "bn4d_branch2b"
  type: "BatchNorm"
  bottom: "res4d_branch2b"
  top: "res4d_branch2b"
  batch_norm_param {
    use_global_stats: false
  }
}
layer {
  name: "scale4d_branch2b"
  type: "Scale"
  bottom: "res4d_branch2b"
  top: "res4d_branch2b"
  scale_param {
    bias_term: true
  }
}
layer {
  name: "res4d_branch2b_relu"
  type: "ReLU"
  bottom: "res4d_branch2b"
  top: "res4d_branch2b"
}
layer {
  name: "res4d_branch2c"
  type: "Convolution"
  bottom: "res4d_branch2b"
  top: "res4d_branch2c"
  convolution_param {
    num_output: 1024
    bias_term: false
    pad: 0
    kernel_size: 1
    stride: 1
    weight_filler {
      type: "msra"
    }
  }
}
layer {
  name: "bn4d_branch2c"
  type: "BatchNorm"
  bottom: "res4d_branch2c"
  top: "res4d_branch2c"
  batch_norm_param {
    use_global_stats: false
  }
}
layer {
  name: "scale4d_branch2c"
  type: "Scale"
  bottom: "res4d_branch2c"
  top: "res4d_branch2c"
  scale_param {
    bias_term: true
  }
}
layer {
  name: "res4d"
  type: "Eltwise"
  bottom: "res4c"
  bottom: "res4d_branch2c"
  top: "res4d"
  eltwise_param {
    operation: SUM
  }
}
layer {
  name: "res4d_relu"
  type: "ReLU"
  bottom: "res4d"
  top: "res4d"
}
layer {
  name: "res4e_branch2a"
  type: "Convolution"
  bottom: "res4d"
  top: "res4e_branch2a"
  convolution_param {
    num_output: 256
    bias_term: false
    pad: 0
    kernel_size: 1
    stride: 1
    weight_filler {
      type: "msra"
    }
  }
}
layer {
  name: "bn4e_branch2a"
  type: "BatchNorm"
  bottom: "res4e_branch2a"
  top: "res4e_branch2a"
  batch_norm_param {
    use_global_stats: false
  }
}
layer {
  name: "scale4e_branch2a"
  type: "Scale"
  bottom: "res4e_branch2a"
  top: "res4e_branch2a"
  scale_param {
    bias_term: true
  }
}
layer {
  name: "res4e_branch2a_relu"
  type: "ReLU"
  bottom: "res4e_branch2a"
  top: "res4e_branch2a"
}
layer {
  name: "res4e_branch2b"
  type: "Convolution"
  bottom: "res4e_branch2a"
  top: "res4e_branch2b"
  convolution_param {
    num_output: 256
    bias_term: false
    pad: 1
    kernel_size: 3
    stride: 1
    weight_filler {
      type: "msra"
    }
  }
}
layer {
  name: "bn4e_branch2b"
  type: "BatchNorm"
  bottom: "res4e_branch2b"
  top: "res4e_branch2b"
  batch_norm_param {
    use_global_stats: false
  }
}
layer {
  name: "scale4e_branch2b"
  type: "Scale"
  bottom: "res4e_branch2b"
  top: "res4e_branch2b"
  scale_param {
    bias_term: true
  }
}
layer {
  name: "res4e_branch2b_relu"
  type: "ReLU"
  bottom: "res4e_branch2b"
  top: "res4e_branch2b"
}
layer {
  name: "res4e_branch2c"
  type: "Convolution"
  bottom: "res4e_branch2b"
  top: "res4e_branch2c"
  convolution_param {
    num_output: 1024
    bias_term: false
    pad: 0
    kernel_size: 1
    stride: 1
    weight_filler {
      type: "msra"
    }
  }
}
layer {
  name: "bn4e_branch2c"
  type: "BatchNorm"
  bottom: "res4e_branch2c"
  top: "res4e_branch2c"
  batch_norm_param {
    use_global_stats: false
  }
}
layer {
  name: "scale4e_branch2c"
  type: "Scale"
  bottom: "res4e_branch2c"
  top: "res4e_branch2c"
  scale_param {
    bias_term: true
  }
}
layer {
  name: "res4e"
  type: "Eltwise"
  bottom: "res4d"
  bottom: "res4e_branch2c"
  top: "res4e"
  eltwise_param {
    operation: SUM
  }
}
layer {
  name: "res4e_relu"
  type: "ReLU"
  bottom: "res4e"
  top: "res4e"
}
layer {
  name: "res4f_branch2a"
  type: "Convolution"
  bottom: "res4e"
  top: "res4f_branch2a"
  convolution_param {
    num_output: 256
    bias_term: false
    pad: 0
    kernel_size: 1
    stride: 1
    weight_filler {
      type: "msra"
    }
  }
}
layer {
  name: "bn4f_branch2a"
  type: "BatchNorm"
  bottom: "res4f_branch2a"
  top: "res4f_branch2a"
  batch_norm_param {
    use_global_stats: false
  }
}
layer {
  name: "scale4f_branch2a"
  type: "Scale"
  bottom: "res4f_branch2a"
  top: "res4f_branch2a"
  scale_param {
    bias_term: true
  }
}
layer {
  name: "res4f_branch2a_relu"
  type: "ReLU"
  bottom: "res4f_branch2a"
  top: "res4f_branch2a"
}
layer {
  name: "res4f_branch2b"
  type: "Convolution"
  bottom: "res4f_branch2a"
  top: "res4f_branch2b"
  convolution_param {
    num_output: 256
    bias_term: false
    pad: 1
    kernel_size: 3
    stride: 1
    weight_filler {
      type: "msra"
    }
  }
}
layer {
  name: "bn4f_branch2b"
  type: "BatchNorm"
  bottom: "res4f_branch2b"
  top: "res4f_branch2b"
  batch_norm_param {
    use_global_stats: false
  }
}
layer {
  name: "scale4f_branch2b"
  type: "Scale"
  bottom: "res4f_branch2b"
  top: "res4f_branch2b"
  scale_param {
    bias_term: true
  }
}
layer {
  name: "res4f_branch2b_relu"
  type: "ReLU"
  bottom: "res4f_branch2b"
  top: "res4f_branch2b"
}
layer {
  name: "res4f_branch2c"
  type: "Convolution"
  bottom: "res4f_branch2b"
  top: "res4f_branch2c"
  convolution_param {
    num_output: 1024
    bias_term: false
    pad: 0
    kernel_size: 1
    stride: 1
    weight_filler {
      type: "m
I1210 01:55:24.964367  1671 layer_factory.hpp:77] Creating layer data
I1210 01:55:24.964448  1671 net.cpp:100] Creating Layer data
I1210 01:55:24.964468  1671 net.cpp:408] data -> data
I1210 01:55:24.964507  1671 net.cpp:408] data -> label
I1210 01:55:24.965065  1671 image_data_layer.cpp:38] Opening file /data/face_recongize/resnet/trainAll.list
I1210 01:55:26.626611  1671 image_data_layer.cpp:53] Shuffling data
I1210 01:55:31.457410  1671 image_data_layer.cpp:58] A total of 4008201 images.
I1210 01:55:31.486444  1671 image_data_layer.cpp:85] output data size: 50,3,224,224
I1210 01:55:31.627197  1671 net.cpp:150] Setting up data
I1210 01:55:31.627300  1671 net.cpp:157] Top shape: 50 3 224 224 (7526400)
I1210 01:55:31.627326  1671 net.cpp:157] Top shape: 50 (50)
I1210 01:55:31.627342  1671 net.cpp:165] Memory required for data: 30105800
I1210 01:55:31.627365  1671 layer_factory.hpp:77] Creating layer label_data_1_split
I1210 01:55:31.627406  1671 net.cpp:100] Creating Layer label_data_1_split
I1210 01:55:31.627429  1671 net.cpp:434] label_data_1_split <- label
I1210 01:55:31.627460  1671 net.cpp:408] label_data_1_split -> label_data_1_split_0
I1210 01:55:31.627487  1671 net.cpp:408] label_data_1_split -> label_data_1_split_1
I1210 01:55:31.627643  1671 net.cpp:150] Setting up label_data_1_split
I1210 01:55:31.627730  1671 net.cpp:157] Top shape: 50 (50)
I1210 01:55:31.627766  1671 net.cpp:157] Top shape: 50 (50)
I1210 01:55:31.627790  1671 net.cpp:165] Memory required for data: 30106200
I1210 01:55:31.627811  1671 layer_factory.hpp:77] Creating layer conv1
I1210 01:55:31.627888  1671 net.cpp:100] Creating Layer conv1
I1210 01:55:31.627918  1671 net.cpp:434] conv1 <- data
I1210 01:55:31.627950  1671 net.cpp:408] conv1 -> conv1
I1210 01:55:32.312358  1671 net.cpp:150] Setting up conv1
I1210 01:55:32.312608  1671 net.cpp:157] Top shape: 50 64 112 112 (40140800)
I1210 01:55:32.312623  1671 net.cpp:165] Memory required for data: 190669400
I1210 01:55:32.312858  1671 layer_factory.hpp:77] Creating layer bn_conv1
I1210 01:55:32.312966  1671 net.cpp:100] Creating Layer bn_conv1
I1210 01:55:32.313246  1671 net.cpp:434] bn_conv1 <- conv1
I1210 01:55:32.313287  1671 net.cpp:395] bn_conv1 -> conv1 (in-place)
I1210 01:55:32.313773  1671 net.cpp:150] Setting up bn_conv1
I1210 01:55:32.313807  1671 net.cpp:157] Top shape: 50 64 112 112 (40140800)
I1210 01:55:32.313823  1671 net.cpp:165] Memory required for data: 351232600
I1210 01:55:32.313855  1671 layer_factory.hpp:77] Creating layer scale_conv1
I1210 01:55:32.313935  1671 net.cpp:100] Creating Layer scale_conv1
I1210 01:55:32.313959  1671 net.cpp:434] scale_conv1 <- conv1
I1210 01:55:32.313978  1671 net.cpp:395] scale_conv1 -> conv1 (in-place)
I1210 01:55:32.314194  1671 layer_factory.hpp:77] Creating layer scale_conv1
I1210 01:55:32.314784  1671 net.cpp:150] Setting up scale_conv1
I1210 01:55:32.314828  1671 net.cpp:157] Top shape: 50 64 112 112 (40140800)
I1210 01:55:32.314846  1671 net.cpp:165] Memory required for data: 511795800
I1210 01:55:32.314867  1671 layer_factory.hpp:77] Creating layer conv1_relu
I1210 01:55:32.314976  1671 net.cpp:100] Creating Layer conv1_relu
I1210 01:55:32.314999  1671 net.cpp:434] conv1_relu <- conv1
I1210 01:55:32.315018  1671 net.cpp:395] conv1_relu -> conv1 (in-place)
I1210 01:55:32.315304  1671 net.cpp:150] Setting up conv1_relu
I1210 01:55:32.315335  1671 net.cpp:157] Top shape: 50 64 112 112 (40140800)
I1210 01:55:32.315351  1671 net.cpp:165] Memory required for data: 672359000
I1210 01:55:32.315367  1671 layer_factory.hpp:77] Creating layer pool1
I1210 01:55:32.315444  1671 net.cpp:100] Creating Layer pool1
I1210 01:55:32.315464  1671 net.cpp:434] pool1 <- conv1
I1210 01:55:32.315488  1671 net.cpp:408] pool1 -> pool1
I1210 01:55:32.315717  1671 net.cpp:150] Setting up pool1
I1210 01:55:32.315748  1671 net.cpp:157] Top shape: 50 64 56 56 (10035200)
I1210 01:55:32.315764  1671 net.cpp:165] Memory required for data: 712499800
I1210 01:55:32.315786  1671 layer_factory.hpp:77] Creating layer pool1_pool1_0_split
I1210 01:55:32.315812  1671 net.cpp:100] Creating Layer pool1_pool1_0_split
I1210 01:55:32.315831  1671 net.cpp:434] pool1_pool1_0_split <- pool1
I1210 01:55:32.315850  1671 net.cpp:408] pool1_pool1_0_split -> pool1_pool1_0_split_0
I1210 01:55:32.315872  1671 net.cpp:408] pool1_pool1_0_split -> pool1_pool1_0_split_1
I1210 01:55:32.315944  1671 net.cpp:150] Setting up pool1_pool1_0_split
I1210 01:55:32.315968  1671 net.cpp:157] Top shape: 50 64 56 56 (10035200)
I1210 01:55:32.315986  1671 net.cpp:157] Top shape: 50 64 56 56 (10035200)
I1210 01:55:32.316001  1671 net.cpp:165] Memory required for data: 792781400
I1210 01:55:32.316017  1671 layer_factory.hpp:77] Creating layer res2a_branch1
I1210 01:55:32.316053  1671 net.cpp:100] Creating Layer res2a_branch1
I1210 01:55:32.316073  1671 net.cpp:434] res2a_branch1 <- pool1_pool1_0_split_0
I1210 01:55:32.316093  1671 net.cpp:408] res2a_branch1 -> res2a_branch1
I1210 01:55:32.319268  1671 net.cpp:150] Setting up res2a_branch1
I1210 01:55:32.319313  1671 net.cpp:157] Top shape: 50 256 56 56 (40140800)
I1210 01:55:32.319330  1671 net.cpp:165] Memory required for data: 953344600
I1210 01:55:32.319350  1671 layer_factory.hpp:77] Creating layer bn2a_branch1
I1210 01:55:32.319372  1671 net.cpp:100] Creating Layer bn2a_branch1
I1210 01:55:32.319391  1671 net.cpp:434] bn2a_branch1 <- res2a_branch1
I1210 01:55:32.319409  1671 net.cpp:395] bn2a_branch1 -> res2a_branch1 (in-place)
I1210 01:55:32.329193  1671 net.cpp:150] Setting up bn2a_branch1
I1210 01:55:32.329236  1671 net.cpp:157] Top shape: 50 256 56 56 (40140800)
I1210 01:55:32.329253  1671 net.cpp:165] Memory required for data: 1113907800
I1210 01:55:32.329280  1671 layer_factory.hpp:77] Creating layer scale2a_branch1
I1210 01:55:32.329350  1671 net.cpp:100] Creating Layer scale2a_branch1
I1210 01:55:32.329373  1671 net.cpp:434] scale2a_branch1 <- res2a_branch1
I1210 01:55:32.329398  1671 net.cpp:395] scale2a_branch1 -> res2a_branch1 (in-place)
I1210 01:55:32.329497  1671 layer_factory.hpp:77] Creating layer scale2a_branch1
I1210 01:55:32.329684  1671 net.cpp:150] Setting up scale2a_branch1
I1210 01:55:32.329805  1671 net.cpp:157] Top shape: 50 256 56 56 (40140800)
I1210 01:55:32.329872  1671 net.cpp:165] Memory required for data: 1274471000
I1210 01:55:32.329895  1671 layer_factory.hpp:77] Creating layer res2a_branch2a
I1210 01:55:32.329926  1671 net.cpp:100] Creating Layer res2a_branch2a
I1210 01:55:32.329944  1671 net.cpp:434] res2a_branch2a <- pool1_pool1_0_split_1
I1210 01:55:32.329964  1671 net.cpp:408] res2a_branch2a -> res2a_branch2a
I1210 01:55:32.332419  1671 net.cpp:150] Setting up res2a_branch2a
I1210 01:55:32.332463  1671 net.cpp:157] Top shape: 50 64 56 56 (10035200)
I1210 01:55:32.332481  1671 net.cpp:165] Memory required for data: 1314611800
I1210 01:55:32.332500  1671 layer_factory.hpp:77] Creating layer bn2a_branch2a
I1210 01:55:32.332521  1671 net.cpp:100] Creating Layer bn2a_branch2a
I1210 01:55:32.332538  1671 net.cpp:434] bn2a_branch2a <- res2a_branch2a
I1210 01:55:32.332564  1671 net.cpp:395] bn2a_branch2a -> res2a_branch2a (in-place)
I1210 01:55:32.332864  1671 net.cpp:150] Setting up bn2a_branch2a
I1210 01:55:32.332890  1671 net.cpp:157] Top shape: 50 64 56 56 (10035200)
I1210 01:55:32.332906  1671 net.cpp:165] Memory required for data: 1354752600
I1210 01:55:32.332931  1671 layer_factory.hpp:77] Creating layer scale2a_branch2a
I1210 01:55:32.332986  1671 net.cpp:100] Creating Layer scale2a_branch2a
I1210 01:55:32.333005  1671 net.cpp:434] scale2a_branch2a <- res2a_branch2a
I1210 01:55:32.333024  1671 net.cpp:395] scale2a_branch2a -> res2a_branch2a (in-place)
I1210 01:55:32.333094  1671 layer_factory.hpp:77] Creating layer scale2a_branch2a
I1210 01:55:32.333246  1671 net.cpp:150] Setting up scale2a_branch2a
I1210 01:55:32.333271  1671 net.cpp:157] Top shape: 50 64 56 56 (10035200)
I1210 01:55:32.333287  1671 net.cpp:165] Memory required for data: 1394893400
I1210 01:55:32.333307  1671 layer_factory.hpp:77] Creating layer res2a_branch2a_relu
I1210 01:55:32.333325  1671 net.cpp:100] Creating Layer res2a_branch2a_relu
I1210 01:55:32.333343  1671 net.cpp:434] res2a_branch2a_relu <- res2a_branch2a
I1210 01:55:32.333359  1671 net.cpp:395] res2a_branch2a_relu -> res2a_branch2a (in-place)
I1210 01:55:32.333580  1671 net.cpp:150] Setting up res2a_branch2a_relu
I1210 01:55:32.333608  1671 net.cpp:157] Top shape: 50 64 56 56 (10035200)
I1210 01:55:32.333623  1671 net.cpp:165] Memory required for data: 1435034200
I1210 01:55:32.333639  1671 layer_factory.hpp:77] Creating layer res2a_branch2b
I1210 01:55:32.333680  1671 net.cpp:100] Creating Layer res2a_branch2b
I1210 01:55:32.333699  1671 net.cpp:434] res2a_branch2b <- res2a_branch2a
I1210 01:55:32.333719  1671 net.cpp:408] res2a_branch2b -> res2a_branch2b
I1210 01:55:32.347578  1671 net.cpp:150] Setting up res2a_branch2b
I1210 01:55:32.347621  1671 net.cpp:157] Top shape: 50 64 56 56 (10035200)
I1210 01:55:32.347640  1671 net.cpp:165] Memory required for data: 1475175000
I1210 01:55:32.347671  1671 layer_factory.hpp:77] Creating layer bn2a_branch2b
I1210 01:55:32.347699  1671 net.cpp:100] Creating Layer bn2a_branch2b
I1210 01:55:32.347718  1671 net.cpp:434] bn2a_branch2b <- res2a_branch2b
I1210 01:55:32.347736  1671 net.cpp:395] bn2a_branch2b -> res2a_branch2b (in-place)
I1210 01:55:32.347965  1671 net.cpp:150] Setting up bn2a_branch2b
I1210 01:55:32.347990  1671 net.cpp:157] Top shape: 50 64 56 56 (10035200)
I1210 01:55:32.348006  1671 net.cpp:165] Memory required for data: 1515315800
I1210 01:55:32.348028  1671 layer_factory.hpp:77] Creating layer scale2a_branch2b
I1210 01:55:32.348079  1671 net.cpp:100] Creating Layer scale2a_branch2b
I1210 01:55:32.348098  1671 net.cpp:434] scale2a_branch2b <- res2a_branch2b
I1210 01:55:32.348117  1671 net.cpp:395] scale2a_branch2b -> res2a_branch2b (in-place)
I1210 01:55:32.348188  1671 layer_factory.hpp:77] Creating layer scale2a_branch2b
I1210 01:55:32.348341  1671 net.cpp:150] Setting up scale2a_branch2b
I1210 01:55:32.348366  1671 net.cpp:157] Top shape: 50 64 56 56 (10035200)
I1210 01:55:32.348381  1671 net.cpp:165] Memory required for data: 1555456600
I1210 01:55:32.348400  1671 layer_factory.hpp:77] Creating layer res2a_branch2b_relu
I1210 01:55:32.348551  1671 net.cpp:100] Creating Layer res2a_branch2b_relu
I1210 01:55:32.348572  1671 net.cpp:434] res2a_branch2b_relu <- res2a_branch2b
I1210 01:55:32.348606  1671 net.cpp:395] res2a_branch2b_relu -> res2a_branch2b (in-place)
I1210 01:55:32.350242  1671 net.cpp:150] Setting up res2a_branch2b_relu
I1210 01:55:32.350298  1671 net.cpp:157] Top shape: 50 64 56 56 (10035200)
I1210 01:55:32.350317  1671 net.cpp:165] Memory required for data: 1595597400
I1210 01:55:32.350332  1671 layer_factory.hpp:77] Creating layer res2a_branch2c
I1210 01:55:32.350356  1671 net.cpp:100] Creating Layer res2a_branch2c
I1210 01:55:32.350374  1671 net.cpp:434] res2a_branch2c <- res2a_branch2b
I1210 01:55:32.350394  1671 net.cpp:408] res2a_branch2c -> res2a_branch2c
I1210 01:55:32.351873  1671 net.cpp:150] Setting up res2a_branch2c
I1210 01:55:32.351912  1671 net.cpp:157] Top shape: 50 256 56 56 (40140800)
I1210 01:55:32.351928  1671 net.cpp:165] Memory required for data: 1756160600
I1210 01:55:32.351954  1671 layer_factory.hpp:77] Creating layer bn2a_branch2c
I1210 01:55:32.352021  1671 net.cpp:100] Creating Layer bn2a_branch2c
I1210 01:55:32.352044  1671 net.cpp:434] bn2a_branch2c <- res2a_branch2c
I1210 01:55:32.352068  1671 net.cpp:395] bn2a_branch2c -> res2a_branch2c (in-place)
I1210 01:55:32.352432  1671 net.cpp:150] Setting up bn2a_branch2c
I1210 01:55:32.352490  1671 net.cpp:157] Top shape: 50 256 56 56 (40140800)
I1210 01:55:32.352522  1671 net.cpp:165] Memory required for data: 1916723800
I1210 01:55:32.352572  1671 layer_factory.hpp:77] Creating layer scale2a_branch2c
I1210 01:55:32.352615  1671 net.cpp:100] Creating Layer scale2a_branch2c
I1210 01:55:32.352644  1671 net.cpp:434] scale2a_branch2c <- res2a_branch2c
I1210 01:55:32.352685  1671 net.cpp:395] scale2a_branch2c -> res2a_branch2c (in-place)
I1210 01:55:32.352823  1671 layer_factory.hpp:77] Creating layer scale2a_branch2c
I1210 01:55:32.353127  1671 net.cpp:150] Setting up scale2a_branch2c
I1210 01:55:32.353174  1671 net.cpp:157] Top shape: 50 256 56 56 (40140800)
I1210 01:55:32.353205  1671 net.cpp:165] Memory required for data: 2077287000
I1210 01:55:32.353229  1671 layer_factory.hpp:77] Creating layer res2a
I1210 01:55:32.353266  1671 net.cpp:100] Creating Layer res2a
I1210 01:55:32.353286  1671 net.cpp:434] res2a <- res2a_branch1
I1210 01:55:32.353307  1671 net.cpp:434] res2a <- res2a_branch2c
I1210 01:55:32.353327  1671 net.cpp:408] res2a -> res2a
I1210 01:55:32.353401  1671 net.cpp:150] Setting up res2a
I1210 01:55:32.353426  1671 net.cpp:157] Top shape: 50 256 56 56 (40140800)
I1210 01:55:32.353440  1671 net.cpp:165] Memory required for data: 2237850200
I1210 01:55:32.353456  1671 layer_factory.hpp:77] Creating layer res2a_relu
I1210 01:55:32.353474  1671 net.cpp:100] Creating Layer res2a_relu
I1210 01:55:32.353497  1671 net.cpp:434] res2a_relu <- res2a
I1210 01:55:32.353515  1671 net.cpp:395] res2a_relu -> res2a (in-place)
I1210 01:55:32.355000  1671 net.cpp:150] Setting up res2a_relu
I1210 01:55:32.355041  1671 net.cpp:157] Top shape: 50 256 56 56 (40140800)
I1210 01:55:32.355057  1671 net.cpp:165] Memory required for data: 2398413400
I1210 01:55:32.355087  1671 layer_factory.hpp:77] Creating layer res2a_res2a_relu_0_split
I1210 01:55:32.355109  1671 net.cpp:100] Creating Layer res2a_res2a_relu_0_split
I1210 01:55:32.355125  1671 net.cpp:434] res2a_res2a_relu_0_split <- res2a
I1210 01:55:32.355145  1671 net.cpp:408] res2a_res2a_relu_0_split -> res2a_res2a_relu_0_split_0
I1210 01:55:32.355166  1671 net.cpp:408] res2a_res2a_relu_0_split -> res2a_res2a_relu_0_split_1
I1210 01:55:32.355234  1671 net.cpp:150] Setting up res2a_res2a_relu_0_split
I1210 01:55:32.355257  1671 net.cpp:157] Top shape: 50 256 56 56 (40140800)
I1210 01:55:32.355273  1671 net.cpp:157] Top shape: 50 256 56 56 (40140800)
I1210 01:55:32.355304  1671 net.cpp:165] Memory required for data: 2719539800
I1210 01:55:32.355324  1671 layer_factory.hpp:77] Creating layer res2b_branch2a
I1210 01:55:32.355406  1671 net.cpp:100] Creating Layer res2b_branch2a
I1210 01:55:32.355491  1671 net.cpp:434] res2b_branch2a <- res2a_res2a_relu_0_split_0
I1210 01:55:32.355592  1671 net.cpp:408] res2b_branch2a -> res2b_branch2a
I1210 01:55:32.358669  1671 net.cpp:150] Setting up res2b_branch2a
I1210 01:55:32.358711  1671 net.cpp:157] Top shape: 50 64 56 56 (10035200)
I1210 01:55:32.358729  1671 net.cpp:165] Memory required for data: 2759680600
I1210 01:55:32.358748  1671 layer_factory.hpp:77] Creating layer bn2b_branch2a
I1210 01:55:32.358769  1671 net.cpp:100] Creating Layer bn2b_branch2a
I1210 01:55:32.358786  1671 net.cpp:434] bn2b_branch2a <- res2b_branch2a
I1210 01:55:32.358806  1671 net.cpp:395] bn2b_branch2a -> res2b_branch2a (in-place)
I1210 01:55:32.359041  1671 net.cpp:150] Setting up bn2b_branch2a
I1210 01:55:32.359067  1671 net.cpp:157] Top shape: 50 64 56 56 (10035200)
I1210 01:55:32.359082  1671 net.cpp:165] Memory required for data: 2799821400
I1210 01:55:32.359141  1671 layer_factory.hpp:77] Creating layer scale2b_branch2a
I1210 01:55:32.359169  1671 net.cpp:100] Creating Layer scale2b_branch2a
I1210 01:55:32.359187  1671 net.cpp:434] scale2b_branch2a <- res2b_branch2a
I1210 01:55:32.359230  1671 net.cpp:395] scale2b_branch2a -> res2b_branch2a (in-place)
I1210 01:55:32.359307  1671 layer_factory.hpp:77] Creating layer scale2b_branch2a
I1210 01:55:32.359714  1671 net.cpp:150] Setting up scale2b_branch2a
I1210 01:55:32.359747  1671 net.cpp:157] Top shape: 50 64 56 56 (10035200)
I1210 01:55:32.359763  1671 net.cpp:165] Memory required for data: 2839962200
I1210 01:55:32.359783  1671 layer_factory.hpp:77] Creating layer res2b_branch2a_relu
I1210 01:55:32.359841  1671 net.cpp:100] Creating Layer res2b_branch2a_relu
I1210 01:55:32.359859  1671 net.cpp:434] res2b_branch2a_relu <- res2b_branch2a
I1210 01:55:32.359916  1671 net.cpp:395] res2b_branch2a_relu -> res2b_branch2a (in-place)
I1210 01:55:32.360354  1671 net.cpp:150] Setting up res2b_branch2a_relu
I1210 01:55:32.360385  1671 net.cpp:157] Top shape: 50 64 56 56 (10035200)
I1210 01:55:32.360421  1671 net.cpp:165] Memory required for data: 2880103000
I1210 01:55:32.360451  1671 layer_factory.hpp:77] Creating layer res2b_branch2b
I1210 01:55:32.360527  1671 net.cpp:100] Creating Layer res2b_branch2b
I1210 01:55:32.360564  1671 net.cpp:434] res2b_branch2b <- res2b_branch2a
I1210 01:55:32.360651  1671 net.cpp:408] res2b_branch2b -> res2b_branch2b
I1210 01:55:32.365706  1671 net.cpp:150] Setting up res2b_branch2b
I1210 01:55:32.365769  1671 net.cpp:157] Top shape: 50 64 56 56 (10035200)
I1210 01:55:32.365787  1671 net.cpp:165] Memory required for data: 2920243800
I1210 01:55:32.365828  1671 layer_factory.hpp:77] Creating layer bn2b_branch2b
I1210 01:55:32.365907  1671 net.cpp:100] Creating Layer bn2b_branch2b
I1210 01:55:32.365931  1671 net.cpp:434] bn2b_branch2b <- res2b_branch2b
I1210 01:55:32.365955  1671 net.cpp:395] bn2b_branch2b -> res2b_branch2b (in-place)
I1210 01:55:32.366485  1671 net.cpp:150] Setting up bn2b_branch2b
I1210 01:55:32.366513  1671 net.cpp:157] Top shape: 50 64 56 56 (10035200)
I1210 01:55:32.366529  1671 net.cpp:165] Memory required for data: 2960384600
I1210 01:55:32.366570  1671 layer_factory.hpp:77] Creating layer scale2b_branch2b
I1210 01:55:32.366598  1671 net.cpp:100] Creating Layer scale2b_branch2b
I1210 01:55:32.366616  1671 net.cpp:434] scale2b_branch2b <- res2b_branch2b
I1210 01:55:32.366633  1671 net.cpp:395] scale2b_branch2b -> res2b_branch2b (in-place)
I1210 01:55:32.366791  1671 layer_factory.hpp:77] Creating layer scale2b_branch2b
I1210 01:55:32.367162  1671 net.cpp:150] Setting up scale2b_branch2b
I1210 01:55:32.367228  1671 net.cpp:157] Top shape: 50 64 56 56 (10035200)
I1210 01:55:32.367244  1671 net.cpp:165] Memory required for data: 3000525400
I1210 01:55:32.367264  1671 layer_factory.hpp:77] Creating layer res2b_branch2b_relu
I1210 01:55:32.367326  1671 net.cpp:100] Creating Layer res2b_branch2b_relu
I1210 01:55:32.367346  1671 net.cpp:434] res2b_branch2b_relu <- res2b_branch2b
I1210 01:55:32.367401  1671 net.cpp:395] res2b_branch2b_relu -> res2b_branch2b (in-place)
I1210 01:55:32.367992  1671 net.cpp:150] Setting up res2b_branch2b_relu
I1210 01:55:32.368069  1671 net.cpp:157] Top shape: 50 64 56 56 (10035200)
I1210 01:55:32.368088  1671 net.cpp:165] Memory required for data: 3040666200
I1210 01:55:32.368108  1671 layer_factory.hpp:77] Creating layer res2b_branch2c
I1210 01:55:32.368201  1671 net.cpp:100] Creating Layer res2b_branch2c
I1210 01:55:32.368229  1671 net.cpp:434] res2b_branch2c <- res2b_branch2b
I1210 01:55:32.368278  1671 net.cpp:408] res2b_branch2c -> res2b_branch2c
I1210 01:55:32.372340  1671 net.cpp:150] Setting up res2b_branch2c
I1210 01:55:32.372385  1671 net.cpp:157] Top shape: 50 256 56 56 (40140800)
I1210 01:55:32.372403  1671 net.cpp:165] Memory required for data: 3201229400
I1210 01:55:32.372423  1671 layer_factory.hpp:77] Creating layer bn2b_branch2c
I1210 01:55:32.372486  1671 net.cpp:100] Creating Layer bn2b_branch2c
I1210 01:55:32.372509  1671 net.cpp:434] bn2b_branch2c <- res2b_branch2c
I1210 01:55:32.372565  1671 net.cpp:395] bn2b_branch2c -> res2b_branch2c (in-place)
I1210 01:55:32.373200  1671 net.cpp:150] Setting up bn2b_branch2c
I1210 01:55:32.373237  1671 net.cpp:157] Top shape: 50 256 56 56 (40140800)
I1210 01:55:32.373253  1671 net.cpp:165] Memory required for data: 3361792600
I1210 01:55:32.373276  1671 layer_factory.hpp:77] Creating layer scale2b_branch2c
I1210 01:55:32.373350  1671 net.cpp:100] Creating Layer scale2b_branch2c
I1210 01:55:32.373392  1671 net.cpp:434] scale2b_branch2c <- res2b_branch2c
I1210 01:55:32.373435  1671 net.cpp:395] scale2b_branch2c -> res2b_branch2c (in-place)
I1210 01:55:32.373631  1671 layer_factory.hpp:77] Creating layer scale2b_branch2c
I1210 01:55:32.374294  1671 net.cpp:150] Setting up scale2b_branch2c
I1210 01:55:32.374359  1671 net.cpp:157] Top shape: 50 256 56 56 (40140800)
I1210 01:55:32.374377  1671 net.cpp:165] Memory required for data: 3522355800
I1210 01:55:32.374397  1671 layer_factory.hpp:77] Creating layer res2b
I1210 01:55:32.374418  1671 net.cpp:100] Creating Layer res2b
I1210 01:55:32.374435  1671 net.cpp:434] res2b <- res2a_res2a_relu_0_split_1
I1210 01:55:32.374461  1671 net.cpp:434] res2b <- res2b_branch2c
I1210 01:55:32.374503  1671 net.cpp:408] res2b -> res2b
I1210 01:55:32.374614  1671 net.cpp:150] Setting up res2b
I1210 01:55:32.374645  1671 net.cpp:157] Top shape: 50 256 56 56 (40140800)
I1210 01:55:32.374660  1671 net.cpp:165] Memory required for data: 3682919000
I1210 01:55:32.374689  1671 layer_factory.hpp:77] Creating layer res2b_relu
I1210 01:55:32.374714  1671 net.cpp:100] Creating Layer res2b_relu
I1210 01:55:32.374732  1671 net.cpp:434] res2b_relu <- res2b
I1210 01:55:32.374749  1671 net.cpp:395] res2b_relu -> res2b (in-place)
I1210 01:55:32.375141  1671 net.cpp:150] Setting up res2b_relu
I1210 01:55:32.375172  1671 net.cpp:157] Top shape: 50 256 56 56 (40140800)
I1210 01:55:32.375188  1671 net.cpp:165] Memory required for data: 3843482200
I1210 01:55:32.375205  1671 layer_factory.hpp:77] Creating layer res2b_res2b_relu_0_split
I1210 01:55:32.375223  1671 net.cpp:100] Creating Layer res2b_res2b_relu_0_split
I1210 01:55:32.375241  1671 net.cpp:434] res2b_res2b_relu_0_split <- res2b
I1210 01:55:32.375310  1671 net.cpp:408] res2b_res2b_relu_0_split -> res2b_res2b_relu_0_split_0
I1210 01:55:32.375360  1671 net.cpp:408] res2b_res2b_relu_0_split -> res2b_res2b_relu_0_split_1
I1210 01:55:32.375466  1671 net.cpp:150] Setting up res2b_res2b_relu_0_split
I1210 01:55:32.375493  1671 net.cpp:157] Top shape: 50 256 56 56 (40140800)
I1210 01:55:32.375509  1671 net.cpp:157] Top shape: 50 256 56 56 (40140800)
I1210 01:55:32.375524  1671 net.cpp:165] Memory required for data: 4164608600
I1210 01:55:32.375540  1671 layer_factory.hpp:77] Creating layer res2c_branch2a
I1210 01:55:32.375635  1671 net.cpp:100] Creating Layer res2c_branch2a
I1210 01:55:32.375659  1671 net.cpp:434] res2c_branch2a <- res2b_res2b_relu_0_split_0
I1210 01:55:32.375689  1671 net.cpp:408] res2c_branch2a -> res2c_branch2a
I1210 01:55:32.380424  1671 net.cpp:150] Setting up res2c_branch2a
I1210 01:55:32.380468  1671 net.cpp:157] Top shape: 50 64 56 56 (10035200)
I1210 01:55:32.380537  1671 net.cpp:165] Memory required for data: 4204749400
I1210 01:55:32.380589  1671 layer_factory.hpp:77] Creating layer bn2c_branch2a
I1210 01:55:32.380636  1671 net.cpp:100] Creating Layer bn2c_branch2a
I1210 01:55:32.380658  1671 net.cpp:434] bn2c_branch2a <- res2c_branch2a
I1210 01:55:32.380692  1671 net.cpp:395] bn2c_branch2a -> res2c_branch2a (in-place)
I1210 01:55:32.381112  1671 net.cpp:150] Setting up bn2c_branch2a
I1210 01:55:32.381145  1671 net.cpp:157] Top shape: 50 64 56 56 (10035200)
I1210 01:55:32.381162  1671 net.cpp:165] Memory required for data: 4244890200
I1210 01:55:32.381186  1671 layer_factory.hpp:77] Creating layer scale2c_branch2a
I1210 01:55:32.381217  1671 net.cpp:100] Creating Layer scale2c_branch2a
I1210 01:55:32.381235  1671 net.cpp:434] scale2c_branch2a <- res2c_branch2a
I1210 01:55:32.381254  1671 net.cpp:395] scale2c_branch2a -> res2c_branch2a (in-place)
I1210 01:55:32.381420  1671 layer_factory.hpp:77] Creating layer scale2c_branch2a
I1210 01:55:32.381732  1671 net.cpp:150] Setting up scale2c_branch2a
I1210 01:55:32.381763  1671 net.cpp:157] Top shape: 50 64 56 56 (10035200)
I1210 01:55:32.381779  1671 net.cpp:165] Memory required for data: 4285031000
I1210 01:55:32.381800  1671 layer_factory.hpp:77] Creating layer res2c_branch2a_relu
I1210 01:55:32.381877  1671 net.cpp:100] Creating Layer res2c_branch2a_relu
I1210 01:55:32.381908  1671 net.cpp:434] res2c_branch2a_relu <- res2c_branch2a
I1210 01:55:32.381935  1671 net.cpp:395] res2c_branch2a_relu -> res2c_branch2a (in-place)
I1210 01:55:32.382447  1671 net.cpp:150] Setting up res2c_branch2a_relu
I1210 01:55:32.382480  1671 net.cpp:157] Top shape: 50 64 56 56 (10035200)
I1210 01:55:32.382496  1671 net.cpp:165] Memory required for data: 4325171800
I1210 01:55:32.382513  1671 layer_factory.hpp:77] Creating layer res2c_branch2b
I1210 01:55:32.382603  1671 net.cpp:100] Creating Layer res2c_branch2b
I1210 01:55:32.382633  1671 net.cpp:434] res2c_branch2b <- res2c_branch2a
I1210 01:55:32.382656  1671 net.cpp:408] res2c_branch2b -> res2c_branch2b
I1210 01:55:32.387501  1671 net.cpp:150] Setting up res2c_branch2b
I1210 01:55:32.387544  1671 net.cpp:157] Top shape: 50 64 56 56 (10035200)
I1210 01:55:32.387562  1671 net.cpp:165] Memory required for data: 4365312600
I1210 01:55:32.387583  1671 layer_factory.hpp:77] Creating layer bn2c_branch2b
I1210 01:55:32.387645  1671 net.cpp:100] Creating Layer bn2c_branch2b
I1210 01:55:32.387679  1671 net.cpp:434] bn2c_branch2b <- res2c_branch2b
I1210 01:55:32.387742  1671 net.cpp:395] bn2c_branch2b -> res2c_branch2b (in-place)
I1210 01:55:32.388399  1671 net.cpp:150] Setting up bn2c_branch2b
I1210 01:55:32.388432  1671 net.cpp:157] Top shape: 50 64 56 56 (10035200)
I1210 01:55:32.388447  1671 net.cpp:165] Memory required for data: 4405453400
I1210 01:55:32.388470  1671 layer_factory.hpp:77] Creating layer scale2c_branch2b
I1210 01:55:32.388530  1671 net.cpp:100] Creating Layer scale2c_branch2b
I1210 01:55:32.388553  1671 net.cpp:434] scale2c_branch2b <- res2c_branch2b
I1210 01:55:32.388579  1671 net.cpp:395] scale2c_branch2b -> res2c_branch2b (in-place)
I1210 01:55:32.388703  1671 layer_factory.hpp:77] Creating layer scale2c_branch2b
I1210 01:55:32.389092  1671 net.cpp:150] Setting up scale2c_branch2b
I1210 01:55:32.389122  1671 net.cpp:157] Top shape: 50 64 56 56 (10035200)
I1210 01:55:32.389138  1671 net.cpp:165] Memory required for data: 4445594200
I1210 01:55:32.389163  1671 layer_factory.hpp:77] Creating layer res2c_branch2b_relu
I1210 01:55:32.389185  1671 net.cpp:100] Creating Layer res2c_branch2b_relu
I1210 01:55:32.389202  1671 net.cpp:434] res2c_branch2b_relu <- res2c_branch2b
I1210 01:55:32.389257  1671 net.cpp:395] res2c_branch2b_relu -> res2c_branch2b (in-place)
I1210 01:55:32.391273  1671 net.cpp:150] Setting up res2c_branch2b_relu
I1210 01:55:32.391314  1671 net.cpp:157] Top shape: 50 64 56 56 (10035200)
I1210 01:55:32.391331  1671 net.cpp:165] Memory required for data: 4485735000
I1210 01:55:32.391347  1671 layer_factory.hpp:77] Creating layer res2c_branch2c
I1210 01:55:32.391440  1671 net.cpp:100] Creating Layer res2c_branch2c
I1210 01:55:32.391490  1671 net.cpp:434] res2c_branch2c <- res2c_branch2b
I1210 01:55:32.391515  1671 net.cpp:408] res2c_branch2c -> res2c_branch2c
I1210 01:55:32.394364  1671 net.cpp:150] Setting up res2c_branch2c
I1210 01:55:32.394441  1671 net.cpp:157] Top shape: 50 256 56 56 (40140800)
I1210 01:55:32.394464  1671 net.cpp:165] Memory required for data: 4646298200
I1210 01:55:32.394484  1671 layer_factory.hpp:77] Creating layer bn2c_branch2c
I1210 01:55:32.394510  1671 net.cpp:100] Creating Layer bn2c_branch2c
I1210 01:55:32.394529  1671 net.cpp:434] bn2c_branch2c <- res2c_branch2c
I1210 01:55:32.394608  1671 net.cpp:395] bn2c_branch2c -> res2c_branch2c (in-place)
I1210 01:55:32.395141  1671 net.cpp:150] Setting up bn2c_branch2c
I1210 01:55:32.395172  1671 net.cpp:157] Top shape: 50 256 56 56 (40140800)
I1210 01:55:32.395190  1671 net.cpp:165] Memory required for data: 4806861400
I1210 01:55:32.395259  1671 layer_factory.hpp:77] Creating layer scale2c_branch2c
I1210 01:55:32.395287  1671 net.cpp:100] Creating Layer scale2c_branch2c
I1210 01:55:32.395306  1671 net.cpp:434] scale2c_branch2c <- res2c_branch2c
I1210 01:55:32.395325  1671 net.cpp:395] scale2c_branch2c -> res2c_branch2c (in-place)
I1210 01:55:32.395515  1671 layer_factory.hpp:77] Creating layer scale2c_branch2c
I1210 01:55:32.395867  1671 net.cpp:150] Setting up scale2c_branch2c
I1210 01:55:32.395897  1671 net.cpp:157] Top shape: 50 256 56 56 (40140800)
I1210 01:55:32.395913  1671 net.cpp:165] Memory required for data: 4967424600
I1210 01:55:32.395938  1671 layer_factory.hpp:77] Creating layer res2c
I1210 01:55:32.395987  1671 net.cpp:100] Creating Layer res2c
I1210 01:55:32.396009  1671 net.cpp:434] res2c <- res2b_res2b_relu_0_split_1
I1210 01:55:32.396031  1671 net.cpp:434] res2c <- res2c_branch2c
I1210 01:55:32.396052  1671 net.cpp:408] res2c -> res2c
I1210 01:55:32.396131  1671 net.cpp:150] Setting up res2c
I1210 01:55:32.396153  1671 net.cpp:157] Top shape: 50 256 56 56 (40140800)
I1210 01:55:32.396186  1671 net.cpp:165] Memory required for data: 5127987800
I1210 01:55:32.396204  1671 layer_factory.hpp:77] Creating layer res2c_relu
I1210 01:55:32.396229  1671 net.cpp:100] Creating Layer res2c_relu
I1210 01:55:32.396248  1671 net.cpp:434] res2c_relu <- res2c
I1210 01:55:32.396291  1671 net.cpp:395] res2c_relu -> res2c (in-place)
I1210 01:55:32.397789  1671 net.cpp:150] Setting up res2c_relu
I1210 01:55:32.397883  1671 net.cpp:157] Top shape: 50 256 56 56 (40140800)
I1210 01:55:32.397909  1671 net.cpp:165] Memory required for data: 5288551000
I1210 01:55:32.397927  1671 layer_factory.hpp:77] Creating layer res2c_res2c_relu_0_split
I1210 01:55:32.397946  1671 net.cpp:100] Creating Layer res2c_res2c_relu_0_split
I1210 01:55:32.397964  1671 net.cpp:434] res2c_res2c_relu_0_split <- res2c
I1210 01:55:32.397982  1671 net.cpp:408] res2c_res2c_relu_0_split -> res2c_res2c_relu_0_split_0
I1210 01:55:32.398005  1671 net.cpp:408] res2c_res2c_relu_0_split -> res2c_res2c_relu_0_split_1
I1210 01:55:32.398185  1671 net.cpp:150] Setting up res2c_res2c_relu_0_split
I1210 01:55:32.398211  1671 net.cpp:157] Top shape: 50 256 56 56 (40140800)
I1210 01:55:32.398228  1671 net.cpp:157] Top shape: 50 256 56 56 (40140800)
I1210 01:55:32.398243  1671 net.cpp:165] Memory required for data: 5609677400
I1210 01:55:32.398258  1671 layer_factory.hpp:77] Creating layer res3a_branch1
I1210 01:55:32.398319  1671 net.cpp:100] Creating Layer res3a_branch1
I1210 01:55:32.398341  1671 net.cpp:434] res3a_branch1 <- res2c_res2c_relu_0_split_0
I1210 01:55:32.398416  1671 net.cpp:408] res3a_branch1 -> res3a_branch1
I1210 01:55:32.413885  1671 net.cpp:150] Setting up res3a_branch1
I1210 01:55:32.413930  1671 net.cpp:157] Top shape: 50 512 28 28 (20070400)
I1210 01:55:32.413949  1671 net.cpp:165] Memory required for data: 5689959000
I1210 01:55:32.413969  1671 layer_factory.hpp:77] Creating layer bn3a_branch1
I1210 01:55:32.414041  1671 net.cpp:100] Creating Layer bn3a_branch1
I1210 01:55:32.414063  1671 net.cpp:434] bn3a_branch1 <- res3a_branch1
I1210 01:55:32.414208  1671 net.cpp:395] bn3a_branch1 -> res3a_branch1 (in-place)
I1210 01:55:32.425091  1671 net.cpp:150] Setting up bn3a_branch1
I1210 01:55:32.425134  1671 net.cpp:157] Top shape: 50 512 28 28 (20070400)
I1210 01:55:32.425153  1671 net.cpp:165] Memory required for data: 5770240600
I1210 01:55:32.425176  1671 layer_factory.hpp:77] Creating layer scale3a_branch1
I1210 01:55:32.425199  1671 net.cpp:100] Creating Layer scale3a_branch1
I1210 01:55:32.425215  1671 net.cpp:434] scale3a_branch1 <- res3a_branch1
I1210 01:55:32.425235  1671 net.cpp:395] scale3a_branch1 -> res3a_branch1 (in-place)
I1210 01:55:32.425428  1671 layer_factory.hpp:77] Creating layer scale3a_branch1
I1210 01:55:32.425761  1671 net.cpp:150] Setting up scale3a_branch1
I1210 01:55:32.425792  1671 net.cpp:157] Top shape: 50 512 28 28 (20070400)
I1210 01:55:32.425808  1671 net.cpp:165] Memory required for data: 5850522200
I1210 01:55:32.425828  1671 layer_factory.hpp:77] Creating layer res3a_branch2a
I1210 01:55:32.425896  1671 net.cpp:100] Creating Layer res3a_branch2a
I1210 01:55:32.425918  1671 net.cpp:434] res3a_branch2a <- res2c_res2c_relu_0_split_1
I1210 01:55:32.425976  1671 net.cpp:408] res3a_branch2a -> res3a_branch2a
I1210 01:55:32.430727  1671 net.cpp:150] Setting up res3a_branch2a
I1210 01:55:32.430769  1671 net.cpp:157] Top shape: 50 128 28 28 (5017600)
I1210 01:55:32.430788  1671 net.cpp:165] Memory required for data: 5870592600
I1210 01:55:32.430807  1671 layer_factory.hpp:77] Creating layer bn3a_branch2a
I1210 01:55:32.430868  1671 net.cpp:100] Creating Layer bn3a_branch2a
I1210 01:55:32.430892  1671 net.cpp:434] bn3a_branch2a <- res3a_branch2a
I1210 01:55:32.430912  1671 net.cpp:395] bn3a_branch2a -> res3a_branch2a (in-place)
I1210 01:55:32.431426  1671 net.cpp:150] Setting up bn3a_branch2a
I1210 01:55:32.431454  1671 net.cpp:157] Top shape: 50 128 28 28 (5017600)
I1210 01:55:32.431470  1671 net.cpp:165] Memory required for data: 5890663000
I1210 01:55:32.431493  1671 layer_factory.hpp:77] Creating layer scale3a_branch2a
I1210 01:55:32.431514  1671 net.cpp:100] Creating Layer scale3a_branch2a
I1210 01:55:32.431531  1671 net.cpp:434] scale3a_branch2a <- res3a_branch2a
I1210 01:55:32.431587  1671 net.cpp:395] scale3a_branch2a -> res3a_branch2a (in-place)
I1210 01:55:32.431677  1671 layer_factory.hpp:77] Creating layer scale3a_branch2a
I1210 01:55:32.431999  1671 net.cpp:150] Setting up scale3a_branch2a
I1210 01:55:32.432029  1671 net.cpp:157] Top shape: 50 128 28 28 (5017600)
I1210 01:55:32.432044  1671 net.cpp:165] Memory required for data: 5910733400
I1210 01:55:32.432070  1671 layer_factory.hpp:77] Creating layer res3a_branch2a_relu
I1210 01:55:32.432133  1671 net.cpp:100] Creating Layer res3a_branch2a_relu
I1210 01:55:32.432155  1671 net.cpp:434] res3a_branch2a_relu <- res3a_branch2a
I1210 01:55:32.432173  1671 net.cpp:395] res3a_branch2a_relu -> res3a_branch2a (in-place)
I1210 01:55:32.433823  1671 net.cpp:150] Setting up res3a_branch2a_relu
I1210 01:55:32.433862  1671 net.cpp:157] Top shape: 50 128 28 28 (5017600)
I1210 01:55:32.433881  1671 net.cpp:165] Memory required for data: 5930803800
I1210 01:55:32.433897  1671 layer_factory.hpp:77] Creating layer res3a_branch2b
I1210 01:55:32.433961  1671 net.cpp:100] Creating Layer res3a_branch2b
I1210 01:55:32.433985  1671 net.cpp:434] res3a_branch2b <- res3a_branch2a
I1210 01:55:32.434006  1671 net.cpp:408] res3a_branch2b -> res3a_branch2b
I1210 01:55:32.442944  1671 net.cpp:150] Setting up res3a_branch2b
I1210 01:55:32.442986  1671 net.cpp:157] Top shape: 50 128 28 28 (5017600)
I1210 01:55:32.443003  1671 net.cpp:165] Memory required for data: 5950874200
I1210 01:55:32.443023  1671 layer_factory.hpp:77] Creating layer bn3a_branch2b
I1210 01:55:32.443068  1671 net.cpp:100] Creating Layer bn3a_branch2b
I1210 01:55:32.443092  1671 net.cpp:434] bn3a_branch2b <- res3a_branch2b
I1210 01:55:32.443112  1671 net.cpp:395] bn3a_branch2b -> res3a_branch2b (in-place)
I1210 01:55:32.443512  1671 net.cpp:150] Setting up bn3a_branch2b
I1210 01:55:32.443542  1671 net.cpp:157] Top shape: 50 128 28 28 (5017600)
I1210 01:55:32.443635  1671 net.cpp:165] Memory required for data: 5970944600
I1210 01:55:32.443670  1671 layer_factory.hpp:77] Creating layer scale3a_branch2b
I1210 01:55:32.443696  1671 net.cpp:100] Creating Layer scale3a_branch2b
I1210 01:55:32.443713  1671 net.cpp:434] scale3a_branch2b <- res3a_branch2b
I1210 01:55:32.443756  1671 net.cpp:395] scale3a_branch2b -> res3a_branch2b (in-place)
I1210 01:55:32.443840  1671 layer_factory.hpp:77] Creating layer scale3a_branch2b
I1210 01:55:32.444093  1671 net.cpp:150] Setting up scale3a_branch2b
I1210 01:55:32.444145  1671 net.cpp:157] Top shape: 50 128 28 28 (5017600)
I1210 01:55:32.444165  1671 net.cpp:165] Memory required for data: 5991015000
I1210 01:55:32.444191  1671 layer_factory.hpp:77] Creating layer res3a_branch2b_relu
I1210 01:55:32.444216  1671 net.cpp:100] Creating Layer res3a_branch2b_relu
I1210 01:55:32.444233  1671 net.cpp:434] res3a_branch2b_relu <- res3a_branch2b
I1210 01:55:32.444252  1671 net.cpp:395] res3a_branch2b_relu -> res3a_branch2b (in-place)
I1210 01:55:32.444646  1671 net.cpp:150] Setting up res3a_branch2b_relu
I1210 01:55:32.444705  1671 net.cpp:157] Top shape: 50 128 28 28 (5017600)
I1210 01:55:32.444723  1671 net.cpp:165] Memory required for data: 6011085400
I1210 01:55:32.444739  1671 layer_factory.hpp:77] Creating layer res3a_branch2c
I1210 01:55:32.444813  1671 net.cpp:100] Creating Layer res3a_branch2c
I1210 01:55:32.444836  1671 net.cpp:434] res3a_branch2c <- res3a_branch2b
I1210 01:55:32.444859  1671 net.cpp:408] res3a_branch2c -> res3a_branch2c
I1210 01:55:32.449836  1671 net.cpp:150] Setting up res3a_branch2c
I1210 01:55:32.449879  1671 net.cpp:157] Top shape: 50 512 28 28 (20070400)
I1210 01:55:32.449898  1671 net.cpp:165] Memory required for data: 6091367000
I1210 01:55:32.449918  1671 layer_factory.hpp:77] Creating layer bn3a_branch2c
I1210 01:55:32.449960  1671 net.cpp:100] Creating Layer bn3a_branch2c
I1210 01:55:32.449983  1671 net.cpp:434] bn3a_branch2c <- res3a_branch2c
I1210 01:55:32.450003  1671 net.cpp:395] bn3a_branch2c -> res3a_branch2c (in-place)
I1210 01:55:32.450426  1671 net.cpp:150] Setting up bn3a_branch2c
I1210 01:55:32.450458  1671 net.cpp:157] Top shape: 50 512 28 28 (20070400)
I1210 01:55:32.450474  1671 net.cpp:165] Memory required for data: 6171648600
I1210 01:55:32.450520  1671 layer_factory.hpp:77] Creating layer scale3a_branch2c
I1210 01:55:32.450570  1671 net.cpp:100] Creating Layer scale3a_branch2c
I1210 01:55:32.450595  1671 net.cpp:434] scale3a_branch2c <- res3a_branch2c
I1210 01:55:32.450614  1671 net.cpp:395] scale3a_branch2c -> res3a_branch2c (in-place)
I1210 01:55:32.450727  1671 layer_factory.hpp:77] Creating layer scale3a_branch2c
I1210 01:55:32.451009  1671 net.cpp:150] Setting up scale3a_branch2c
I1210 01:55:32.451037  1671 net.cpp:157] Top shape: 50 512 28 28 (20070400)
I1210 01:55:32.451053  1671 net.cpp:165] Memory required for data: 6251930200
I1210 01:55:32.451077  1671 layer_factory.hpp:77] Creating layer res3a
I1210 01:55:32.451122  1671 net.cpp:100] Creating Layer res3a
I1210 01:55:32.451144  1671 net.cpp:434] res3a <- res3a_branch1
I1210 01:55:32.451164  1671 net.cpp:434] res3a <- res3a_branch2c
I1210 01:55:32.451182  1671 net.cpp:408] res3a -> res3a
I1210 01:55:32.451263  1671 net.cpp:150] Setting up res3a
I1210 01:55:32.451289  1671 net.cpp:157] Top shape: 50 512 28 28 (20070400)
I1210 01:55:32.451304  1671 net.cpp:165] Memory required for data: 6332211800
I1210 01:55:32.451320  1671 layer_factory.hpp:77] Creating layer res3a_relu
I1210 01:55:32.451339  1671 net.cpp:100] Creating Layer res3a_relu
I1210 01:55:32.451355  1671 net.cpp:434] res3a_relu <- res3a
I1210 01:55:32.451400  1671 net.cpp:395] res3a_relu -> res3a (in-place)
I1210 01:55:32.451818  1671 net.cpp:150] Setting up res3a_relu
I1210 01:55:32.451850  1671 net.cpp:157] Top shape: 50 512 28 28 (20070400)
I1210 01:55:32.451884  1671 net.cpp:165] Memory required for data: 6412493400
I1210 01:55:32.451902  1671 layer_factory.hpp:77] Creating layer res3a_res3a_relu_0_split
I1210 01:55:32.451992  1671 net.cpp:100] Creating Layer res3a_res3a_relu_0_split
I1210 01:55:32.452042  1671 net.cpp:434] res3a_res3a_relu_0_split <- res3a
I1210 01:55:32.452064  1671 net.cpp:408] res3a_res3a_relu_0_split -> res3a_res3a_relu_0_split_0
I1210 01:55:32.452113  1671 net.cpp:408] res3a_res3a_relu_0_split -> res3a_res3a_relu_0_split_1
I1210 01:55:32.452214  1671 net.cpp:150] Setting up res3a_res3a_relu_0_split
I1210 01:55:32.452242  1671 net.cpp:157] Top shape: 50 512 28 28 (20070400)
I1210 01:55:32.452260  1671 net.cpp:157] Top shape: 50 512 28 28 (20070400)
I1210 01:55:32.452273  1671 net.cpp:165] Memory required for data: 6573056600
I1210 01:55:32.452289  1671 layer_factory.hpp:77] Creating layer res3b_branch2a
I1210 01:55:32.452337  1671 net.cpp:100] Creating Layer res3b_branch2a
I1210 01:55:32.452358  1671 net.cpp:434] res3b_branch2a <- res3a_res3a_relu_0_split_0
I1210 01:55:32.452404  1671 net.cpp:408] res3b_branch2a -> res3b_branch2a
I1210 01:55:32.457394  1671 net.cpp:150] Setting up res3b_branch2a
I1210 01:55:32.457437  1671 net.cpp:157] Top shape: 50 128 28 28 (5017600)
I1210 01:55:32.457455  1671 net.cpp:165] Memory required for data: 6593127000
I1210 01:55:32.457474  1671 layer_factory.hpp:77] Creating layer bn3b_branch2a
I1210 01:55:32.457520  1671 net.cpp:100] Creating Layer bn3b_branch2a
I1210 01:55:32.457542  1671 net.cpp:434] bn3b_branch2a <- res3b_branch2a
I1210 01:55:32.457562  1671 net.cpp:395] bn3b_branch2a -> res3b_branch2a (in-place)
I1210 01:55:32.457973  1671 net.cpp:150] Setting up bn3b_branch2a
I1210 01:55:32.458001  1671 net.cpp:157] Top shape: 50 128 28 28 (5017600)
I1210 01:55:32.458017  1671 net.cpp:165] Memory required for data: 6613197400
I1210 01:55:32.458045  1671 layer_factory.hpp:77] Creating layer scale3b_branch2a
I1210 01:55:32.458068  1671 net.cpp:100] Creating Layer scale3b_branch2a
I1210 01:55:32.458086  1671 net.cpp:434] scale3b_branch2a <- res3b_branch2a
I1210 01:55:32.458124  1671 net.cpp:395] scale3b_branch2a -> res3b_branch2a (in-place)
I1210 01:55:32.458230  1671 layer_factory.hpp:77] Creating layer scale3b_branch2a
I1210 01:55:32.458489  1671 net.cpp:150] Setting up scale3b_branch2a
I1210 01:55:32.458518  1671 net.cpp:157] Top shape: 50 128 28 28 (5017600)
I1210 01:55:32.458534  1671 net.cpp:165] Memory required for data: 6633267800
I1210 01:55:32.458575  1671 layer_factory.hpp:77] Creating layer res3b_branch2a_relu
I1210 01:55:32.458631  1671 net.cpp:100] Creating Layer res3b_branch2a_relu
I1210 01:55:32.458654  1671 net.cpp:434] res3b_branch2a_relu <- res3b_branch2a
I1210 01:55:32.458680  1671 net.cpp:395] res3b_branch2a_relu -> res3b_branch2a (in-place)
I1210 01:55:32.459070  1671 net.cpp:150] Setting up res3b_branch2a_relu
I1210 01:55:32.459102  1671 net.cpp:157] Top shape: 50 128 28 28 (5017600)
I1210 01:55:32.459118  1671 net.cpp:165] Memory required for data: 6653338200
I1210 01:55:32.459134  1671 layer_factory.hpp:77] Creating layer res3b_branch2b
I1210 01:55:32.459180  1671 net.cpp:100] Creating Layer res3b_branch2b
I1210 01:55:32.459203  1671 net.cpp:434] res3b_branch2b <- res3b_branch2a
I1210 01:55:32.459224  1671 net.cpp:408] res3b_branch2b -> res3b_branch2b
I1210 01:55:32.468030  1671 net.cpp:150] Setting up res3b_branch2b
I1210 01:55:32.468071  1671 net.cpp:157] Top shape: 50 128 28 28 (5017600)
I1210 01:55:32.468089  1671 net.cpp:165] Memory required for data: 6673408600
I1210 01:55:32.468109  1671 layer_factory.hpp:77] Creating layer bn3b_branch2b
I1210 01:55:32.468156  1671 net.cpp:100] Creating Layer bn3b_branch2b
I1210 01:55:32.468180  1671 net.cpp:434] bn3b_branch2b <- res3b_branch2b
I1210 01:55:32.468199  1671 net.cpp:395] bn3b_branch2b -> res3b_branch2b (in-place)
I1210 01:55:32.468605  1671 net.cpp:150] Setting up bn3b_branch2b
I1210 01:55:32.468636  1671 net.cpp:157] Top shape: 50 128 28 28 (5017600)
I1210 01:55:32.468652  1671 net.cpp:165] Memory required for data: 6693479000
I1210 01:55:32.468717  1671 layer_factory.hpp:77] Creating layer scale3b_branch2b
I1210 01:55:32.468745  1671 net.cpp:100] Creating Layer scale3b_branch2b
I1210 01:55:32.468809  1671 net.cpp:434] scale3b_branch2b <- res3b_branch2b
I1210 01:55:32.468863  1671 net.cpp:395] scale3b_branch2b -> res3b_branch2b (in-place)
I1210 01:55:32.468966  1671 layer_factory.hpp:77] Creating layer scale3b_branch2b
I1210 01:55:32.469244  1671 net.cpp:150] Setting up scale3b_branch2b
I1210 01:55:32.469272  1671 net.cpp:157] Top shape: 50 128 28 28 (5017600)
I1210 01:55:32.469288  1671 net.cpp:165] Memory required for data: 6713549400
I1210 01:55:32.469308  1671 layer_factory.hpp:77] Creating layer res3b_branch2b_relu
I1210 01:55:32.469353  1671 net.cpp:100] Creating Layer res3b_branch2b_relu
I1210 01:55:32.469375  1671 net.cpp:434] res3b_branch2b_relu <- res3b_branch2b
I1210 01:55:32.469394  1671 net.cpp:395] res3b_branch2b_relu -> res3b_branch2b (in-place)
I1210 01:55:32.469750  1671 net.cpp:150] Setting up res3b_branch2b_relu
I1210 01:55:32.469782  1671 net.cpp:157] Top shape: 50 128 28 28 (5017600)
I1210 01:55:32.469799  1671 net.cpp:165] Memory required for data: 6733619800
I1210 01:55:32.469815  1671 layer_factory.hpp:77] Creating layer res3b_branch2c
I1210 01:55:32.469879  1671 net.cpp:100] Creating Layer res3b_branch2c
I1210 01:55:32.469903  1671 net.cpp:434] res3b_branch2c <- res3b_branch2b
I1210 01:55:32.469924  1671 net.cpp:408] res3b_branch2c -> res3b_branch2c
I1210 01:55:32.474984  1671 net.cpp:150] Setting up res3b_branch2c
I1210 01:55:32.475049  1671 net.cpp:157] Top shape: 50 512 28 28 (20070400)
I1210 01:55:32.475072  1671 net.cpp:165] Memory required for data: 6813901400
I1210 01:55:32.475092  1671 layer_factory.hpp:77] Creating layer bn3b_branch2c
I1210 01:55:32.475113  1671 net.cpp:100] Creating Layer bn3b_branch2c
I1210 01:55:32.475131  1671 net.cpp:434] bn3b_branch2c <- res3b_branch2c
I1210 01:55:32.475150  1671 net.cpp:395] bn3b_branch2c -> res3b_branch2c (in-place)
I1210 01:55:32.475570  1671 net.cpp:150] Setting up bn3b_branch2c
I1210 01:55:32.475600  1671 net.cpp:157] Top shape: 50 512 28 28 (20070400)
I1210 01:55:32.475616  1671 net.cpp:165] Memory required for data: 6894183000
I1210 01:55:32.475643  1671 layer_factory.hpp:77] Creating layer scale3b_branch2c
I1210 01:55:32.475677  1671 net.cpp:100] Creating Layer scale3b_branch2c
I1210 01:55:32.475697  1671 net.cpp:434] scale3b_branch2c <- res3b_branch2c
I1210 01:55:32.475716  1671 net.cpp:395] scale3b_branch2c -> res3b_branch2c (in-place)
I1210 01:55:32.475809  1671 layer_factory.hpp:77] Creating layer scale3b_branch2c
I1210 01:55:32.475997  1671 net.cpp:150] Setting up scale3b_branch2c
I1210 01:55:32.476025  1671 net.cpp:157] Top shape: 50 512 28 28 (20070400)
I1210 01:55:32.476040  1671 net.cpp:165] Memory required for data: 6974464600
I1210 01:55:32.476060  1671 layer_factory.hpp:77] Creating layer res3b
I1210 01:55:32.476086  1671 net.cpp:100] Creating Layer res3b
I1210 01:55:32.476106  1671 net.cpp:434] res3b <- res3a_res3a_relu_0_split_1
I1210 01:55:32.476125  1671 net.cpp:434] res3b <- res3b_branch2c
I1210 01:55:32.476152  1671 net.cpp:408] res3b -> res3b
I1210 01:55:32.476208  1671 net.cpp:150] Setting up res3b
I1210 01:55:32.476231  1671 net.cpp:157] Top shape: 50 512 28 28 (20070400)
I1210 01:55:32.476245  1671 net.cpp:165] Memory required for data: 7054746200
I1210 01:55:32.476260  1671 layer_factory.hpp:77] Creating layer res3b_relu
I1210 01:55:32.476286  1671 net.cpp:100] Creating Layer res3b_relu
I1210 01:55:32.476305  1671 net.cpp:434] res3b_relu <- res3b
I1210 01:55:32.476323  1671 net.cpp:395] res3b_relu -> res3b (in-place)
I1210 01:55:32.477763  1671 net.cpp:150] Setting up res3b_relu
I1210 01:55:32.477808  1671 net.cpp:157] Top shape: 50 512 28 28 (20070400)
I1210 01:55:32.477828  1671 net.cpp:165] Memory required for data: 7135027800
I1210 01:55:32.477843  1671 layer_factory.hpp:77] Creating layer res3b_res3b_relu_0_split
I1210 01:55:32.477864  1671 net.cpp:100] Creating Layer res3b_res3b_relu_0_split
I1210 01:55:32.477880  1671 net.cpp:434] res3b_res3b_relu_0_split <- res3b
I1210 01:55:32.477900  1671 net.cpp:408] res3b_res3b_relu_0_split -> res3b_res3b_relu_0_split_0
I1210 01:55:32.477921  1671 net.cpp:408] res3b_res3b_relu_0_split -> res3b_res3b_relu_0_split_1
I1210 01:55:32.478036  1671 net.cpp:150] Setting up res3b_res3b_relu_0_split
I1210 01:55:32.478062  1671 net.cpp:157] Top shape: 50 512 28 28 (20070400)
I1210 01:55:32.478080  1671 net.cpp:157] Top shape: 50 512 28 28 (20070400)
I1210 01:55:32.478094  1671 net.cpp:165] Memory required for data: 7295591000
I1210 01:55:32.478109  1671 layer_factory.hpp:77] Creating layer res3c_branch2a
I1210 01:55:32.478137  1671 net.cpp:100] Creating Layer res3c_branch2a
I1210 01:55:32.478157  1671 net.cpp:434] res3c_branch2a <- res3b_res3b_relu_0_split_0
I1210 01:55:32.478183  1671 net.cpp:408] res3c_branch2a -> res3c_branch2a
I1210 01:55:32.482602  1671 net.cpp:150] Setting up res3c_branch2a
I1210 01:55:32.482648  1671 net.cpp:157] Top shape: 50 128 28 28 (5017600)
I1210 01:55:32.482676  1671 net.cpp:165] Memory required for data: 7315661400
I1210 01:55:32.482702  1671 layer_factory.hpp:77] Creating layer bn3c_branch2a
I1210 01:55:32.482729  1671 net.cpp:100] Creating Layer bn3c_branch2a
I1210 01:55:32.482755  1671 net.cpp:434] bn3c_branch2a <- res3c_branch2a
I1210 01:55:32.482775  1671 net.cpp:395] bn3c_branch2a -> res3c_branch2a (in-place)
I1210 01:55:32.483055  1671 net.cpp:150] Setting up bn3c_branch2a
I1210 01:55:32.483081  1671 net.cpp:157] Top shape: 50 128 28 28 (5017600)
I1210 01:55:32.483098  1671 net.cpp:165] Memory required for data: 7335731800
I1210 01:55:32.483119  1671 layer_factory.hpp:77] Creating layer scale3c_branch2a
I1210 01:55:32.483147  1671 net.cpp:100] Creating Layer scale3c_branch2a
I1210 01:55:32.483167  1671 net.cpp:434] scale3c_branch2a <- res3c_branch2a
I1210 01:55:32.483186  1671 net.cpp:395] scale3c_branch2a -> res3c_branch2a (in-place)
I1210 01:55:32.483269  1671 layer_factory.hpp:77] Creating layer scale3c_branch2a
I1210 01:55:32.483479  1671 net.cpp:150] Setting up scale3c_branch2a
I1210 01:55:32.483507  1671 net.cpp:157] Top shape: 50 128 28 28 (5017600)
I1210 01:55:32.483523  1671 net.cpp:165] Memory required for data: 7355802200
I1210 01:55:32.483543  1671 layer_factory.hpp:77] Creating layer res3c_branch2a_relu
I1210 01:55:32.483562  1671 net.cpp:100] Creating Layer res3c_branch2a_relu
I1210 01:55:32.483579  1671 net.cpp:434] res3c_branch2a_relu <- res3c_branch2a
I1210 01:55:32.483603  1671 net.cpp:395] res3c_branch2a_relu -> res3c_branch2a (in-place)
I1210 01:55:32.483885  1671 net.cpp:150] Setting up res3c_branch2a_relu
I1210 01:55:32.483916  1671 net.cpp:157] Top shape: 50 128 28 28 (5017600)
I1210 01:55:32.483932  1671 net.cpp:165] Memory required for data: 7375872600
I1210 01:55:32.483947  1671 layer_factory.hpp:77] Creating layer res3c_branch2b
I1210 01:55:32.483983  1671 net.cpp:100] Creating Layer res3c_branch2b
I1210 01:55:32.484007  1671 net.cpp:434] res3c_branch2b <- res3c_branch2a
I1210 01:55:32.484028  1671 net.cpp:408] res3c_branch2b -> res3c_branch2b
I1210 01:55:32.494614  1671 net.cpp:150] Setting up res3c_branch2b
I1210 01:55:32.494655  1671 net.cpp:157] Top shape: 50 128 28 28 (5017600)
I1210 01:55:32.494683  1671 net.cpp:165] Memory required for data: 7395943000
I1210 01:55:32.494709  1671 layer_factory.hpp:77] Creating layer bn3c_branch2b
I1210 01:55:32.494740  1671 net.cpp:100] Creating Layer bn3c_branch2b
I1210 01:55:32.494760  1671 net.cpp:434] bn3c_branch2b <- res3c_branch2b
I1210 01:55:32.494783  1671 net.cpp:395] bn3c_branch2b -> res3c_branch2b (in-place)
I1210 01:55:32.495108  1671 net.cpp:150] Setting up bn3c_branch2b
I1210 01:55:32.495136  1671 net.cpp:157] Top shape: 50 128 28 28 (5017600)
I1210 01:55:32.495152  1671 net.cpp:165] Memory required for data: 7416013400
I1210 01:55:32.495182  1671 layer_factory.hpp:77] Creating layer scale3c_branch2b
I1210 01:55:32.495204  1671 net.cpp:100] Creating Layer scale3c_branch2b
I1210 01:55:32.495223  1671 net.cpp:434] scale3c_branch2b <- res3c_branch2b
I1210 01:55:32.495240  1671 net.cpp:395] scale3c_branch2b -> res3c_branch2b (in-place)
I1210 01:55:32.495324  1671 layer_factory.hpp:77] Creating layer scale3c_branch2b
I1210 01:55:32.495519  1671 net.cpp:150] Setting up scale3c_branch2b
I1210 01:55:32.495568  1671 net.cpp:157] Top shape: 50 128 28 28 (5017600)
I1210 01:55:32.495599  1671 net.cpp:165] Memory required for data: 7436083800
I1210 01:55:32.495620  1671 layer_factory.hpp:77] Creating layer res3c_branch2b_relu
I1210 01:55:32.495646  1671 net.cpp:100] Creating Layer res3c_branch2b_relu
I1210 01:55:32.495673  1671 net.cpp:434] res3c_branch2b_relu <- res3c_branch2b
I1210 01:55:32.495693  1671 net.cpp:395] res3c_branch2b_relu -> res3c_branch2b (in-place)
I1210 01:55:32.495964  1671 net.cpp:150] Setting up res3c_branch2b_relu
I1210 01:55:32.495993  1671 net.cpp:157] Top shape: 50 128 28 28 (5017600)
I1210 01:55:32.496009  1671 net.cpp:165] Memory required for data: 7456154200
I1210 01:55:32.496026  1671 layer_factory.hpp:77] Creating layer res3c_branch2c
I1210 01:55:32.496062  1671 net.cpp:100] Creating Layer res3c_branch2c
I1210 01:55:32.496083  1671 net.cpp:434] res3c_branch2c <- res3c_branch2b
I1210 01:55:32.496104  1671 net.cpp:408] res3c_branch2c -> res3c_branch2c
I1210 01:55:32.501240  1671 net.cpp:150] Setting up res3c_branch2c
I1210 01:55:32.501288  1671 net.cpp:157] Top shape: 50 512 28 28 (20070400)
I1210 01:55:32.501308  1671 net.cpp:165] Memory required for data: 7536435800
I1210 01:55:32.501333  1671 layer_factory.hpp:77] Creating layer bn3c_branch2c
I1210 01:55:32.501356  1671 net.cpp:100] Creating Layer bn3c_branch2c
I1210 01:55:32.501374  1671 net.cpp:434] bn3c_branch2c <- res3c_branch2c
I1210 01:55:32.501394  1671 net.cpp:395] bn3c_branch2c -> res3c_branch2c (in-place)
I1210 01:55:32.501700  1671 net.cpp:150] Setting up bn3c_branch2c
I1210 01:55:32.501729  1671 net.cpp:157] Top shape: 50 512 28 28 (20070400)
I1210 01:55:32.501744  1671 net.cpp:165] Memory required for data: 7616717400
I1210 01:55:32.501766  1671 layer_factory.hpp:77] Creating layer scale3c_branch2c
I1210 01:55:32.501786  1671 net.cpp:100] Creating Layer scale3c_branch2c
I1210 01:55:32.501804  1671 net.cpp:434] scale3c_branch2c <- res3c_branch2c
I1210 01:55:32.501828  1671 net.cpp:395] scale3c_branch2c -> res3c_branch2c (in-place)
I1210 01:55:32.501922  1671 layer_factory.hpp:77] Creating layer scale3c_branch2c
I1210 01:55:32.502113  1671 net.cpp:150] Setting up scale3c_branch2c
I1210 01:55:32.502140  1671 net.cpp:157] Top shape: 50 512 28 28 (20070400)
I1210 01:55:32.502156  1671 net.cpp:165] Memory required for data: 7696999000
I1210 01:55:32.502176  1671 layer_factory.hpp:77] Creating layer res3c
I1210 01:55:32.502204  1671 net.cpp:100] Creating Layer res3c
I1210 01:55:32.502224  1671 net.cpp:434] res3c <- res3b_res3b_relu_0_split_1
I1210 01:55:32.502243  1671 net.cpp:434] res3c <- res3c_branch2c
I1210 01:55:32.502267  1671 net.cpp:408] res3c -> res3c
I1210 01:55:32.502326  1671 net.cpp:150] Setting up res3c
I1210 01:55:32.502347  1671 net.cpp:157] Top shape: 50 512 28 28 (20070400)
I1210 01:55:32.502362  1671 net.cpp:165] Memory required for data: 7777280600
I1210 01:55:32.502377  1671 layer_factory.hpp:77] Creating layer res3c_relu
I1210 01:55:32.502403  1671 net.cpp:100] Creating Layer res3c_relu
I1210 01:55:32.502423  1671 net.cpp:434] res3c_relu <- res3c
I1210 01:55:32.502440  1671 net.cpp:395] res3c_relu -> res3c (in-place)
I1210 01:55:32.502746  1671 net.cpp:150] Setting up res3c_relu
I1210 01:55:32.502782  1671 net.cpp:157] Top shape: 50 512 28 28 (20070400)
I1210 01:55:32.502799  1671 net.cpp:165] Memory required for data: 7857562200
I1210 01:55:32.502815  1671 layer_factory.hpp:77] Creating layer res3c_res3c_relu_0_split
I1210 01:55:32.502845  1671 net.cpp:100] Creating Layer res3c_res3c_relu_0_split
I1210 01:55:32.502863  1671 net.cpp:434] res3c_res3c_relu_0_split <- res3c
I1210 01:55:32.502882  1671 net.cpp:408] res3c_res3c_relu_0_split -> res3c_res3c_relu_0_split_0
I1210 01:55:32.502910  1671 net.cpp:408] res3c_res3c_relu_0_split -> res3c_res3c_relu_0_split_1
I1210 01:55:32.502993  1671 net.cpp:150] Setting up res3c_res3c_relu_0_split
I1210 01:55:32.503017  1671 net.cpp:157] Top shape: 50 512 28 28 (20070400)
I1210 01:55:32.503034  1671 net.cpp:157] Top shape: 50 512 28 28 (20070400)
I1210 01:55:32.503072  1671 net.cpp:165] Memory required for data: 8018125400
I1210 01:55:32.503103  1671 layer_factory.hpp:77] Creating layer res3d_branch2a
I1210 01:55:32.503134  1671 net.cpp:100] Creating Layer res3d_branch2a
I1210 01:55:32.503154  1671 net.cpp:434] res3d_branch2a <- res3c_res3c_relu_0_split_0
I1210 01:55:32.503180  1671 net.cpp:408] res3d_branch2a -> res3d_branch2a
I1210 01:55:32.510017  1671 net.cpp:150] Setting up res3d_branch2a
I1210 01:55:32.510061  1671 net.cpp:157] Top shape: 50 128 28 28 (5017600)
I1210 01:55:32.510078  1671 net.cpp:165] Memory required for data: 8038195800
I1210 01:55:32.510098  1671 layer_factory.hpp:77] Creating layer bn3d_branch2a
I1210 01:55:32.510128  1671 net.cpp:100] Creating Layer bn3d_branch2a
I1210 01:55:32.510149  1671 net.cpp:434] bn3d_branch2a <- res3d_branch2a
I1210 01:55:32.510175  1671 net.cpp:395] bn3d_branch2a -> res3d_branch2a (in-place)
I1210 01:55:32.510464  1671 net.cpp:150] Setting up bn3d_branch2a
I1210 01:55:32.510491  1671 net.cpp:157] Top shape: 50 128 28 28 (5017600)
I1210 01:55:32.510507  1671 net.cpp:165] Memory required for data: 8058266200
I1210 01:55:32.510581  1671 layer_factory.hpp:77] Creating layer scale3d_branch2a
I1210 01:55:32.510617  1671 net.cpp:100] Creating Layer scale3d_branch2a
I1210 01:55:32.510637  1671 net.cpp:434] scale3d_branch2a <- res3d_branch2a
I1210 01:55:32.510686  1671 net.cpp:395] scale3d_branch2a -> res3d_branch2a (in-place)
I1210 01:55:32.510776  1671 layer_factory.hpp:77] Creating layer scale3d_branch2a
I1210 01:55:32.510969  1671 net.cpp:150] Setting up scale3d_branch2a
I1210 01:55:32.510996  1671 net.cpp:157] Top shape: 50 128 28 28 (5017600)
I1210 01:55:32.511013  1671 net.cpp:165] Memory required for data: 8078336600
I1210 01:55:32.511032  1671 layer_factory.hpp:77] Creating layer res3d_branch2a_relu
I1210 01:55:32.511052  1671 net.cpp:100] Creating Layer res3d_branch2a_relu
I1210 01:55:32.511068  1671 net.cpp:434] res3d_branch2a_relu <- res3d_branch2a
I1210 01:55:32.511086  1671 net.cpp:395] res3d_branch2a_relu -> res3d_branch2a (in-place)
I1210 01:55:32.511371  1671 net.cpp:150] Setting up res3d_branch2a_relu
I1210 01:55:32.511401  1671 net.cpp:157] Top shape: 50 128 28 28 (5017600)
I1210 01:55:32.511416  1671 net.cpp:165] Memory required for data: 8098407000
I1210 01:55:32.511437  1671 layer_factory.hpp:77] Creating layer res3d_branch2b
I1210 01:55:32.511468  1671 net.cpp:100] Creating Layer res3d_branch2b
I1210 01:55:32.511488  1671 net.cpp:434] res3d_branch2b <- res3d_branch2a
I1210 01:55:32.511509  1671 net.cpp:408] res3d_branch2b -> res3d_branch2b
I1210 01:55:32.519708  1671 net.cpp:150] Setting up res3d_branch2b
I1210 01:55:32.519750  1671 net.cpp:157] Top shape: 50 128 28 28 (5017600)
I1210 01:55:32.519767  1671 net.cpp:165] Memory required for data: 8118477400
I1210 01:55:32.519788  1671 layer_factory.hpp:77] Creating layer bn3d_branch2b
I1210 01:55:32.519814  1671 net.cpp:100] Creating Layer bn3d_branch2b
I1210 01:55:32.519834  1671 net.cpp:434] bn3d_branch2b <- res3d_branch2b
I1210 01:55:32.519860  1671 net.cpp:395] bn3d_branch2b -> res3d_branch2b (in-place)
I1210 01:55:32.520161  1671 net.cpp:150] Setting up bn3d_branch2b
I1210 01:55:32.520187  1671 net.cpp:157] Top shape: 50 128 28 28 (5017600)
I1210 01:55:32.520202  1671 net.cpp:165] Memory required for data: 8138547800
I1210 01:55:32.520226  1671 layer_factory.hpp:77] Creating layer scale3d_branch2b
I1210 01:55:32.520246  1671 net.cpp:100] Creating Layer scale3d_branch2b
I1210 01:55:32.520263  1671 net.cpp:434] scale3d_branch2b <- res3d_branch2b
I1210 01:55:32.520282  1671 net.cpp:395] scale3d_branch2b -> res3d_branch2b (in-place)
I1210 01:55:32.520365  1671 layer_factory.hpp:77] Creating layer scale3d_branch2b
I1210 01:55:32.520561  1671 net.cpp:150] Setting up scale3d_branch2b
I1210 01:55:32.520588  1671 net.cpp:157] Top shape: 50 128 28 28 (5017600)
I1210 01:55:32.520603  1671 net.cpp:165] Memory required for data: 8158618200
I1210 01:55:32.520623  1671 layer_factory.hpp:77] Creating layer res3d_branch2b_relu
I1210 01:55:32.520642  1671 net.cpp:100] Creating Layer res3d_branch2b_relu
I1210 01:55:32.520697  1671 net.cpp:434] res3d_branch2b_relu <- res3d_branch2b
I1210 01:55:32.520725  1671 net.cpp:395] res3d_branch2b_relu -> res3d_branch2b (in-place)
I1210 01:55:32.521004  1671 net.cpp:150] Setting up res3d_branch2b_relu
I1210 01:55:32.521034  1671 net.cpp:157] Top shape: 50 128 28 28 (5017600)
I1210 01:55:32.521050  1671 net.cpp:165] Memory required for data: 8178688600
I1210 01:55:32.521070  1671 layer_factory.hpp:77] Creating layer res3d_branch2c
I1210 01:55:32.521102  1671 net.cpp:100] Creating Layer res3d_branch2c
I1210 01:55:32.521122  1671 net.cpp:434] res3d_branch2c <- res3d_branch2b
I1210 01:55:32.521152  1671 net.cpp:408] res3d_branch2c -> res3d_branch2c
I1210 01:55:32.525516  1671 net.cpp:150] Setting up res3d_branch2c
I1210 01:55:32.525557  1671 net.cpp:157] Top shape: 50 512 28 28 (20070400)
I1210 01:55:32.525575  1671 net.cpp:165] Memory required for data: 8258970200
I1210 01:55:32.525594  1671 layer_factory.hpp:77] Creating layer bn3d_branch2c
I1210 01:55:32.525622  1671 net.cpp:100] Creating Layer bn3d_branch2c
I1210 01:55:32.525643  1671 net.cpp:434] bn3d_branch2c <- res3d_branch2c
I1210 01:55:32.525671  1671 net.cpp:395] bn3d_branch2c -> res3d_branch2c (in-place)
I1210 01:55:32.525972  1671 net.cpp:150] Setting up bn3d_branch2c
I1210 01:55:32.525998  1671 net.cpp:157] Top shape: 50 512 28 28 (20070400)
I1210 01:55:32.526015  1671 net.cpp:165] Memory required for data: 8339251800
I1210 01:55:32.526036  1671 layer_factory.hpp:77] Creating layer scale3d_branch2c
I1210 01:55:32.526057  1671 net.cpp:100] Creating Layer scale3d_branch2c
I1210 01:55:32.526073  1671 net.cpp:434] scale3d_branch2c <- res3d_branch2c
I1210 01:55:32.526093  1671 net.cpp:395] scale3d_branch2c -> res3d_branch2c (in-place)
I1210 01:55:32.526180  1671 layer_factory.hpp:77] Creating layer scale3d_branch2c
I1210 01:55:32.526374  1671 net.cpp:150] Setting up scale3d_branch2c
I1210 01:55:32.526401  1671 net.cpp:157] Top shape: 50 512 28 28 (20070400)
I1210 01:55:32.526417  1671 net.cpp:165] Memory required for data: 8419533400
I1210 01:55:32.526437  1671 layer_factory.hpp:77] Creating layer res3d
I1210 01:55:32.526463  1671 net.cpp:100] Creating Layer res3d
I1210 01:55:32.526482  1671 net.cpp:434] res3d <- res3c_res3c_relu_0_split_1
I1210 01:55:32.526500  1671 net.cpp:434] res3d <- res3d_branch2c
I1210 01:55:32.526520  1671 net.cpp:408] res3d -> res3d
I1210 01:55:32.526604  1671 net.cpp:150] Setting up res3d
I1210 01:55:32.526633  1671 net.cpp:157] Top shape: 50 512 28 28 (20070400)
I1210 01:55:32.526648  1671 net.cpp:165] Memory required for data: 8499815000
I1210 01:55:32.526677  1671 layer_factory.hpp:77] Creating layer res3d_relu
I1210 01:55:32.526707  1671 net.cpp:100] Creating Layer res3d_relu
I1210 01:55:32.526726  1671 net.cpp:434] res3d_relu <- res3d
I1210 01:55:32.526751  1671 net.cpp:395] res3d_relu -> res3d (in-place)
I1210 01:55:32.528137  1671 net.cpp:150] Setting up res3d_relu
I1210 01:55:32.528175  1671 net.cpp:157] Top shape: 50 512 28 28 (20070400)
I1210 01:55:32.528192  1671 net.cpp:165] Memory required for data: 8580096600
I1210 01:55:32.528208  1671 layer_factory.hpp:77] Creating layer res3d_res3d_relu_0_split
I1210 01:55:32.528228  1671 net.cpp:100] Creating Layer res3d_res3d_relu_0_split
I1210 01:55:32.528244  1671 net.cpp:434] res3d_res3d_relu_0_split <- res3d
I1210 01:55:32.528271  1671 net.cpp:408] res3d_res3d_relu_0_split -> res3d_res3d_relu_0_split_0
I1210 01:55:32.528296  1671 net.cpp:408] res3d_res3d_relu_0_split -> res3d_res3d_relu_0_split_1
I1210 01:55:32.528383  1671 net.cpp:150] Setting up res3d_res3d_relu_0_split
I1210 01:55:32.528408  1671 net.cpp:157] Top shape: 50 512 28 28 (20070400)
I1210 01:55:32.528424  1671 net.cpp:157] Top shape: 50 512 28 28 (20070400)
I1210 01:55:32.528439  1671 net.cpp:165] Memory required for data: 8740659800
I1210 01:55:32.528453  1671 layer_factory.hpp:77] Creating layer res4a_branch1
I1210 01:55:32.528487  1671 net.cpp:100] Creating Layer res4a_branch1
I1210 01:55:32.528506  1671 net.cpp:434] res4a_branch1 <- res3d_res3d_relu_0_split_0
I1210 01:55:32.528573  1671 net.cpp:408] res4a_branch1 -> res4a_branch1
I1210 01:55:32.550693  1671 net.cpp:150] Setting up res4a_branch1
I1210 01:55:32.550745  1671 net.cpp:157] Top shape: 50 1024 14 14 (10035200)
I1210 01:55:32.550763  1671 net.cpp:165] Memory required for data: 8780800600
I1210 01:55:32.550783  1671 layer_factory.hpp:77] Creating layer bn4a_branch1
I1210 01:55:32.550812  1671 net.cpp:100] Creating Layer bn4a_branch1
I1210 01:55:32.550832  1671 net.cpp:434] bn4a_branch1 <- res4a_branch1
I1210 01:55:32.550853  1671 net.cpp:395] bn4a_branch1 -> res4a_branch1 (in-place)
I1210 01:55:32.551172  1671 net.cpp:150] Setting up bn4a_branch1
I1210 01:55:32.551198  1671 net.cpp:157] Top shape: 50 1024 14 14 (10035200)
I1210 01:55:32.551214  1671 net.cpp:165] Memory required for data: 8820941400
I1210 01:55:32.551236  1671 layer_factory.hpp:77] Creating layer scale4a_branch1
I1210 01:55:32.551264  1671 net.cpp:100] Creating Layer scale4a_branch1
I1210 01:55:32.551282  1671 net.cpp:434] scale4a_branch1 <- res4a_branch1
I1210 01:55:32.551307  1671 net.cpp:395] scale4a_branch1 -> res4a_branch1 (in-place)
I1210 01:55:32.551388  1671 layer_factory.hpp:77] Creating layer scale4a_branch1
I1210 01:55:32.551594  1671 net.cpp:150] Setting up scale4a_branch1
I1210 01:55:32.551622  1671 net.cpp:157] Top shape: 50 1024 14 14 (10035200)
I1210 01:55:32.551637  1671 net.cpp:165] Memory required for data: 8861082200
I1210 01:55:32.551667  1671 layer_factory.hpp:77] Creating layer res4a_branch2a
I1210 01:55:32.551702  1671 net.cpp:100] Creating Layer res4a_branch2a
I1210 01:55:32.551723  1671 net.cpp:434] res4a_branch2a <- res3d_res3d_relu_0_split_1
I1210 01:55:32.551743  1671 net.cpp:408] res4a_branch2a -> res4a_branch2a
I1210 01:55:32.557189  1671 net.cpp:150] Setting up res4a_branch2a
I1210 01:55:32.557234  1671 net.cpp:157] Top shape: 50 256 14 14 (2508800)
I1210 01:55:32.557250  1671 net.cpp:165] Memory required for data: 8871117400
I1210 01:55:32.557271  1671 layer_factory.hpp:77] Creating layer bn4a_branch2a
I1210 01:55:32.557291  1671 net.cpp:100] Creating Layer bn4a_branch2a
I1210 01:55:32.557308  1671 net.cpp:434] bn4a_branch2a <- res4a_branch2a
I1210 01:55:32.557334  1671 net.cpp:395] bn4a_branch2a -> res4a_branch2a (in-place)
I1210 01:55:32.557642  1671 net.cpp:150] Setting up bn4a_branch2a
I1210 01:55:32.557677  1671 net.cpp:157] Top shape: 50 256 14 14 (2508800)
I1210 01:55:32.557695  1671 net.cpp:165] Memory required for data: 8881152600
I1210 01:55:32.557718  1671 layer_factory.hpp:77] Creating layer scale4a_branch2a
I1210 01:55:32.557737  1671 net.cpp:100] Creating Layer scale4a_branch2a
I1210 01:55:32.557755  1671 net.cpp:434] scale4a_branch2a <- res4a_branch2a
I1210 01:55:32.557773  1671 net.cpp:395] scale4a_branch2a -> res4a_branch2a (in-place)
I1210 01:55:32.557862  1671 layer_factory.hpp:77] Creating layer scale4a_branch2a
I1210 01:55:32.558056  1671 net.cpp:150] Setting up scale4a_branch2a
I1210 01:55:32.558082  1671 net.cpp:157] Top shape: 50 256 14 14 (2508800)
I1210 01:55:32.558097  1671 net.cpp:165] Memory required for data: 8891187800
I1210 01:55:32.558117  1671 layer_factory.hpp:77] Creating layer res4a_branch2a_relu
I1210 01:55:32.558142  1671 net.cpp:100] Creating Layer res4a_branch2a_relu
I1210 01:55:32.558161  1671 net.cpp:434] res4a_branch2a_relu <- res4a_branch2a
I1210 01:55:32.558185  1671 net.cpp:395] res4a_branch2a_relu -> res4a_branch2a (in-place)
I1210 01:55:32.559594  1671 net.cpp:150] Setting up res4a_branch2a_relu
I1210 01:55:32.559634  1671 net.cpp:157] Top shape: 50 256 14 14 (2508800)
I1210 01:55:32.559650  1671 net.cpp:165] Memory required for data: 8901223000
I1210 01:55:32.559679  1671 layer_factory.hpp:77] Creating layer res4a_branch2b
I1210 01:55:32.559712  1671 net.cpp:100] Creating Layer res4a_branch2b
I1210 01:55:32.559734  1671 net.cpp:434] res4a_branch2b <- res4a_branch2a
I1210 01:55:32.559762  1671 net.cpp:408] res4a_branch2b -> res4a_branch2b
I1210 01:55:32.592033  1671 net.cpp:150] Setting up res4a_branch2b
I1210 01:55:32.592077  1671 net.cpp:157] Top shape: 50 256 14 14 (2508800)
I1210 01:55:32.592108  1671 net.cpp:165] Memory required for data: 8911258200
I1210 01:55:32.592139  1671 layer_factory.hpp:77] Creating layer bn4a_branch2b
I1210 01:55:32.592162  1671 net.cpp:100] Creating Layer bn4a_branch2b
I1210 01:55:32.592180  1671 net.cpp:434] bn4a_branch2b <- res4a_branch2b
I1210 01:55:32.592200  1671 net.cpp:395] bn4a_branch2b -> res4a_branch2b (in-place)
I1210 01:55:32.592499  1671 net.cpp:150] Setting up bn4a_branch2b
I1210 01:55:32.592527  1671 net.cpp:157] Top shape: 50 256 14 14 (2508800)
I1210 01:55:32.592542  1671 net.cpp:165] Memory required for data: 8921293400
I1210 01:55:32.592564  1671 layer_factory.hpp:77] Creating layer scale4a_branch2b
I1210 01:55:32.592597  1671 net.cpp:100] Creating Layer scale4a_branch2b
I1210 01:55:32.592615  1671 net.cpp:434] scale4a_branch2b <- res4a_branch2b
I1210 01:55:32.592634  1671 net.cpp:395] scale4a_branch2b -> res4a_branch2b (in-place)
I1210 01:55:32.592727  1671 layer_factory.hpp:77] Creating layer scale4a_branch2b
I1210 01:55:32.592905  1671 net.cpp:150] Setting up scale4a_branch2b
I1210 01:55:32.592931  1671 net.cpp:157] Top shape: 50 256 14 14 (2508800)
I1210 01:55:32.592947  1671 net.cpp:165] Memory required for data: 8931328600
I1210 01:55:32.592965  1671 layer_factory.hpp:77] Creating layer res4a_branch2b_relu
I1210 01:55:32.592985  1671 net.cpp:100] Creating Layer res4a_branch2b_relu
I1210 01:55:32.593003  1671 net.cpp:434] res4a_branch2b_relu <- res4a_branch2b
I1210 01:55:32.593022  1671 net.cpp:395] res4a_branch2b_relu -> res4a_branch2b (in-place)
I1210 01:55:32.593279  1671 net.cpp:150] Setting up res4a_branch2b_relu
I1210 01:55:32.593307  1671 net.cpp:157] Top shape: 50 256 14 14 (2508800)
I1210 01:55:32.593323  1671 net.cpp:165] Memory required for data: 8941363800
I1210 01:55:32.593339  1671 layer_factory.hpp:77] Creating layer res4a_branch2c
I1210 01:55:32.593374  1671 net.cpp:100] Creating Layer res4a_branch2c
I1210 01:55:32.593394  1671 net.cpp:434] res4a_branch2c <- res4a_branch2b
I1210 01:55:32.593415  1671 net.cpp:408] res4a_branch2c -> res4a_branch2c
I1210 01:55:32.606034  1671 net.cpp:150] Setting up res4a_branch2c
I1210 01:55:32.606076  1671 net.cpp:157] Top shape: 50 1024 14 14 (10035200)
I1210 01:55:32.606094  1671 net.cpp:165] Memory required for data: 8981504600
I1210 01:55:32.606114  1671 layer_factory.hpp:77] Creating layer bn4a_branch2c
I1210 01:55:32.606144  1671 net.cpp:100] Creating Layer bn4a_branch2c
I1210 01:55:32.606166  1671 net.cpp:434] bn4a_branch2c <- res4a_branch2c
I1210 01:55:32.606185  1671 net.cpp:395] bn4a_branch2c -> res4a_branch2c (in-place)
I1210 01:55:32.606495  1671 net.cpp:150] Setting up bn4a_branch2c
I1210 01:55:32.606523  1671 net.cpp:157] Top shape: 50 1024 14 14 (10035200)
I1210 01:55:32.606539  1671 net.cpp:165] Memory required for data: 9021645400
I1210 01:55:32.606595  1671 layer_factory.hpp:77] Creating layer scale4a_branch2c
I1210 01:55:32.606621  1671 net.cpp:100] Creating Layer scale4a_branch2c
I1210 01:55:32.606639  1671 net.cpp:434] scale4a_branch2c <- res4a_branch2c
I1210 01:55:32.606664  1671 net.cpp:395] scale4a_branch2c -> res4a_branch2c (in-place)
I1210 01:55:32.606756  1671 layer_factory.hpp:77] Creating layer scale4a_branch2c
I1210 01:55:32.606958  1671 net.cpp:150] Setting up scale4a_branch2c
I1210 01:55:32.606986  1671 net.cpp:157] Top shape: 50 1024 14 14 (10035200)
I1210 01:55:32.607000  1671 net.cpp:165] Memory required for data: 9061786200
I1210 01:55:32.607020  1671 layer_factory.hpp:77] Creating layer res4a
I1210 01:55:32.607049  1671 net.cpp:100] Creating Layer res4a
I1210 01:55:32.607069  1671 net.cpp:434] res4a <- res4a_branch1
I1210 01:55:32.607087  1671 net.cpp:434] res4a <- res4a_branch2c
I1210 01:55:32.607106  1671 net.cpp:408] res4a -> res4a
I1210 01:55:32.607172  1671 net.cpp:150] Setting up res4a
I1210 01:55:32.607197  1671 net.cpp:157] Top shape: 50 1024 14 14 (10035200)
I1210 01:55:32.607213  1671 net.cpp:165] Memory required for data: 9101927000
I1210 01:55:32.607228  1671 layer_factory.hpp:77] Creating layer res4a_relu
I1210 01:55:32.607264  1671 net.cpp:100] Creating Layer res4a_relu
I1210 01:55:32.607297  1671 net.cpp:434] res4a_relu <- res4a
I1210 01:55:32.607323  1671 net.cpp:395] res4a_relu -> res4a (in-place)
I1210 01:55:32.607595  1671 net.cpp:150] Setting up res4a_relu
I1210 01:55:32.607625  1671 net.cpp:157] Top shape: 50 1024 14 14 (10035200)
I1210 01:55:32.607641  1671 net.cpp:165] Memory required for data: 9142067800
I1210 01:55:32.607674  1671 layer_factory.hpp:77] Creating layer res4a_res4a_relu_0_split
I1210 01:55:32.607728  1671 net.cpp:100] Creating Layer res4a_res4a_relu_0_split
I1210 01:55:32.607749  1671 net.cpp:434] res4a_res4a_relu_0_split <- res4a
I1210 01:55:32.607769  1671 net.cpp:408] res4a_res4a_relu_0_split -> res4a_res4a_relu_0_split_0
I1210 01:55:32.607800  1671 net.cpp:408] res4a_res4a_relu_0_split -> res4a_res4a_relu_0_split_1
I1210 01:55:32.607883  1671 net.cpp:150] Setting up res4a_res4a_relu_0_split
I1210 01:55:32.607908  1671 net.cpp:157] Top shape: 50 1024 14 14 (10035200)
I1210 01:55:32.607925  1671 net.cpp:157] Top shape: 50 1024 14 14 (10035200)
I1210 01:55:32.607939  1671 net.cpp:165] Memory required for data: 9222349400
I1210 01:55:32.607955  1671 layer_factory.hpp:77] Creating layer res4b_branch2a
I1210 01:55:32.607988  1671 net.cpp:100] Creating Layer res4b_branch2a
I1210 01:55:32.608007  1671 net.cpp:434] res4b_branch2a <- res4a_res4a_relu_0_split_0
I1210 01:55:32.608034  1671 net.cpp:408] res4b_branch2a -> res4b_branch2a
I1210 01:55:32.620065  1671 net.cpp:150] Setting up res4b_branch2a
I1210 01:55:32.620107  1671 net.cpp:157] Top shape: 50 256 14 14 (2508800)
I1210 01:55:32.620126  1671 net.cpp:165] Memory required for data: 9232384600
I1210 01:55:32.620146  1671 layer_factory.hpp:77] Creating layer bn4b_branch2a
I1210 01:55:32.620173  1671 net.cpp:100] Creating Layer bn4b_branch2a
I1210 01:55:32.620194  1671 net.cpp:434] bn4b_branch2a <- res4b_branch2a
I1210 01:55:32.620214  1671 net.cpp:395] bn4b_branch2a -> res4b_branch2a (in-place)
I1210 01:55:32.620517  1671 net.cpp:150] Setting up bn4b_branch2a
I1210 01:55:32.620543  1671 net.cpp:157] Top shape: 50 256 14 14 (2508800)
I1210 01:55:32.620559  1671 net.cpp:165] Memory required for data: 9242419800
I1210 01:55:32.620581  1671 layer_factory.hpp:77] Creating layer scale4b_branch2a
I1210 01:55:32.620609  1671 net.cpp:100] Creating Layer scale4b_branch2a
I1210 01:55:32.620630  1671 net.cpp:434] scale4b_branch2a <- res4b_branch2a
I1210 01:55:32.620648  1671 net.cpp:395] scale4b_branch2a -> res4b_branch2a (in-place)
I1210 01:55:32.620749  1671 layer_factory.hpp:77] Creating layer scale4b_branch2a
I1210 01:55:32.620949  1671 net.cpp:150] Setting up scale4b_branch2a
I1210 01:55:32.620975  1671 net.cpp:157] Top shape: 50 256 14 14 (2508800)
I1210 01:55:32.620991  1671 net.cpp:165] Memory required for data: 9252455000
I1210 01:55:32.621016  1671 layer_factory.hpp:77] Creating layer res4b_branch2a_relu
I1210 01:55:32.621039  1671 net.cpp:100] Creating Layer res4b_branch2a_relu
I1210 01:55:32.621057  1671 net.cpp:434] res4b_branch2a_relu <- res4b_branch2a
I1210 01:55:32.621080  1671 net.cpp:395] res4b_branch2a_relu -> res4b_branch2a (in-place)
I1210 01:55:32.621352  1671 net.cpp:150] Setting up res4b_branch2a_relu
I1210 01:55:32.621381  1671 net.cpp:157] Top shape: 50 256 14 14 (2508800)
I1210 01:55:32.621397  1671 net.cpp:165] Memory required for data: 9262490200
I1210 01:55:32.621413  1671 layer_factory.hpp:77] Creating layer res4b_branch2b
I1210 01:55:32.621441  1671 net.cpp:100] Creating Layer res4b_branch2b
I1210 01:55:32.621462  1671 net.cpp:434] res4b_branch2b <- res4b_branch2a
I1210 01:55:32.621490  1671 net.cpp:408] res4b_branch2b -> res4b_branch2b
I1210 01:55:32.652987  1671 net.cpp:150] Setting up res4b_branch2b
I1210 01:55:32.653028  1671 net.cpp:157] Top shape: 50 256 14 14 (2508800)
I1210 01:55:32.653048  1671 net.cpp:165] Memory required for data: 9272525400
I1210 01:55:32.653066  1671 layer_factory.hpp:77] Creating layer bn4b_branch2b
I1210 01:55:32.653087  1671 net.cpp:100] Creating Layer bn4b_branch2b
I1210 01:55:32.653106  1671 net.cpp:434] bn4b_branch2b <- res4b_branch2b
I1210 01:55:32.653182  1671 net.cpp:395] bn4b_branch2b -> res4b_branch2b (in-place)
I1210 01:55:32.653602  1671 net.cpp:150] Setting up bn4b_branch2b
I1210 01:55:32.653632  1671 net.cpp:157] Top shape: 50 256 14 14 (2508800)
I1210 01:55:32.653648  1671 net.cpp:165] Memory required for data: 9282560600
I1210 01:55:32.653681  1671 layer_factory.hpp:77] Creating layer scale4b_branch2b
I1210 01:55:32.653728  1671 net.cpp:100] Creating Layer scale4b_branch2b
I1210 01:55:32.653750  1671 net.cpp:434] scale4b_branch2b <- res4b_branch2b
I1210 01:55:32.653794  1671 net.cpp:395] scale4b_branch2b -> res4b_branch2b (in-place)
I1210 01:55:32.653906  1671 layer_factory.hpp:77] Creating layer scale4b_branch2b
I1210 01:55:32.654168  1671 net.cpp:150] Setting up scale4b_branch2b
I1210 01:55:32.654197  1671 net.cpp:157] Top shape: 50 256 14 14 (2508800)
I1210 01:55:32.654212  1671 net.cpp:165] Memory required for data: 9292595800
I1210 01:55:32.654237  1671 layer_factory.hpp:77] Creating layer res4b_branch2b_relu
I1210 01:55:32.654284  1671 net.cpp:100] Creating Layer res4b_branch2b_relu
I1210 01:55:32.654306  1671 net.cpp:434] res4b_branch2b_relu <- res4b_branch2b
I1210 01:55:32.654325  1671 net.cpp:395] res4b_branch2b_relu -> res4b_branch2b (in-place)
I1210 01:55:32.654709  1671 net.cpp:150] Setting up res4b_branch2b_relu
I1210 01:55:32.654745  1671 net.cpp:157] Top shape: 50 256 14 14 (2508800)
I1210 01:55:32.654762  1671 net.cpp:165] Memory required for data: 9302631000
I1210 01:55:32.654778  1671 layer_factory.hpp:77] Creating layer res4b_branch2c
I1210 01:55:32.654839  1671 net.cpp:100] Creating Layer res4b_branch2c
I1210 01:55:32.654861  1671 net.cpp:434] res4b_branch2c <- res4b_branch2b
I1210 01:55:32.654883  1671 net.cpp:408] res4b_branch2c -> res4b_branch2c
I1210 01:55:32.668634  1671 net.cpp:150] Setting up res4b_branch2c
I1210 01:55:32.668686  1671 net.cpp:157] Top shape: 50 1024 14 14 (10035200)
I1210 01:55:32.668706  1671 net.cpp:165] Memory required for data: 9342771800
I1210 01:55:32.668725  1671 layer_factory.hpp:77] Creating layer bn4b_branch2c
I1210 01:55:32.668754  1671 net.cpp:100] Creating Layer bn4b_branch2c
I1210 01:55:32.668776  1671 net.cpp:434] bn4b_branch2c <- res4b_branch2c
I1210 01:55:32.668795  1671 net.cpp:395] bn4b_branch2c -> res4b_branch2c (in-place)
I1210 01:55:32.669150  1671 net.cpp:150] Setting up bn4b_branch2c
I1210 01:55:32.669178  1671 net.cpp:157] Top shape: 50 1024 14 14 (10035200)
I1210 01:55:32.669193  1671 net.cpp:165] Memory required for data: 9382912600
I1210 01:55:32.669214  1671 layer_factory.hpp:77] Creating layer scale4b_branch2c
I1210 01:55:32.669242  1671 net.cpp:100] Creating Layer scale4b_branch2c
I1210 01:55:32.669260  1671 net.cpp:434] scale4b_branch2c <- res4b_branch2c
I1210 01:55:32.669287  1671 net.cpp:395] scale4b_branch2c -> res4b_branch2c (in-place)
I1210 01:55:32.669368  1671 layer_factory.hpp:77] Creating layer scale4b_branch2c
I1210 01:55:32.669581  1671 net.cpp:150] Setting up scale4b_branch2c
I1210 01:55:32.669608  1671 net.cpp:157] Top shape: 50 1024 14 14 (10035200)
I1210 01:55:32.669623  1671 net.cpp:165] Memory required for data: 9423053400
I1210 01:55:32.669643  1671 layer_factory.hpp:77] Creating layer res4b
I1210 01:55:32.669672  1671 net.cpp:100] Creating Layer res4b
I1210 01:55:32.669692  1671 net.cpp:434] res4b <- res4a_res4a_relu_0_split_1
I1210 01:55:32.669709  1671 net.cpp:434] res4b <- res4b_branch2c
I1210 01:55:32.669728  1671 net.cpp:408] res4b -> res4b
I1210 01:55:32.669796  1671 net.cpp:150] Setting up res4b
I1210 01:55:32.669821  1671 net.cpp:157] Top shape: 50 1024 14 14 (10035200)
I1210 01:55:32.669836  1671 net.cpp:165] Memory required for data: 9463194200
I1210 01:55:32.669855  1671 layer_factory.hpp:77] Creating layer res4b_relu
I1210 01:55:32.669881  1671 net.cpp:100] Creating Layer res4b_relu
I1210 01:55:32.669901  1671 net.cpp:434] res4b_relu <- res4b
I1210 01:55:32.669919  1671 net.cpp:395] res4b_relu -> res4b (in-place)
I1210 01:55:32.671316  1671 net.cpp:150] Setting up res4b_relu
I1210 01:55:32.671356  1671 net.cpp:157] Top shape: 50 1024 14 14 (10035200)
I1210 01:55:32.671402  1671 net.cpp:165] Memory required for data: 9503335000
I1210 01:55:32.671422  1671 layer_factory.hpp:77] Creating layer res4b_res4b_relu_0_split
I1210 01:55:32.671447  1671 net.cpp:100] Creating Layer res4b_res4b_relu_0_split
I1210 01:55:32.671468  1671 net.cpp:434] res4b_res4b_relu_0_split <- res4b
I1210 01:55:32.671488  1671 net.cpp:408] res4b_res4b_relu_0_split -> res4b_res4b_relu_0_split_0
I1210 01:55:32.671510  1671 net.cpp:408] res4b_res4b_relu_0_split -> res4b_res4b_relu_0_split_1
I1210 01:55:32.671614  1671 net.cpp:150] Setting up res4b_res4b_relu_0_split
I1210 01:55:32.671640  1671 net.cpp:157] Top shape: 50 1024 14 14 (10035200)
I1210 01:55:32.671667  1671 net.cpp:157] Top shape: 50 1024 14 14 (10035200)
I1210 01:55:32.671685  1671 net.cpp:165] Memory required for data: 9583616600
I1210 01:55:32.671701  1671 layer_factory.hpp:77] Creating layer res4c_branch2a
I1210 01:55:32.671736  1671 net.cpp:100] Creating Layer res4c_branch2a
I1210 01:55:32.671756  1671 net.cpp:434] res4c_branch2a <- res4b_res4b_relu_0_split_0
I1210 01:55:32.671782  1671 net.cpp:408] res4c_branch2a -> res4c_branch2a
I1210 01:55:32.681509  1671 net.cpp:150] Setting up res4c_branch2a
I1210 01:55:32.681555  1671 net.cpp:157] Top shape: 50 256 14 14 (2508800)
I1210 01:55:32.681573  1671 net.cpp:165] Memory required for data: 9593651800
I1210 01:55:32.681593  1671 layer_factory.hpp:77] Creating layer bn4c_branch2a
I1210 01:55:32.681613  1671 net.cpp:100] Creating Layer bn4c_branch2a
I1210 01:55:32.681632  1671 net.cpp:434] bn4c_branch2a <- res4c_branch2a
I1210 01:55:32.681658  1671 net.cpp:395] bn4c_branch2a -> res4c_branch2a (in-place)
I1210 01:55:32.681977  1671 net.cpp:150] Setting up bn4c_branch2a
I1210 01:55:32.682003  1671 net.cpp:157] Top shape: 50 256 14 14 (2508800)
I1210 01:55:32.682018  1671 net.cpp:165] Memory required for data: 9603687000
I1210 01:55:32.682045  1671 layer_factory.hpp:77] Creating layer scale4c_branch2a
I1210 01:55:32.682068  1671 net.cpp:100] Creating Layer scale4c_branch2a
I1210 01:55:32.682086  1671 net.cpp:434] scale4c_branch2a <- res4c_branch2a
I1210 01:55:32.682104  1671 net.cpp:395] scale4c_branch2a -> res4c_branch2a (in-place)
I1210 01:55:32.682195  1671 layer_factory.hpp:77] Creating layer scale4c_branch2a
I1210 01:55:32.682396  1671 net.cpp:150] Setting up scale4c_branch2a
I1210 01:55:32.682423  1671 net.cpp:157] Top shape: 50 256 14 14 (2508800)
I1210 01:55:32.682440  1671 net.cpp:165] Memory required for data: 9613722200
I1210 01:55:32.682458  1671 layer_factory.hpp:77] Creating layer res4c_branch2a_relu
I1210 01:55:32.682484  1671 net.cpp:100] Creating Layer res4c_branch2a_relu
I1210 01:55:32.682502  1671 net.cpp:434] res4c_branch2a_relu <- res4c_branch2a
I1210 01:55:32.682526  1671 net.cpp:395] res4c_branch2a_relu -> res4c_branch2a (in-place)
I1210 01:55:32.684010  1671 net.cpp:150] Setting up res4c_branch2a_relu
I1210 01:55:32.684051  1671 net.cpp:157] Top shape: 50 256 14 14 (2508800)
I1210 01:55:32.684067  1671 net.cpp:165] Memory required for data: 9623757400
I1210 01:55:32.684084  1671 layer_factory.hpp:77] Creating layer res4c_branch2b
I1210 01:55:32.684113  1671 net.cpp:100] Creating Layer res4c_branch2b
I1210 01:55:32.684134  1671 net.cpp:434] res4c_branch2b <- res4c_branch2a
I1210 01:55:32.684162  1671 net.cpp:408] res4c_branch2b -> res4c_branch2b
I1210 01:55:32.709571  1671 net.cpp:150] Setting up res4c_branch2b
I1210 01:55:32.709614  1671 net.cpp:157] Top shape: 50 256 14 14 (2508800)
I1210 01:55:32.709631  1671 net.cpp:165] Memory required for data: 9633792600
I1210 01:55:32.709651  1671 layer_factory.hpp:77] Creating layer bn4c_branch2b
I1210 01:55:32.709689  1671 net.cpp:100] Creating Layer bn4c_branch2b
I1210 01:55:32.709712  1671 net.cpp:434] bn4c_branch2b <- res4c_branch2b
I1210 01:55:32.709738  1671 net.cpp:395] bn4c_branch2b -> res4c_branch2b (in-place)
I1210 01:55:32.710052  1671 net.cpp:150] Setting up bn4c_branch2b
I1210 01:55:32.710079  1671 net.cpp:157] Top shape: 50 256 14 14 (2508800)
I1210 01:55:32.710094  1671 net.cpp:165] Memory required for data: 9643827800
I1210 01:55:32.710150  1671 layer_factory.hpp:77] Creating layer scale4c_branch2b
I1210 01:55:32.710182  1671 net.cpp:100] Creating Layer scale4c_branch2b
I1210 01:55:32.710204  1671 net.cpp:434] scale4c_branch2b <- res4c_branch2b
I1210 01:55:32.710223  1671 net.cpp:395] scale4c_branch2b -> res4c_branch2b (in-place)
I1210 01:55:32.710316  1671 layer_factory.hpp:77] Creating layer scale4c_branch2b
I1210 01:55:32.710516  1671 net.cpp:150] Setting up scale4c_branch2b
I1210 01:55:32.710543  1671 net.cpp:157] Top shape: 50 256 14 14 (2508800)
I1210 01:55:32.710588  1671 net.cpp:165] Memory required for data: 9653863000
I1210 01:55:32.710609  1671 layer_factory.hpp:77] Creating layer res4c_branch2b_relu
I1210 01:55:32.710636  1671 net.cpp:100] Creating Layer res4c_branch2b_relu
I1210 01:55:32.710654  1671 net.cpp:434] res4c_branch2b_relu <- res4c_branch2b
I1210 01:55:32.710688  1671 net.cpp:395] res4c_branch2b_relu -> res4c_branch2b (in-place)
I1210 01:55:32.710970  1671 net.cpp:150] Setting up res4c_branch2b_relu
I1210 01:55:32.710999  1671 net.cpp:157] Top shape: 50 256 14 14 (2508800)
I1210 01:55:32.711015  1671 net.cpp:165] Memory required for data: 9663898200
I1210 01:55:32.711031  1671 layer_factory.hpp:77] Creating layer res4c_branch2c
I1210 01:55:32.711061  1671 net.cpp:100] Creating Layer res4c_branch2c
I1210 01:55:32.711081  1671 net.cpp:434] res4c_branch2c <- res4c_branch2b
I1210 01:55:32.711109  1671 net.cpp:408] res4c_branch2c -> res4c_branch2c
I1210 01:55:32.727753  1671 net.cpp:150] Setting up res4c_branch2c
I1210 01:55:32.727797  1671 net.cpp:157] Top shape: 50 1024 14 14 (10035200)
I1210 01:55:32.727815  1671 net.cpp:165] Memory required for data: 9704039000
I1210 01:55:32.727835  1671 layer_factory.hpp:77] Creating layer bn4c_branch2c
I1210 01:55:32.727856  1671 net.cpp:100] Creating Layer bn4c_branch2c
I1210 01:55:32.727874  1671 net.cpp:434] bn4c_branch2c <- res4c_branch2c
I1210 01:55:32.727916  1671 net.cpp:395] bn4c_branch2c -> res4c_branch2c (in-place)
I1210 01:55:32.728364  1671 net.cpp:150] Setting up bn4c_branch2c
I1210 01:55:32.728394  1671 net.cpp:157] Top shape: 50 1024 14 14 (10035200)
I1210 01:55:32.728410  1671 net.cpp:165] Memory required for data: 9744179800
I1210 01:55:32.728432  1671 layer_factory.hpp:77] Creating layer scale4c_branch2c
I1210 01:55:32.728463  1671 net.cpp:100] Creating Layer scale4c_branch2c
I1210 01:55:32.728482  1671 net.cpp:434] scale4c_branch2c <- res4c_branch2c
I1210 01:55:32.728502  1671 net.cpp:395] scale4c_branch2c -> res4c_branch2c (in-place)
I1210 01:55:32.728608  1671 layer_factory.hpp:77] Creating layer scale4c_branch2c
I1210 01:55:32.728935  1671 net.cpp:150] Setting up scale4c_branch2c
I1210 01:55:32.728963  1671 net.cpp:157] Top shape: 50 1024 14 14 (10035200)
I1210 01:55:32.728979  1671 net.cpp:165] Memory required for data: 9784320600
I1210 01:55:32.728999  1671 layer_factory.hpp:77] Creating layer res4c
I1210 01:55:32.729043  1671 net.cpp:100] Creating Layer res4c
I1210 01:55:32.729066  1671 net.cpp:434] res4c <- res4b_res4b_relu_0_split_1
I1210 01:55:32.729084  1671 net.cpp:434] res4c <- res4c_branch2c
I1210 01:55:32.729104  1671 net.cpp:408] res4c -> res4c
I1210 01:55:32.729193  1671 net.cpp:150] Setting up res4c
I1210 01:55:32.729220  1671 net.cpp:157] Top shape: 50 1024 14 14 (10035200)
I1210 01:55:32.729235  1671 net.cpp:165] Memory required for data: 9824461400
I1210 01:55:32.729250  1671 layer_factory.hpp:77] Creating layer res4c_relu
I1210 01:55:32.729269  1671 net.cpp:100] Creating Layer res4c_relu
I1210 01:55:32.729285  1671 net.cpp:434] res4c_relu <- res4c
I1210 01:55:32.729331  1671 net.cpp:395] res4c_relu -> res4c (in-place)
I1210 01:55:32.729692  1671 net.cpp:150] Setting up res4c_relu
I1210 01:55:32.729725  1671 net.cpp:157] Top shape: 50 1024 14 14 (10035200)
I1210 01:55:32.729742  1671 net.cpp:165] Memory required for data: 9864602200
I1210 01:55:32.729758  1671 layer_factory.hpp:77] Creating layer res4c_res4c_relu_0_split
I1210 01:55:32.729776  1671 net.cpp:100] Creating Layer res4c_res4c_relu_0_split
I1210 01:55:32.729840  1671 net.cpp:434] res4c_res4c_relu_0_split <- res4c
I1210 01:55:32.729913  1671 net.cpp:408] res4c_res4c_relu_0_split -> res4c_res4c_relu_0_split_0
I1210 01:55:32.729941  1671 net.cpp:408] res4c_res4c_relu_0_split -> res4c_res4c_relu_0_split_1
I1210 01:55:32.730060  1671 net.cpp:150] Setting up res4c_res4c_relu_0_split
I1210 01:55:32.730087  1671 net.cpp:157] Top shape: 50 1024 14 14 (10035200)
I1210 01:55:32.730104  1671 net.cpp:157] Top shape: 50 1024 14 14 (10035200)
I1210 01:55:32.730119  1671 net.cpp:165] Memory required for data: 9944883800
I1210 01:55:32.730135  1671 layer_factory.hpp:77] Creating layer res4d_branch2a
I1210 01:55:32.730182  1671 net.cpp:100] Creating Layer res4d_branch2a
I1210 01:55:32.730206  1671 net.cpp:434] res4d_branch2a <- res4c_res4c_relu_0_split_0
I1210 01:55:32.730226  1671 net.cpp:408] res4d_branch2a -> res4d_branch2a
I1210 01:55:32.741637  1671 net.cpp:150] Setting up res4d_branch2a
I1210 01:55:32.741688  1671 net.cpp:157] Top shape: 50 256 14 14 (2508800)
I1210 01:55:32.741708  1671 net.cpp:165] Memory required for data: 9954919000
I1210 01:55:32.741732  1671 layer_factory.hpp:77] Creating layer bn4d_branch2a
I1210 01:55:32.741780  1671 net.cpp:100] Creating Layer bn4d_branch2a
I1210 01:55:32.741803  1671 net.cpp:434] bn4d_branch2a <- res4d_branch2a
I1210 01:55:32.741823  1671 net.cpp:395] bn4d_branch2a -> res4d_branch2a (in-place)
I1210 01:55:32.742252  1671 net.cpp:150] Setting up bn4d_branch2a
I1210 01:55:32.742281  1671 net.cpp:157] Top shape: 50 256 14 14 (2508800)
I1210 01:55:32.742297  1671 net.cpp:165] Memory required for data: 9964954200
I1210 01:55:32.742319  1671 layer_factory.hpp:77] Creating layer scale4d_branch2a
I1210 01:55:32.742341  1671 net.cpp:100] Creating Layer scale4d_branch2a
I1210 01:55:32.742357  1671 net.cpp:434] scale4d_branch2a <- res4d_branch2a
I1210 01:55:32.742400  1671 net.cpp:395] scale4d_branch2a -> res4d_branch2a (in-place)
I1210 01:55:32.742488  1671 layer_factory.hpp:77] Creating layer scale4d_branch2a
I1210 01:55:32.742797  1671 net.cpp:150] Setting up scale4d_branch2a
I1210 01:55:32.742856  1671 net.cpp:157] Top shape: 50 256 14 14 (2508800)
I1210 01:55:32.742875  1671 net.cpp:165] Memory required for data: 9974989400
I1210 01:55:32.742897  1671 layer_factory.hpp:77] Creating layer res4d_branch2a_relu
I1210 01:55:32.742916  1671 net.cpp:100] Creating Layer res4d_branch2a_relu
I1210 01:55:32.742933  1671 net.cpp:434] res4d_branch2a_relu <- res4d_branch2a
I1210 01:55:32.742951  1671 net.cpp:395] res4d_branch2a_relu -> res4d_branch2a (in-place)
I1210 01:55:32.743338  1671 net.cpp:150] Setting up res4d_branch2a_relu
I1210 01:55:32.743371  1671 net.cpp:157] Top shape: 50 256 14 14 (2508800)
I1210 01:55:32.743386  1671 net.cpp:165] Memory required for data: 9985024600
I1210 01:55:32.743402  1671 layer_factory.hpp:77] Creating layer res4d_branch2b
I1210 01:55:32.743450  1671 net.cpp:100] Creating Layer res4d_branch2b
I1210 01:55:32.743472  1671 net.cpp:434] res4d_branch2b <- res4d_branch2a
I1210 01:55:32.743494  1671 net.cpp:408] res4d_branch2b -> res4d_branch2b
I1210 01:55:32.777084  1671 net.cpp:150] Setting up res4d_branch2b
I1210 01:55:32.777127  1671 net.cpp:157] Top shape: 50 256 14 14 (2508800)
I1210 01:55:32.777146  1671 net.cpp:165] Memory required for data: 9995059800
I1210 01:55:32.777170  1671 layer_factory.hpp:77] Creating layer bn4d_branch2b
I1210 01:55:32.777217  1671 net.cpp:100] Creating Layer bn4d_branch2b
I1210 01:55:32.777240  1671 net.cpp:434] bn4d_branch2b <- res4d_branch2b
I1210 01:55:32.777261  1671 net.cpp:395] bn4d_branch2b -> res4d_branch2b (in-place)
I1210 01:55:32.777706  1671 net.cpp:150] Setting up bn4d_branch2b
I1210 01:55:32.777736  1671 net.cpp:157] Top shape: 50 256 14 14 (2508800)
I1210 01:55:32.777752  1671 net.cpp:165] Memory required for data: 10005095000
I1210 01:55:32.777775  1671 layer_factory.hpp:77] Creating layer scale4d_branch2b
I1210 01:55:32.777796  1671 net.cpp:100] Creating Layer scale4d_branch2b
I1210 01:55:32.777813  1671 net.cpp:434] scale4d_branch2b <- res4d_branch2b
I1210 01:55:32.777905  1671 net.cpp:395] scale4d_branch2b -> res4d_branch2b (in-place)
I1210 01:55:32.778024  1671 layer_factory.hpp:77] Creating layer scale4d_branch2b
I1210 01:55:32.778300  1671 net.cpp:150] Setting up scale4d_branch2b
I1210 01:55:32.778348  1671 net.cpp:157] Top shape: 50 256 14 14 (2508800)
I1210 01:55:32.778365  1671 net.cpp:165] Memory required for data: 10015130200
I1210 01:55:32.778386  1671 layer_factory.hpp:77] Creating layer res4d_branch2b_relu
I1210 01:55:32.778411  1671 net.cpp:100] Creating Layer res4d_branch2b_relu
I1210 01:55:32.778430  1671 net.cpp:434] res4d_branch2b_relu <- res4d_branch2b
I1210 01:55:32.778447  1671 net.cpp:395] res4d_branch2b_relu -> res4d_branch2b (in-place)
I1210 01:55:32.778887  1671 net.cpp:150] Setting up res4d_branch2b_relu
I1210 01:55:32.778923  1671 net.cpp:157] Top shape: 50 256 14 14 (2508800)
I1210 01:55:32.778939  1671 net.cpp:165] Memory required for data: 10025165400
I1210 01:55:32.778955  1671 layer_factory.hpp:77] Creating layer res4d_branch2c
I1210 01:55:32.779002  1671 net.cpp:100] Creating Layer res4d_branch2c
I1210 01:55:32.779026  1671 net.cpp:434] res4d_branch2c <- res4d_branch2b
I1210 01:55:32.779048  1671 net.cpp:408] res4d_branch2c -> res4d_branch2c
I1210 01:55:32.795696  1671 net.cpp:150] Setting up res4d_branch2c
I1210 01:55:32.795742  1671 net.cpp:157] Top shape: 50 1024 14 14 (10035200)
I1210 01:55:32.795759  1671 net.cpp:165] Memory required for data: 10065306200
I1210 01:55:32.795778  1671 layer_factory.hpp:77] Creating layer bn4d_branch2c
I1210 01:55:32.795809  1671 net.cpp:100] Creating Layer bn4d_branch2c
I1210 01:55:32.795827  1671 net.cpp:434] bn4d_branch2c <- res4d_branch2c
I1210 01:55:32.795850  1671 net.cpp:395] bn4d_branch2c -> res4d_branch2c (in-place)
I1210 01:55:32.796190  1671 net.cpp:150] Setting up bn4d_branch2c
I1210 01:55:32.796216  1671 net.cpp:157] Top shape: 50 1024 14 14 (10035200)
I1210 01:55:32.796232  1671 net.cpp:165] Memory required for data: 10105447000
I1210 01:55:32.796255  1671 layer_factory.hpp:77] Creating layer scale4d_branch2c
I1210 01:55:32.796275  1671 net.cpp:100] Creating Layer scale4d_branch2c
I1210 01:55:32.796293  1671 net.cpp:434] scale4d_branch2c <- res4d_branch2c
I1210 01:55:32.796311  1671 net.cpp:395] scale4d_branch2c -> res4d_branch2c (in-place)
I1210 01:55:32.796393  1671 layer_factory.hpp:77] Creating layer scale4d_branch2c
I1210 01:55:32.796587  1671 net.cpp:150] Setting up scale4d_branch2c
I1210 01:55:32.796613  1671 net.cpp:157] Top shape: 50 1024 14 14 (10035200)
I1210 01:55:32.796628  1671 net.cpp:165] Memory required for data: 10145587800
I1210 01:55:32.796648  1671 layer_factory.hpp:77] Creating layer res4d
I1210 01:55:32.796685  1671 net.cpp:100] Creating Layer res4d
I1210 01:55:32.796705  1671 net.cpp:434] res4d <- res4c_res4c_relu_0_split_1
I1210 01:55:32.796725  1671 net.cpp:434] res4d <- res4d_branch2c
I1210 01:55:32.796746  1671 net.cpp:408] res4d -> res4d
I1210 01:55:32.796808  1671 net.cpp:150] Setting up res4d
I1210 01:55:32.796831  1671 net.cpp:157] Top shape: 50 1024 14 14 (10035200)
I1210 01:55:32.796845  1671 net.cpp:165] Memory required for data: 10185728600
I1210 01:55:32.796861  1671 layer_factory.hpp:77] Creating layer res4d_relu
I1210 01:55:32.796882  1671 net.cpp:100] Creating Layer res4d_relu
I1210 01:55:32.796900  1671 net.cpp:434] res4d_relu <- res4d
I1210 01:55:32.796917  1671 net.cpp:395] res4d_relu -> res4d (in-place)
I1210 01:55:32.798287  1671 net.cpp:150] Setting up res4d_relu
I1210 01:55:32.798326  1671 net.cpp:157] Top shape: 50 1024 14 14 (10035200)
I1210 01:55:32.798342  1671 net.cpp:165] Memory required for data: 10225869400
I1210 01:55:32.798358  1671 layer_factory.hpp:77] Creating layer res4d_res4d_relu_0_split
I1210 01:55:32.798377  1671 net.cpp:100] Creating Layer res4d_res4d_relu_0_split
I1210 01:55:32.798394  1671 net.cpp:434] res4d_res4d_relu_0_split <- res4d
I1210 01:55:32.798413  1671 net.cpp:408] res4d_res4d_relu_0_split -> res4d_res4d_relu_0_split_0
I1210 01:55:32.798439  1671 net.cpp:408] res4d_res4d_relu_0_split -> res4d_res4d_relu_0_split_1
I1210 01:55:32.798532  1671 net.cpp:150] Setting up res4d_res4d_relu_0_split
I1210 01:55:32.798591  1671 net.cpp:157] Top shape: 50 1024 14 14 (10035200)
I1210 01:55:32.798611  1671 net.cpp:157] Top shape: 50 1024 14 14 (10035200)
I1210 01:55:32.798626  1671 net.cpp:165] Memory required for data: 10306151000
I1210 01:55:32.798650  1671 layer_factory.hpp:77] Creating layer res4e_branch2a
I1210 01:55:32.798686  1671 net.cpp:100] Creating Layer res4e_branch2a
I1210 01:55:32.798707  1671 net.cpp:434] res4e_branch2a <- res4d_res4d_relu_0_split_0
I1210 01:55:32.798729  1671 net.cpp:408] res4e_branch2a -> res4e_branch2a
I1210 01:55:32.808329  1671 net.cpp:150] Setting up res4e_branch2a
I1210 01:55:32.808369  1671 net.cpp:157] Top shape: 50 256 14 14 (2508800)
I1210 01:55:32.808387  1671 net.cpp:165] Memory required for data: 10316186200
I1210 01:55:32.808406  1671 layer_factory.hpp:77] Creating layer bn4e_branch2a
I1210 01:55:32.808434  1671 net.cpp:100] Creating Layer bn4e_branch2a
I1210 01:55:32.808455  1671 net.cpp:434] bn4e_branch2a <- res4e_branch2a
I1210 01:55:32.808477  1671 net.cpp:395] bn4e_branch2a -> res4e_branch2a (in-place)
I1210 01:55:32.808784  1671 net.cpp:150] Setting up bn4e_branch2a
I1210 01:55:32.808809  1671 net.cpp:157] Top shape: 50 256 14 14 (2508800)
I1210 01:55:32.808825  1671 net.cpp:165] Memory required for data: 10326221400
I1210 01:55:32.808846  1671 layer_factory.hpp:77] Creating layer scale4e_branch2a
I1210 01:55:32.808867  1671 net.cpp:100] Creating Layer scale4e_branch2a
I1210 01:55:32.808884  1671 net.cpp:434] scale4e_branch2a <- res4e_branch2a
I1210 01:55:32.808903  1671 net.cpp:395] scale4e_branch2a -> res4e_branch2a (in-place)
I1210 01:55:32.808987  1671 layer_factory.hpp:77] Creating layer scale4e_branch2a
I1210 01:55:32.809171  1671 net.cpp:150] Setting up scale4e_branch2a
I1210 01:55:32.809197  1671 net.cpp:157] Top shape: 50 256 14 14 (2508800)
I1210 01:55:32.809212  1671 net.cpp:165] Memory required for data: 10336256600
I1210 01:55:32.809232  1671 layer_factory.hpp:77] Creating layer res4e_branch2a_relu
I1210 01:55:32.809252  1671 net.cpp:100] Creating Layer res4e_branch2a_relu
I1210 01:55:32.809268  1671 net.cpp:434] res4e_branch2a_relu <- res4e_branch2a
I1210 01:55:32.809288  1671 net.cpp:395] res4e_branch2a_relu -> res4e_branch2a (in-place)
I1210 01:55:32.810693  1671 net.cpp:150] Setting up res4e_branch2a_relu
I1210 01:55:32.810731  1671 net.cpp:157] Top shape: 50 256 14 14 (2508800)
I1210 01:55:32.810748  1671 net.cpp:165] Memory required for data: 10346291800
I1210 01:55:32.810772  1671 layer_factory.hpp:77] Creating layer res4e_branch2b
I1210 01:55:32.810806  1671 net.cpp:100] Creating Layer res4e_branch2b
I1210 01:55:32.810827  1671 net.cpp:434] res4e_branch2b <- res4e_branch2a
I1210 01:55:32.810848  1671 net.cpp:408] res4e_branch2b -> res4e_branch2b
I1210 01:55:32.843870  1671 net.cpp:150] Setting up res4e_branch2b
I1210 01:55:32.843914  1671 net.cpp:157] Top shape: 50 256 14 14 (2508800)
I1210 01:55:32.843931  1671 net.cpp:165] Memory required for data: 10356327000
I1210 01:55:32.843951  1671 layer_factory.hpp:77] Creating layer bn4e_branch2b
I1210 01:55:32.843998  1671 net.cpp:100] Creating Layer bn4e_branch2b
I1210 01:55:32.844022  1671 net.cpp:434] bn4e_branch2b <- res4e_branch2b
I1210 01:55:32.844041  1671 net.cpp:395] bn4e_branch2b -> res4e_branch2b (in-place)
I1210 01:55:32.844462  1671 net.cpp:150] Setting up bn4e_branch2b
I1210 01:55:32.844491  1671 net.cpp:157] Top shape: 50 256 14 14 (2508800)
I1210 01:55:32.844507  1671 net.cpp:165] Memory required for data: 10366362200
I1210 01:55:32.844529  1671 layer_factory.hpp:77] Creating layer scale4e_branch2b
I1210 01:55:32.844574  1671 net.cpp:100] Creating Layer scale4e_branch2b
I1210 01:55:32.844597  1671 net.cpp:434] scale4e_branch2b <- res4e_branch2b
I1210 01:55:32.844617  1671 net.cpp:395] scale4e_branch2b -> res4e_branch2b (in-place)
I1210 01:55:32.844743  1671 layer_factory.hpp:77] Creating layer scale4e_branch2b
I1210 01:55:32.845039  1671 net.cpp:150] Setting up scale4e_branch2b
I1210 01:55:32.845068  1671 net.cpp:157] Top shape: 50 256 14 14 (2508800)
I1210 01:55:32.845156  1671 net.cpp:165] Memory required for data: 10376397400
I1210 01:55:32.845181  1671 layer_factory.hpp:77] Creating layer res4e_branch2b_relu
I1210 01:55:32.845201  1671 net.cpp:100] Creating Layer res4e_branch2b_relu
I1210 01:55:32.845218  1671 net.cpp:434] res4e_branch2b_relu <- res4e_branch2b
I1210 01:55:32.845260  1671 net.cpp:395] res4e_branch2b_relu -> res4e_branch2b (in-place)
I1210 01:55:32.845629  1671 net.cpp:150] Setting up res4e_branch2b_relu
I1210 01:55:32.845669  1671 net.cpp:157] Top shape: 50 256 14 14 (2508800)
I1210 01:55:32.845687  1671 net.cpp:165] Memory required for data: 10386432600
I1210 01:55:32.845703  1671 layer_factory.hpp:77] Creating layer res4e_branch2c
I1210 01:55:32.845757  1671 net.cpp:100] Creating Layer res4e_branch2c
I1210 01:55:32.845800  1671 net.cpp:434] res4e_branch2c <- res4e_branch2b
I1210 01:55:32.845823  1671 net.cpp:408] res4e_branch2c -> res4e_branch2c
I1210 01:55:32.866472  1671 net.cpp:150] Setting up res4e_branch2c
I1210 01:55:32.866515  1671 net.cpp:157] Top shape: 50 1024 14 14 (10035200)
I1210 01:55:32.866533  1671 net.cpp:165] Memory required for data: 10426573400
I1210 01:55:32.866575  1671 layer_factory.hpp:77] Creating layer bn4e_branch2c
I1210 01:55:32.866627  1671 net.cpp:100] Creating Layer bn4e_branch2c
I1210 01:55:32.866652  1671 net.cpp:434] bn4e_branch2c <- res4e_branch2c
I1210 01:55:32.866680  1671 net.cpp:395] bn4e_branch2c -> res4e_branch2c (in-place)
I1210 01:55:32.867130  1671 net.cpp:150] Setting up bn4e_branch2c
I1210 01:55:32.867158  1671 net.cpp:157] Top shape: 50 1024 14 14 (10035200)
I1210 01:55:32.867174  1671 net.cpp:165] Memory required for data: 10466714200
I1210 01:55:32.867197  1671 layer_factory.hpp:77] Creating layer scale4e_branch2c
I1210 01:55:32.867218  1671 net.cpp:100] Creating Layer scale4e_branch2c
I1210 01:55:32.867235  1671 net.cpp:434] scale4e_branch2c <- res4e_branch2c
I1210 01:55:32.867278  1671 net.cpp:395] scale4e_branch2c -> res4e_branch2c (in-place)
I1210 01:55:32.867367  1671 layer_factory.hpp:77] Creating layer scale4e_branch2c
I1210 01:55:32.867652  1671 net.cpp:150] Setting up scale4e_branch2c
I1210 01:55:32.867708  1671 net.cpp:157] Top shape: 50 1024 14 14 (10035200)
I1210 01:55:32.867727  1671 net.cpp:165] Memory required for data: 10506855000
I1210 01:55:32.867746  1671 layer_factory.hpp:77] Creating layer res4e
I1210 01:55:32.867771  1671 net.cpp:100] Creating Layer res4e
I1210 01:55:32.867790  1671 net.cpp:434] res4e <- res4d_res4d_relu_0_split_1
I1210 01:55:32.867810  1671 net.cpp:434] res4e <- res4e_branch2c
I1210 01:55:32.867828  1671 net.cpp:408] res4e -> res4e
I1210 01:55:32.867916  1671 net.cpp:150] Setting up res4e
I1210 01:55:32.867944  1671 net.cpp:157] Top shape: 50 1024 14 14 (10035200)
I1210 01:55:32.867959  1671 net.cpp:165] Memory required for data: 10546995800
I1210 01:55:32.867974  1671 layer_factory.hpp:77] Creating layer res4e_relu
I1210 01:55:32.868016  1671 net.cpp:100] Creating Layer res4e_relu
I1210 01:55:32.868037  1671 net.cpp:434] res4e_relu <- res4e
I1210 01:55:32.868057  1671 net.cpp:395] res4e_relu -> res4e (in-place)
I1210 01:55:32.868415  1671 net.cpp:150] Setting up res4e_relu
I1210 01:55:32.868448  1671 net.cpp:157] Top shape: 50 1024 14 14 (10035200)
I1210 01:55:32.868508  1671 net.cpp:165] Memory required for data: 10587136600
I1210 01:55:32.868530  1671 layer_factory.hpp:77] Creating layer res4e_res4e_relu_0_split
I1210 01:55:32.868551  1671 net.cpp:100] Creating Layer res4e_res4e_relu_0_split
I1210 01:55:32.868568  1671 net.cpp:434] res4e_res4e_relu_0_split <- res4e
I1210 01:55:32.868587  1671 net.cpp:408] res4e_res4e_relu_0_split -> res4e_res4e_relu_0_split_0
I1210 01:55:32.868608  1671 net.cpp:408] res4e_res4e_relu_0_split -> res4e_res4e_relu_0_split_1
I1210 01:55:32.868743  1671 net.cpp:150] Setting up res4e_res4e_relu_0_split
I1210 01:55:32.868772  1671 net.cpp:157] Top shape: 50 1024 14 14 (10035200)
I1210 01:55:32.868790  1671 net.cpp:157] Top shape: 50 1024 14 14 (10035200)
I1210 01:55:32.868804  1671 net.cpp:165] Memory required for data: 10667418200
I1210 01:55:32.868896  1671 layer_factory.hpp:77] Creating layer res4f_branch2a
I1210 01:55:32.868945  1671 net.cpp:100] Creating Layer res4f_branch2a
I1210 01:55:32.868968  1671 net.cpp:434] res4f_branch2a <- res4e_res4e_relu_0_split_0
I1210 01:55:32.869009  1671 net.cpp:408] res4f_branch2a -> res4f_branch2a
I1210 01:55:32.880537  1671 net.cpp:150] Setting up res4f_branch2a
I1210 01:55:32.880579  1671 net.cpp:157] Top shape: 50 256 14 14 (2508800)
I1210 01:55:32.880597  1671 net.cpp:165] Memory required for data: 10677453400
I1210 01:55:32.880617  1671 layer_factory.hpp:77] Creating layer bn4f_branch2a
I1210 01:55:32.880671  1671 net.cpp:100] Creating Layer bn4f_branch2a
I1210 01:55:32.880695  1671 net.cpp:434] bn4f_branch2a <- res4f_branch2a
I1210 01:55:32.880715  1671 net.cpp:395] bn4f_branch2a -> res4f_branch2a (in-place)
I1210 01:55:32.881160  1671 net.cpp:150] Setting up bn4f_branch2a
I1210 01:55:32.881188  1671 net.cpp:157] Top shape: 50 256 14 14 (2508800)
I1210 01:55:32.881204  1671 net.cpp:165] Memory required for data: 10687488600
I1210 01:55:32.881227  1671 layer_factory.hpp:77] Creating layer scale4f_branch2a
I1210 01:55:32.881254  1671 net.cpp:100] Creating Layer scale4f_branch2a
I1210 01:55:32.881273  1671 net.cpp:434] scale4f_branch2a <- res4f_branch2a
I1210 01:55:32.881314  1671 net.cpp:395] scale4f_branch2a -> res4f_branch2a (in-place)
I1210 01:55:32.881405  1671 layer_factory.hpp:77] Creating layer scale4f_branch2a
I1210 01:55:32.881693  1671 net.cpp:150] Setting up scale4f_branch2a
I1210 01:55:32.881743  1671 net.cpp:157] Top shape: 50 256 14 14 (2508800)
I1210 01:55:32.881763  1671 net.cpp:165] Memory required for data: 10697523800
I1210 01:55:32.881788  1671 layer_factory.hpp:77] Creating layer res4f_branch2a_relu
I1210 01:55:32.881810  1671 net.cpp:100] Creating Layer res4f_branch2a_relu
I1210 01:55:32.881827  1671 net.cpp:434] res4f_branch2a_relu <- res4f_branch2a
I1210 01:55:32.881845  1671 net.cpp:395] res4f_branch2a_relu -> res4f_branch2a (in-place)
I1210 01:55:32.882238  1671 net.cpp:150] Setting up res4f_branch2a_relu
I1210 01:55:32.882270  1671 net.cpp:157] Top shape: 50 256 14 14 (2508800)
I1210 01:55:32.882287  1671 net.cpp:165] Memory required for data: 10707559000
I1210 01:55:32.882302  1671 layer_factory.hpp:77] Creating layer res4f_branch2b
I1210 01:55:32.882350  1671 net.cpp:100] Creating Layer res4f_branch2b
I1210 01:55:32.882375  1671 net.cpp:434] res4f_branch2b <- res4f_branch2a
I1210 01:55:32.882395  1671 net.cpp:408] res4f_branch2b -> res4f_branch2b
I1210 01:55:32.916126  1671 net.cpp:150] Setting up res4f_branch2b
I1210 01:55:32.916168  1671 net.cpp:157] Top shape: 50 256 14 14 (2508800)
I1210 01:55:32.916188  1671 net.cpp:165] Memory required for data: 10717594200
I1210 01:55:32.916230  1671 layer_factory.hpp:77] Creating layer bn4f_branch2b
I1210 01:55:32.916261  1671 net.cpp:100] Creating Layer bn4f_branch2b
I1210 01:55:32.916282  1671 net.cpp:434] bn4f_branch2b <- res4f_branch2b
I1210 01:55:32.916323  1671 net.cpp:395] bn4f_branch2b -> res4f_branch2b (in-place)
I1210 01:55:32.916766  1671 net.cpp:150] Setting up bn4f_branch2b
I1210 01:55:32.916795  1671 net.cpp:157] Top shape: 50 256 14 14 (2508800)
I1210 01:55:32.916812  1671 net.cpp:165] Memory required for data: 10727629400
I1210 01:55:32.916836  1671 layer_factory.hpp:77] Creating layer scale4f_branch2b
I1210 01:55:32.916882  1671 net.cpp:100] Creating Layer scale4f_branch2b
I1210 01:55:32.916906  1671 net.cpp:434] scale4f_branch2b <- res4f_branch2b
I1210 01:55:32.916926  1671 net.cpp:395] scale4f_branch2b -> res4f_branch2b (in-place)
I1210 01:55:32.917042  1671 layer_factory.hpp:77] Creating layer scale4f_branch2b
I1210 01:55:32.917341  1671 net.cpp:150] Setting up scale4f_branch2b
I1210 01:55:32.917371  1671 net.cpp:157] Top shape: 50 256 14 14 (2508800)
I1210 01:55:32.917387  1671 net.cpp:165] Memory required for data: 10737664600
I1210 01:55:32.917410  1671 layer_factory.hpp:77] Creating layer res4f_branch2b_relu
I1210 01:55:32.917433  1671 net.cpp:100] Creating Layer res4f_branch2b_relu
I1210 01:55:32.917503  1671 net.cpp:434] res4f_branch2b_relu <- res4f_branch2b
I1210 01:55:32.917577  1671 net.cpp:395] res4f_branch2b_relu -> res4f_branch2b (in-place)
I1210 01:55:32.917955  1671 net.cpp:150] Setting up res4f_branch2b_relu
I1210 01:55:32.917987  1671 net.cpp:157] Top shape: 50 256 14 14 (2508800)
I1210 01:55:32.918004  1671 net.cpp:165] Memory required for data: 10747699800
I1210 01:55:32.918020  1671 layer_factory.hpp:77] Creating layer res4f_branch2c
I1210 01:55:32.918066  1671 net.cpp:100] Creating Layer res4f_branch2c
I1210 01:55:32.918090  1671 net.cpp:434] res4f_branch2c <- res4f_branch2b
I1210 01:55:32.918133  1671 net.cpp:408] res4f_branch2c -> res4f_branch2c
I1210 01:55:32.937516  1671 net.cpp:150] Setting up res4f_branch2c
I1210 01:55:32.937559  1671 net.cpp:157] Top shape: 50 1024 14 14 (10035200)
I1210 01:55:32.937577  1671 net.cpp:165] Memory required for data: 10787840600
I1210 01:55:32.937597  1671 layer_factory.hpp:77] Creating layer bn4f_branch2c
I1210 01:55:32.937628  1671 net.cpp:100] Creating Layer bn4f_branch2c
I1210 01:55:32.937649  1671 net.cpp:434] bn4f_branch2c <- res4f_branch2c
I1210 01:55:32.937678  1671 net.cpp:395] bn4f_branch2c -> res4f_branch2c (in-place)
I1210 01:55:32.938014  1671 net.cpp:150] Setting up bn4f_branch2c
I1210 01:55:32.938040  1671 net.cpp:157] Top shape: 50 1024 14 14 (10035200)
I1210 01:55:32.938056  1671 net.cpp:165] Memory required for data: 10827981400
I1210 01:55:32.938140  1671 layer_factory.hpp:77] Creating layer scale4f_branch2c
I1210 01:55:32.938168  1671 net.cpp:100] Creating Layer scale4f_branch2c
I1210 01:55:32.938185  1671 net.cpp:434] scale4f_branch2c <- res4f_branch2c
I1210 01:55:32.938205  1671 net.cpp:395] scale4f_branch2c -> res4f_branch2c (in-place)
I1210 01:55:32.938297  1671 layer_factory.hpp:77] Creating layer scale4f_branch2c
I1210 01:55:32.938511  1671 net.cpp:150] Setting up scale4f_branch2c
I1210 01:55:32.938539  1671 net.cpp:157] Top shape: 50 1024 14 14 (10035200)
I1210 01:55:32.938590  1671 net.cpp:165] Memory required for data: 10868122200
I1210 01:55:32.938618  1671 layer_factory.hpp:77] Creating layer res4f
I1210 01:55:32.938647  1671 net.cpp:100] Creating Layer res4f
I1210 01:55:32.938681  1671 net.cpp:434] res4f <- res4e_res4e_relu_0_split_1
I1210 01:55:32.938700  1671 net.cpp:434] res4f <- res4f_branch2c
I1210 01:55:32.938720  1671 net.cpp:408] res4f -> res4f
I1210 01:55:32.938794  1671 net.cpp:150] Setting up res4f
I1210 01:55:32.938818  1671 net.cpp:157] Top shape: 50 1024 14 14 (10035200)
I1210 01:55:32.938833  1671 net.cpp:165] Memory required for data: 10908263000
I1210 01:55:32.938849  1671 layer_factory.hpp:77] Creating layer res4f_relu
I1210 01:55:32.938872  1671 net.cpp:100] Creating Layer res4f_relu
I1210 01:55:32.938891  1671 net.cpp:434] res4f_relu <- res4f
I1210 01:55:32.938915  1671 net.cpp:395] res4f_relu -> res4f (in-place)
I1210 01:55:32.940340  1671 net.cpp:150] Setting up res4f_relu
I1210 01:55:32.940377  1671 net.cpp:157] Top shape: 50 1024 14 14 (10035200)
I1210 01:55:32.940394  1671 net.cpp:165] Memory required for data: 10948403800
I1210 01:55:32.940410  1671 layer_factory.hpp:77] Creating layer res4f_res4f_relu_0_split
I1210 01:55:32.940430  1671 net.cpp:100] Creating Layer res4f_res4f_relu_0_split
I1210 01:55:32.940490  1671 net.cpp:434] res4f_res4f_relu_0_split <- res4f
I1210 01:55:32.940512  1671 net.cpp:408] res4f_res4f_relu_0_split -> res4f_res4f_relu_0_split_0
I1210 01:55:32.940534  1671 net.cpp:408] res4f_res4f_relu_0_split -> res4f_res4f_relu_0_split_1
I1210 01:55:32.940631  1671 net.cpp:150] Setting up res4f_res4f_relu_0_split
I1210 01:55:32.940666  1671 net.cpp:157] Top shape: 50 1024 14 14 (10035200)
I1210 01:55:32.940686  1671 net.cpp:157] Top shape: 50 1024 14 14 (10035200)
I1210 01:55:32.940701  1671 net.cpp:165] Memory required for data: 11028685400
I1210 01:55:32.940717  1671 layer_factory.hpp:77] Creating layer res5a_branch1
I1210 01:55:32.940747  1671 net.cpp:100] Creating Layer res5a_branch1
I1210 01:55:32.940768  1671 net.cpp:434] res5a_branch1 <- res4f_res4f_relu_0_split_0
I1210 01:55:32.940806  1671 net.cpp:408] res5a_branch1 -> res5a_branch1
I1210 01:55:33.028880  1671 net.cpp:150] Setting up res5a_branch1
I1210 01:55:33.028924  1671 net.cpp:157] Top shape: 50 2048 7 7 (5017600)
I1210 01:55:33.028942  1671 net.cpp:165] Memory required for data: 11048755800
I1210 01:55:33.028962  1671 layer_factory.hpp:77] Creating layer bn5a_branch1
I1210 01:55:33.029008  1671 net.cpp:100] Creating Layer bn5a_branch1
I1210 01:55:33.029032  1671 net.cpp:434] bn5a_branch1 <- res5a_branch1
I1210 01:55:33.029075  1671 net.cpp:395] bn5a_branch1 -> res5a_branch1 (in-place)
I1210 01:55:33.029544  1671 net.cpp:150] Setting up bn5a_branch1
I1210 01:55:33.029573  1671 net.cpp:157] Top shape: 50 2048 7 7 (5017600)
I1210 01:55:33.029589  1671 net.cpp:165] Memory required for data: 11068826200
I1210 01:55:33.029616  1671 layer_factory.hpp:77] Creating layer scale5a_branch1
I1210 01:55:33.029667  1671 net.cpp:100] Creating Layer scale5a_branch1
I1210 01:55:33.029691  1671 net.cpp:434] scale5a_branch1 <- res5a_branch1
I1210 01:55:33.029711  1671 net.cpp:395] scale5a_branch1 -> res5a_branch1 (in-place)
I1210 01:55:33.029824  1671 layer_factory.hpp:77] Creating layer scale5a_branch1
I1210 01:55:33.030143  1671 net.cpp:150] Setting up scale5a_branch1
I1210 01:55:33.030174  1671 net.cpp:157] Top shape: 50 2048 7 7 (5017600)
I1210 01:55:33.030189  1671 net.cpp:165] Memory required for data: 11088896600
I1210 01:55:33.030210  1671 layer_factory.hpp:77] Creating layer res5a_branch2a
I1210 01:55:33.030261  1671 net.cpp:100] Creating Layer res5a_branch2a
I1210 01:55:33.030284  1671 net.cpp:434] res5a_branch2a <- res4f_res4f_relu_0_split_1
I1210 01:55:33.030328  1671 net.cpp:408] res5a_branch2a -> res5a_branch2a
I1210 01:55:33.055174  1671 net.cpp:150] Setting up res5a_branch2a
I1210 01:55:33.055217  1671 net.cpp:157] Top shape: 50 512 7 7 (1254400)
I1210 01:55:33.055235  1671 net.cpp:165] Memory required for data: 11093914200
I1210 01:55:33.055254  1671 layer_factory.hpp:77] Creating layer bn5a_branch2a
I1210 01:55:33.055284  1671 net.cpp:100] Creating Layer bn5a_branch2a
I1210 01:55:33.055305  1671 net.cpp:434] bn5a_branch2a <- res5a_branch2a
I1210 01:55:33.055323  1671 net.cpp:395] bn5a_branch2a -> res5a_branch2a (in-place)
I1210 01:55:33.055680  1671 net.cpp:150] Setting up bn5a_branch2a
I1210 01:55:33.055707  1671 net.cpp:157] Top shape: 50 512 7 7 (1254400)
I1210 01:55:33.055722  1671 net.cpp:165] Memory required for data: 11098931800
I1210 01:55:33.055752  1671 layer_factory.hpp:77] Creating layer scale5a_branch2a
I1210 01:55:33.055775  1671 net.cpp:100] Creating Layer scale5a_branch2a
I1210 01:55:33.055794  1671 net.cpp:434] scale5a_branch2a <- res5a_branch2a
I1210 01:55:33.055811  1671 net.cpp:395] scale5a_branch2a -> res5a_branch2a (in-place)
I1210 01:55:33.055903  1671 layer_factory.hpp:77] Creating layer scale5a_branch2a
I1210 01:55:33.056128  1671 net.cpp:150] Setting up scale5a_branch2a
I1210 01:55:33.056155  1671 net.cpp:157] Top shape: 50 512 7 7 (1254400)
I1210 01:55:33.056170  1671 net.cpp:165] Memory required for data: 11103949400
I1210 01:55:33.056195  1671 layer_factory.hpp:77] Creating layer res5a_branch2a_relu
I1210 01:55:33.056223  1671 net.cpp:100] Creating Layer res5a_branch2a_relu
I1210 01:55:33.056243  1671 net.cpp:434] res5a_branch2a_relu <- res5a_branch2a
I1210 01:55:33.056262  1671 net.cpp:395] res5a_branch2a_relu -> res5a_branch2a (in-place)
I1210 01:55:33.058848  1671 net.cpp:150] Setting up res5a_branch2a_relu
I1210 01:55:33.058888  1671 net.cpp:157] Top shape: 50 512 7 7 (1254400)
I1210 01:55:33.058905  1671 net.cpp:165] Memory required for data: 11108967000
I1210 01:55:33.058921  1671 layer_factory.hpp:77] Creating layer res5a_branch2b
I1210 01:55:33.058953  1671 net.cpp:100] Creating Layer res5a_branch2b
I1210 01:55:33.058974  1671 net.cpp:434] res5a_branch2b <- res5a_branch2a
I1210 01:55:33.058995  1671 net.cpp:408] res5a_branch2b -> res5a_branch2b
I1210 01:55:33.150357  1671 net.cpp:150] Setting up res5a_branch2b
I1210 01:55:33.150401  1671 net.cpp:157] Top shape: 50 512 7 7 (1254400)
I1210 01:55:33.150467  1671 net.cpp:165] Memory required for data: 11113984600
I1210 01:55:33.150523  1671 layer_factory.hpp:77] Creating layer bn5a_branch2b
I1210 01:55:33.150593  1671 net.cpp:100] Creating Layer bn5a_branch2b
I1210 01:55:33.150624  1671 net.cpp:434] bn5a_branch2b <- res5a_branch2b
I1210 01:55:33.150677  1671 net.cpp:395] bn5a_branch2b -> res5a_branch2b (in-place)
I1210 01:55:33.151131  1671 net.cpp:150] Setting up bn5a_branch2b
I1210 01:55:33.151160  1671 net.cpp:157] Top shape: 50 512 7 7 (1254400)
I1210 01:55:33.151176  1671 net.cpp:165] Memory required for data: 11119002200
I1210 01:55:33.151199  1671 layer_factory.hpp:77] Creating layer scale5a_branch2b
I1210 01:55:33.151249  1671 net.cpp:100] Creating Layer scale5a_branch2b
I1210 01:55:33.151273  1671 net.cpp:434] scale5a_branch2b <- res5a_branch2b
I1210 01:55:33.151291  1671 net.cpp:395] scale5a_branch2b -> res5a_branch2b (in-place)
I1210 01:55:33.151377  1671 layer_factory.hpp:77] Creating layer scale5a_branch2b
I1210 01:55:33.151703  1671 net.cpp:150] Setting up scale5a_branch2b
I1210 01:55:33.151733  1671 net.cpp:157] Top shape: 50 512 7 7 (1254400)
I1210 01:55:33.151749  1671 net.cpp:165] Memory required for data: 11124019800
I1210 01:55:33.151773  1671 layer_factory.hpp:77] Creating layer res5a_branch2b_relu
I1210 01:55:33.151795  1671 net.cpp:100] Creating Layer res5a_branch2b_relu
I1210 01:55:33.151813  1671 net.cpp:434] res5a_branch2b_relu <- res5a_branch2b
I1210 01:55:33.151854  1671 net.cpp:395] res5a_branch2b_relu -> res5a_branch2b (in-place)
I1210 01:55:33.152242  1671 net.cpp:150] Setting up res5a_branch2b_relu
I1210 01:55:33.152274  1671 net.cpp:157] Top shape: 50 512 7 7 (1254400)
I1210 01:55:33.152290  1671 net.cpp:165] Memory required for data: 11129037400
I1210 01:55:33.152307  1671 layer_factory.hpp:77] Creating layer res5a_branch2c
I1210 01:55:33.152349  1671 net.cpp:100] Creating Layer res5a_branch2c
I1210 01:55:33.152372  1671 net.cpp:434] res5a_branch2c <- res5a_branch2b
I1210 01:55:33.152418  1671 net.cpp:408] res5a_branch2c -> res5a_branch2c
I1210 01:55:33.197741  1671 net.cpp:150] Setting up res5a_branch2c
I1210 01:55:33.197784  1671 net.cpp:157] Top shape: 50 2048 7 7 (5017600)
I1210 01:55:33.197803  1671 net.cpp:165] Memory required for data: 11149107800
I1210 01:55:33.197821  1671 layer_factory.hpp:77] Creating layer bn5a_branch2c
I1210 01:55:33.197842  1671 net.cpp:100] Creating Layer bn5a_branch2c
I1210 01:55:33.197860  1671 net.cpp:434] bn5a_branch2c <- res5a_branch2c
I1210 01:55:33.197887  1671 net.cpp:395] bn5a_branch2c -> res5a_branch2c (in-place)
I1210 01:55:33.198240  1671 net.cpp:150] Setting up bn5a_branch2c
I1210 01:55:33.198266  1671 net.cpp:157] Top shape: 50 2048 7 7 (5017600)
I1210 01:55:33.198282  1671 net.cpp:165] Memory required for data: 11169178200
I1210 01:55:33.198305  1671 layer_factory.hpp:77] Creating layer scale5a_branch2c
I1210 01:55:33.198333  1671 net.cpp:100] Creating Layer scale5a_branch2c
I1210 01:55:33.198351  1671 net.cpp:434] scale5a_branch2c <- res5a_branch2c
…
I1210 01:55:40.829068  1671 net.cpp:157] Top shape: 1 1024 14 14 (200704)
I1210 01:55:40.829082  1671 net.cpp:165] Memory required for data: 198897676
I1210 01:55:40.829094  1671 layer_factory.hpp:77] Creating layer res4d_branch2a
I1210 01:55:40.829121  1671 net.cpp:100] Creating Layer res4d_branch2a
I1210 01:55:40.829139  1671 net.cpp:434] res4d_branch2a <- res4c_res4c_relu_0_split_0
I1210 01:55:40.829157  1671 net.cpp:408] res4d_branch2a -> res4d_branch2a
I1210 01:55:40.840330  1671 net.cpp:150] Setting up res4d_branch2a
I1210 01:55:40.840370  1671 net.cpp:157] Top shape: 1 256 14 14 (50176)
I1210 01:55:40.840396  1671 net.cpp:165] Memory required for data: 199098380
I1210 01:55:40.840415  1671 layer_factory.hpp:77] Creating layer bn4d_branch2a
I1210 01:55:40.840435  1671 net.cpp:100] Creating Layer bn4d_branch2a
I1210 01:55:40.840451  1671 net.cpp:434] bn4d_branch2a <- res4d_branch2a
I1210 01:55:40.840468  1671 net.cpp:395] bn4d_branch2a -> res4d_branch2a (in-place)
I1210 01:55:40.840879  1671 net.cpp:150] Setting up bn4d_branch2a
I1210 01:55:40.840905  1671 net.cpp:157] Top shape: 1 256 14 14 (50176)
I1210 01:55:40.840920  1671 net.cpp:165] Memory required for data: 199299084
I1210 01:55:40.840939  1671 layer_factory.hpp:77] Creating layer scale4d_branch2a
I1210 01:55:40.840958  1671 net.cpp:100] Creating Layer scale4d_branch2a
I1210 01:55:40.840975  1671 net.cpp:434] scale4d_branch2a <- res4d_branch2a
I1210 01:55:40.840991  1671 net.cpp:395] scale4d_branch2a -> res4d_branch2a (in-place)
I1210 01:55:40.841101  1671 layer_factory.hpp:77] Creating layer scale4d_branch2a
I1210 01:55:40.841349  1671 net.cpp:150] Setting up scale4d_branch2a
I1210 01:55:40.841400  1671 net.cpp:157] Top shape: 1 256 14 14 (50176)
I1210 01:55:40.841430  1671 net.cpp:165] Memory required for data: 199499788
I1210 01:55:40.841449  1671 layer_factory.hpp:77] Creating layer res4d_branch2a_relu
I1210 01:55:40.841472  1671 net.cpp:100] Creating Layer res4d_branch2a_relu
I1210 01:55:40.841490  1671 net.cpp:434] res4d_branch2a_relu <- res4d_branch2a
I1210 01:55:40.841507  1671 net.cpp:395] res4d_branch2a_relu -> res4d_branch2a (in-place)
I1210 01:55:40.843055  1671 net.cpp:150] Setting up res4d_branch2a_relu
I1210 01:55:40.843092  1671 net.cpp:157] Top shape: 1 256 14 14 (50176)
I1210 01:55:40.843108  1671 net.cpp:165] Memory required for data: 199700492
I1210 01:55:40.843123  1671 layer_factory.hpp:77] Creating layer res4d_branch2b
I1210 01:55:40.843152  1671 net.cpp:100] Creating Layer res4d_branch2b
I1210 01:55:40.843170  1671 net.cpp:434] res4d_branch2b <- res4d_branch2a
I1210 01:55:40.843190  1671 net.cpp:408] res4d_branch2b -> res4d_branch2b
I1210 01:55:40.867871  1671 net.cpp:150] Setting up res4d_branch2b
I1210 01:55:40.867919  1671 net.cpp:157] Top shape: 1 256 14 14 (50176)
I1210 01:55:40.867938  1671 net.cpp:165] Memory required for data: 199901196
I1210 01:55:40.867955  1671 layer_factory.hpp:77] Creating layer bn4d_branch2b
I1210 01:55:40.867975  1671 net.cpp:100] Creating Layer bn4d_branch2b
I1210 01:55:40.867991  1671 net.cpp:434] bn4d_branch2b <- res4d_branch2b
I1210 01:55:40.868010  1671 net.cpp:395] bn4d_branch2b -> res4d_branch2b (in-place)
I1210 01:55:40.868415  1671 net.cpp:150] Setting up bn4d_branch2b
I1210 01:55:40.868440  1671 net.cpp:157] Top shape: 1 256 14 14 (50176)
I1210 01:55:40.868454  1671 net.cpp:165] Memory required for data: 200101900
I1210 01:55:40.868474  1671 layer_factory.hpp:77] Creating layer scale4d_branch2b
I1210 01:55:40.868494  1671 net.cpp:100] Creating Layer scale4d_branch2b
I1210 01:55:40.868510  1671 net.cpp:434] scale4d_branch2b <- res4d_branch2b
I1210 01:55:40.868525  1671 net.cpp:395] scale4d_branch2b -> res4d_branch2b (in-place)
I1210 01:55:40.868644  1671 layer_factory.hpp:77] Creating layer scale4d_branch2b
I1210 01:55:40.868901  1671 net.cpp:150] Setting up scale4d_branch2b
I1210 01:55:40.868927  1671 net.cpp:157] Top shape: 1 256 14 14 (50176)
I1210 01:55:40.868942  1671 net.cpp:165] Memory required for data: 200302604
I1210 01:55:40.868958  1671 layer_factory.hpp:77] Creating layer res4d_branch2b_relu
I1210 01:55:40.868976  1671 net.cpp:100] Creating Layer res4d_branch2b_relu
I1210 01:55:40.868991  1671 net.cpp:434] res4d_branch2b_relu <- res4d_branch2b
I1210 01:55:40.869014  1671 net.cpp:395] res4d_branch2b_relu -> res4d_branch2b (in-place)
I1210 01:55:40.870525  1671 net.cpp:150] Setting up res4d_branch2b_relu
I1210 01:55:40.870601  1671 net.cpp:157] Top shape: 1 256 14 14 (50176)
I1210 01:55:40.870620  1671 net.cpp:165] Memory required for data: 200503308
I1210 01:55:40.870635  1671 layer_factory.hpp:77] Creating layer res4d_branch2c
I1210 01:55:40.870666  1671 net.cpp:100] Creating Layer res4d_branch2c
I1210 01:55:40.870687  1671 net.cpp:434] res4d_branch2c <- res4d_branch2b
I1210 01:55:40.870707  1671 net.cpp:408] res4d_branch2c -> res4d_branch2c
I1210 01:55:40.884419  1671 net.cpp:150] Setting up res4d_branch2c
I1210 01:55:40.884461  1671 net.cpp:157] Top shape: 1 1024 14 14 (200704)
I1210 01:55:40.884477  1671 net.cpp:165] Memory required for data: 201306124
I1210 01:55:40.884495  1671 layer_factory.hpp:77] Creating layer bn4d_branch2c
I1210 01:55:40.884515  1671 net.cpp:100] Creating Layer bn4d_branch2c
I1210 01:55:40.884531  1671 net.cpp:434] bn4d_branch2c <- res4d_branch2c
I1210 01:55:40.884564  1671 net.cpp:395] bn4d_branch2c -> res4d_branch2c (in-place)
I1210 01:55:40.884981  1671 net.cpp:150] Setting up bn4d_branch2c
I1210 01:55:40.885007  1671 net.cpp:157] Top shape: 1 1024 14 14 (200704)
I1210 01:55:40.885021  1671 net.cpp:165] Memory required for data: 202108940
I1210 01:55:40.885041  1671 layer_factory.hpp:77] Creating layer scale4d_branch2c
I1210 01:55:40.885061  1671 net.cpp:100] Creating Layer scale4d_branch2c
I1210 01:55:40.885094  1671 net.cpp:434] scale4d_branch2c <- res4d_branch2c
I1210 01:55:40.885126  1671 net.cpp:395] scale4d_branch2c -> res4d_branch2c (in-place)
I1210 01:55:40.885231  1671 layer_factory.hpp:77] Creating layer scale4d_branch2c
I1210 01:55:40.885494  1671 net.cpp:150] Setting up scale4d_branch2c
I1210 01:55:40.885520  1671 net.cpp:157] Top shape: 1 1024 14 14 (200704)
I1210 01:55:40.885535  1671 net.cpp:165] Memory required for data: 202911756
I1210 01:55:40.885576  1671 layer_factory.hpp:77] Creating layer res4d
I1210 01:55:40.885603  1671 net.cpp:100] Creating Layer res4d
I1210 01:55:40.885622  1671 net.cpp:434] res4d <- res4c_res4c_relu_0_split_1
I1210 01:55:40.885638  1671 net.cpp:434] res4d <- res4d_branch2c
I1210 01:55:40.885655  1671 net.cpp:408] res4d -> res4d
I1210 01:55:40.885728  1671 net.cpp:150] Setting up res4d
I1210 01:55:40.885751  1671 net.cpp:157] Top shape: 1 1024 14 14 (200704)
I1210 01:55:40.885763  1671 net.cpp:165] Memory required for data: 203714572
I1210 01:55:40.885777  1671 layer_factory.hpp:77] Creating layer res4d_relu
I1210 01:55:40.885800  1671 net.cpp:100] Creating Layer res4d_relu
I1210 01:55:40.885818  1671 net.cpp:434] res4d_relu <- res4d
I1210 01:55:40.885841  1671 net.cpp:395] res4d_relu -> res4d (in-place)
I1210 01:55:40.886184  1671 net.cpp:150] Setting up res4d_relu
I1210 01:55:40.886214  1671 net.cpp:157] Top shape: 1 1024 14 14 (200704)
I1210 01:55:40.886229  1671 net.cpp:165] Memory required for data: 204517388
I1210 01:55:40.886243  1671 layer_factory.hpp:77] Creating layer res4d_res4d_relu_0_split
I1210 01:55:40.886261  1671 net.cpp:100] Creating Layer res4d_res4d_relu_0_split
I1210 01:55:40.886277  1671 net.cpp:434] res4d_res4d_relu_0_split <- res4d
I1210 01:55:40.886301  1671 net.cpp:408] res4d_res4d_relu_0_split -> res4d_res4d_relu_0_split_0
I1210 01:55:40.886322  1671 net.cpp:408] res4d_res4d_relu_0_split -> res4d_res4d_relu_0_split_1
I1210 01:55:40.886430  1671 net.cpp:150] Setting up res4d_res4d_relu_0_split
I1210 01:55:40.886457  1671 net.cpp:157] Top shape: 1 1024 14 14 (200704)
I1210 01:55:40.886476  1671 net.cpp:157] Top shape: 1 1024 14 14 (200704)
I1210 01:55:40.886488  1671 net.cpp:165] Memory required for data: 206123020
I1210 01:55:40.886502  1671 layer_factory.hpp:77] Creating layer res4e_branch2a
I1210 01:55:40.886523  1671 net.cpp:100] Creating Layer res4e_branch2a
I1210 01:55:40.886539  1671 net.cpp:434] res4e_branch2a <- res4d_res4d_relu_0_split_0
I1210 01:55:40.886605  1671 net.cpp:408] res4e_branch2a -> res4e_branch2a
I1210 01:55:40.899111  1671 net.cpp:150] Setting up res4e_branch2a
I1210 01:55:40.899152  1671 net.cpp:157] Top shape: 1 256 14 14 (50176)
I1210 01:55:40.899168  1671 net.cpp:165] Memory required for data: 206323724
I1210 01:55:40.899184  1671 layer_factory.hpp:77] Creating layer bn4e_branch2a
I1210 01:55:40.899211  1671 net.cpp:100] Creating Layer bn4e_branch2a
I1210 01:55:40.899230  1671 net.cpp:434] bn4e_branch2a <- res4e_branch2a
I1210 01:55:40.899247  1671 net.cpp:395] bn4e_branch2a -> res4e_branch2a (in-place)
I1210 01:55:40.899663  1671 net.cpp:150] Setting up bn4e_branch2a
I1210 01:55:40.899690  1671 net.cpp:157] Top shape: 1 256 14 14 (50176)
I1210 01:55:40.899704  1671 net.cpp:165] Memory required for data: 206524428
I1210 01:55:40.899724  1671 layer_factory.hpp:77] Creating layer scale4e_branch2a
I1210 01:55:40.899750  1671 net.cpp:100] Creating Layer scale4e_branch2a
I1210 01:55:40.899770  1671 net.cpp:434] scale4e_branch2a <- res4e_branch2a
I1210 01:55:40.899786  1671 net.cpp:395] scale4e_branch2a -> res4e_branch2a (in-place)
I1210 01:55:40.899896  1671 layer_factory.hpp:77] Creating layer scale4e_branch2a
I1210 01:55:40.900156  1671 net.cpp:150] Setting up scale4e_branch2a
I1210 01:55:40.900180  1671 net.cpp:157] Top shape: 1 256 14 14 (50176)
I1210 01:55:40.900194  1671 net.cpp:165] Memory required for data: 206725132
I1210 01:55:40.900212  1671 layer_factory.hpp:77] Creating layer res4e_branch2a_relu
I1210 01:55:40.900229  1671 net.cpp:100] Creating Layer res4e_branch2a_relu
I1210 01:55:40.900261  1671 net.cpp:434] res4e_branch2a_relu <- res4e_branch2a
I1210 01:55:40.900297  1671 net.cpp:395] res4e_branch2a_relu -> res4e_branch2a (in-place)
I1210 01:55:40.900614  1671 net.cpp:150] Setting up res4e_branch2a_relu
I1210 01:55:40.900643  1671 net.cpp:157] Top shape: 1 256 14 14 (50176)
I1210 01:55:40.900658  1671 net.cpp:165] Memory required for data: 206925836
I1210 01:55:40.900672  1671 layer_factory.hpp:77] Creating layer res4e_branch2b
I1210 01:55:40.900701  1671 net.cpp:100] Creating Layer res4e_branch2b
I1210 01:55:40.900718  1671 net.cpp:434] res4e_branch2b <- res4e_branch2a
I1210 01:55:40.900743  1671 net.cpp:408] res4e_branch2b -> res4e_branch2b
I1210 01:55:40.926689  1671 net.cpp:150] Setting up res4e_branch2b
I1210 01:55:40.926728  1671 net.cpp:157] Top shape: 1 256 14 14 (50176)
I1210 01:55:40.926744  1671 net.cpp:165] Memory required for data: 207126540
I1210 01:55:40.926762  1671 layer_factory.hpp:77] Creating layer bn4e_branch2b
I1210 01:55:40.926791  1671 net.cpp:100] Creating Layer bn4e_branch2b
I1210 01:55:40.926810  1671 net.cpp:434] bn4e_branch2b <- res4e_branch2b
I1210 01:55:40.926828  1671 net.cpp:395] bn4e_branch2b -> res4e_branch2b (in-place)
I1210 01:55:40.927244  1671 net.cpp:150] Setting up bn4e_branch2b
I1210 01:55:40.927269  1671 net.cpp:157] Top shape: 1 256 14 14 (50176)
I1210 01:55:40.927284  1671 net.cpp:165] Memory required for data: 207327244
I1210 01:55:40.927304  1671 layer_factory.hpp:77] Creating layer scale4e_branch2b
I1210 01:55:40.927322  1671 net.cpp:100] Creating Layer scale4e_branch2b
I1210 01:55:40.927338  1671 net.cpp:434] scale4e_branch2b <- res4e_branch2b
I1210 01:55:40.927356  1671 net.cpp:395] scale4e_branch2b -> res4e_branch2b (in-place)
I1210 01:55:40.927464  1671 layer_factory.hpp:77] Creating layer scale4e_branch2b
I1210 01:55:40.927732  1671 net.cpp:150] Setting up scale4e_branch2b
I1210 01:55:40.927759  1671 net.cpp:157] Top shape: 1 256 14 14 (50176)
I1210 01:55:40.927773  1671 net.cpp:165] Memory required for data: 207527948
I1210 01:55:40.927791  1671 layer_factory.hpp:77] Creating layer res4e_branch2b_relu
I1210 01:55:40.927815  1671 net.cpp:100] Creating Layer res4e_branch2b_relu
I1210 01:55:40.927834  1671 net.cpp:434] res4e_branch2b_relu <- res4e_branch2b
I1210 01:55:40.927850  1671 net.cpp:395] res4e_branch2b_relu -> res4e_branch2b (in-place)
I1210 01:55:40.928151  1671 net.cpp:150] Setting up res4e_branch2b_relu
I1210 01:55:40.928179  1671 net.cpp:157] Top shape: 1 256 14 14 (50176)
I1210 01:55:40.928194  1671 net.cpp:165] Memory required for data: 207728652
I1210 01:55:40.928207  1671 layer_factory.hpp:77] Creating layer res4e_branch2c
I1210 01:55:40.928238  1671 net.cpp:100] Creating Layer res4e_branch2c
I1210 01:55:40.928256  1671 net.cpp:434] res4e_branch2c <- res4e_branch2b
I1210 01:55:40.928275  1671 net.cpp:408] res4e_branch2c -> res4e_branch2c
I1210 01:55:40.941934  1671 net.cpp:150] Setting up res4e_branch2c
I1210 01:55:40.941977  1671 net.cpp:157] Top shape: 1 1024 14 14 (200704)
I1210 01:55:40.941993  1671 net.cpp:165] Memory required for data: 208531468
I1210 01:55:40.942011  1671 layer_factory.hpp:77] Creating layer bn4e_branch2c
I1210 01:55:40.942037  1671 net.cpp:100] Creating Layer bn4e_branch2c
I1210 01:55:40.942056  1671 net.cpp:434] bn4e_branch2c <- res4e_branch2c
I1210 01:55:40.942081  1671 net.cpp:395] bn4e_branch2c -> res4e_branch2c (in-place)
I1210 01:55:40.942499  1671 net.cpp:150] Setting up bn4e_branch2c
I1210 01:55:40.942525  1671 net.cpp:157] Top shape: 1 1024 14 14 (200704)
I1210 01:55:40.942539  1671 net.cpp:165] Memory required for data: 209334284
I1210 01:55:40.942591  1671 layer_factory.hpp:77] Creating layer scale4e_branch2c
I1210 01:55:40.942621  1671 net.cpp:100] Creating Layer scale4e_branch2c
I1210 01:55:40.942641  1671 net.cpp:434] scale4e_branch2c <- res4e_branch2c
I1210 01:55:40.942657  1671 net.cpp:395] scale4e_branch2c -> res4e_branch2c (in-place)
I1210 01:55:40.942756  1671 layer_factory.hpp:77] Creating layer scale4e_branch2c
I1210 01:55:40.943027  1671 net.cpp:150] Setting up scale4e_branch2c
I1210 01:55:40.943068  1671 net.cpp:157] Top shape: 1 1024 14 14 (200704)
I1210 01:55:40.943099  1671 net.cpp:165] Memory required for data: 210137100
I1210 01:55:40.943117  1671 layer_factory.hpp:77] Creating layer res4e
I1210 01:55:40.943136  1671 net.cpp:100] Creating Layer res4e
I1210 01:55:40.943152  1671 net.cpp:434] res4e <- res4d_res4d_relu_0_split_1
I1210 01:55:40.943168  1671 net.cpp:434] res4e <- res4e_branch2c
I1210 01:55:40.943192  1671 net.cpp:408] res4e -> res4e
I1210 01:55:40.943274  1671 net.cpp:150] Setting up res4e
I1210 01:55:40.943302  1671 net.cpp:157] Top shape: 1 1024 14 14 (200704)
I1210 01:55:40.943316  1671 net.cpp:165] Memory required for data: 210939916
I1210 01:55:40.943330  1671 layer_factory.hpp:77] Creating layer res4e_relu
I1210 01:55:40.943346  1671 net.cpp:100] Creating Layer res4e_relu
I1210 01:55:40.943361  1671 net.cpp:434] res4e_relu <- res4e
I1210 01:55:40.943378  1671 net.cpp:395] res4e_relu -> res4e (in-place)
I1210 01:55:40.943686  1671 net.cpp:150] Setting up res4e_relu
I1210 01:55:40.943714  1671 net.cpp:157] Top shape: 1 1024 14 14 (200704)
I1210 01:55:40.943728  1671 net.cpp:165] Memory required for data: 211742732
I1210 01:55:40.943742  1671 layer_factory.hpp:77] Creating layer res4e_res4e_relu_0_split
I1210 01:55:40.943759  1671 net.cpp:100] Creating Layer res4e_res4e_relu_0_split
I1210 01:55:40.943775  1671 net.cpp:434] res4e_res4e_relu_0_split <- res4e
I1210 01:55:40.943792  1671 net.cpp:408] res4e_res4e_relu_0_split -> res4e_res4e_relu_0_split_0
I1210 01:55:40.943819  1671 net.cpp:408] res4e_res4e_relu_0_split -> res4e_res4e_relu_0_split_1
I1210 01:55:40.943928  1671 net.cpp:150] Setting up res4e_res4e_relu_0_split
I1210 01:55:40.943951  1671 net.cpp:157] Top shape: 1 1024 14 14 (200704)
I1210 01:55:40.943984  1671 net.cpp:157] Top shape: 1 1024 14 14 (200704)
I1210 01:55:40.944001  1671 net.cpp:165] Memory required for data: 213348364
I1210 01:55:40.944015  1671 layer_factory.hpp:77] Creating layer res4f_branch2a
I1210 01:55:40.944092  1671 net.cpp:100] Creating Layer res4f_branch2a
I1210 01:55:40.944114  1671 net.cpp:434] res4f_branch2a <- res4e_res4e_relu_0_split_0
I1210 01:55:40.944139  1671 net.cpp:408] res4f_branch2a -> res4f_branch2a
I1210 01:55:40.955385  1671 net.cpp:150] Setting up res4f_branch2a
I1210 01:55:40.955425  1671 net.cpp:157] Top shape: 1 256 14 14 (50176)
I1210 01:55:40.955441  1671 net.cpp:165] Memory required for data: 213549068
I1210 01:55:40.955458  1671 layer_factory.hpp:77] Creating layer bn4f_branch2a
I1210 01:55:40.955484  1671 net.cpp:100] Creating Layer bn4f_branch2a
I1210 01:55:40.955503  1671 net.cpp:434] bn4f_branch2a <- res4f_branch2a
I1210 01:55:40.955528  1671 net.cpp:395] bn4f_branch2a -> res4f_branch2a (in-place)
I1210 01:55:40.955947  1671 net.cpp:150] Setting up bn4f_branch2a
I1210 01:55:40.955973  1671 net.cpp:157] Top shape: 1 256 14 14 (50176)
I1210 01:55:40.955987  1671 net.cpp:165] Memory required for data: 213749772
I1210 01:55:40.956008  1671 layer_factory.hpp:77] Creating layer scale4f_branch2a
I1210 01:55:40.956033  1671 net.cpp:100] Creating Layer scale4f_branch2a
I1210 01:55:40.956051  1671 net.cpp:434] scale4f_branch2a <- res4f_branch2a
I1210 01:55:40.956068  1671 net.cpp:395] scale4f_branch2a -> res4f_branch2a (in-place)
I1210 01:55:40.956174  1671 layer_factory.hpp:77] Creating layer scale4f_branch2a
I1210 01:55:40.956430  1671 net.cpp:150] Setting up scale4f_branch2a
I1210 01:55:40.956455  1671 net.cpp:157] Top shape: 1 256 14 14 (50176)
I1210 01:55:40.956470  1671 net.cpp:165] Memory required for data: 213950476
I1210 01:55:40.956487  1671 layer_factory.hpp:77] Creating layer res4f_branch2a_relu
I1210 01:55:40.956504  1671 net.cpp:100] Creating Layer res4f_branch2a_relu
I1210 01:55:40.956519  1671 net.cpp:434] res4f_branch2a_relu <- res4f_branch2a
I1210 01:55:40.956542  1671 net.cpp:395] res4f_branch2a_relu -> res4f_branch2a (in-place)
I1210 01:55:40.958052  1671 net.cpp:150] Setting up res4f_branch2a_relu
I1210 01:55:40.958088  1671 net.cpp:157] Top shape: 1 256 14 14 (50176)
I1210 01:55:40.958104  1671 net.cpp:165] Memory required for data: 214151180
I1210 01:55:40.958148  1671 layer_factory.hpp:77] Creating layer res4f_branch2b
I1210 01:55:40.958178  1671 net.cpp:100] Creating Layer res4f_branch2b
I1210 01:55:40.958195  1671 net.cpp:434] res4f_branch2b <- res4f_branch2a
I1210 01:55:40.958215  1671 net.cpp:408] res4f_branch2b -> res4f_branch2b
I1210 01:55:40.982213  1671 net.cpp:150] Setting up res4f_branch2b
I1210 01:55:40.982254  1671 net.cpp:157] Top shape: 1 256 14 14 (50176)
I1210 01:55:40.982270  1671 net.cpp:165] Memory required for data: 214351884
I1210 01:55:40.982288  1671 layer_factory.hpp:77] Creating layer bn4f_branch2b
I1210 01:55:40.982316  1671 net.cpp:100] Creating Layer bn4f_branch2b
I1210 01:55:40.982336  1671 net.cpp:434] bn4f_branch2b <- res4f_branch2b
I1210 01:55:40.982354  1671 net.cpp:395] bn4f_branch2b -> res4f_branch2b (in-place)
I1210 01:55:40.982820  1671 net.cpp:150] Setting up bn4f_branch2b
I1210 01:55:40.982849  1671 net.cpp:157] Top shape: 1 256 14 14 (50176)
I1210 01:55:40.982864  1671 net.cpp:165] Memory required for data: 214552588
I1210 01:55:40.982884  1671 layer_factory.hpp:77] Creating layer scale4f_branch2b
I1210 01:55:40.982910  1671 net.cpp:100] Creating Layer scale4f_branch2b
I1210 01:55:40.982929  1671 net.cpp:434] scale4f_branch2b <- res4f_branch2b
I1210 01:55:40.982946  1671 net.cpp:395] scale4f_branch2b -> res4f_branch2b (in-place)
I1210 01:55:40.983057  1671 layer_factory.hpp:77] Creating layer scale4f_branch2b
I1210 01:55:40.983319  1671 net.cpp:150] Setting up scale4f_branch2b
I1210 01:55:40.983345  1671 net.cpp:157] Top shape: 1 256 14 14 (50176)
I1210 01:55:40.983357  1671 net.cpp:165] Memory required for data: 214753292
I1210 01:55:40.983376  1671 layer_factory.hpp:77] Creating layer res4f_branch2b_relu
I1210 01:55:40.983400  1671 net.cpp:100] Creating Layer res4f_branch2b_relu
I1210 01:55:40.983417  1671 net.cpp:434] res4f_branch2b_relu <- res4f_branch2b
I1210 01:55:40.983434  1671 net.cpp:395] res4f_branch2b_relu -> res4f_branch2b (in-place)
I1210 01:55:40.984951  1671 net.cpp:150] Setting up res4f_branch2b_relu
I1210 01:55:40.984987  1671 net.cpp:157] Top shape: 1 256 14 14 (50176)
I1210 01:55:40.985002  1671 net.cpp:165] Memory required for data: 214953996
I1210 01:55:40.985016  1671 layer_factory.hpp:77] Creating layer res4f_branch2c
I1210 01:55:40.985044  1671 net.cpp:100] Creating Layer res4f_branch2c
I1210 01:55:40.985064  1671 net.cpp:434] res4f_branch2c <- res4f_branch2b
I1210 01:55:40.985088  1671 net.cpp:408] res4f_branch2c -> res4f_branch2c
I1210 01:55:40.998905  1671 net.cpp:150] Setting up res4f_branch2c
I1210 01:55:40.998945  1671 net.cpp:157] Top shape: 1 1024 14 14 (200704)
I1210 01:55:40.998961  1671 net.cpp:165] Memory required for data: 215756812
I1210 01:55:40.998978  1671 layer_factory.hpp:77] Creating layer bn4f_branch2c
I1210 01:55:40.999004  1671 net.cpp:100] Creating Layer bn4f_branch2c
I1210 01:55:40.999023  1671 net.cpp:434] bn4f_branch2c <- res4f_branch2c
I1210 01:55:40.999042  1671 net.cpp:395] bn4f_branch2c -> res4f_branch2c (in-place)
I1210 01:55:40.999469  1671 net.cpp:150] Setting up bn4f_branch2c
I1210 01:55:40.999495  1671 net.cpp:157] Top shape: 1 1024 14 14 (200704)
I1210 01:55:40.999508  1671 net.cpp:165] Memory required for data: 216559628
I1210 01:55:40.999598  1671 layer_factory.hpp:77] Creating layer scale4f_branch2c
I1210 01:55:40.999629  1671 net.cpp:100] Creating Layer scale4f_branch2c
I1210 01:55:40.999649  1671 net.cpp:434] scale4f_branch2c <- res4f_branch2c
I1210 01:55:40.999665  1671 net.cpp:395] scale4f_branch2c -> res4f_branch2c (in-place)
I1210 01:55:40.999774  1671 layer_factory.hpp:77] Creating layer scale4f_branch2c
I1210 01:55:41.000030  1671 net.cpp:150] Setting up scale4f_branch2c
I1210 01:55:41.000056  1671 net.cpp:157] Top shape: 1 1024 14 14 (200704)
I1210 01:55:41.000069  1671 net.cpp:165] Memory required for data: 217362444
I1210 01:55:41.000087  1671 layer_factory.hpp:77] Creating layer res4f
I1210 01:55:41.000105  1671 net.cpp:100] Creating Layer res4f
I1210 01:55:41.000121  1671 net.cpp:434] res4f <- res4e_res4e_relu_0_split_1
I1210 01:55:41.000156  1671 net.cpp:434] res4f <- res4f_branch2c
I1210 01:55:41.000190  1671 net.cpp:408] res4f -> res4f
I1210 01:55:41.000275  1671 net.cpp:150] Setting up res4f
I1210 01:55:41.000298  1671 net.cpp:157] Top shape: 1 1024 14 14 (200704)
I1210 01:55:41.000311  1671 net.cpp:165] Memory required for data: 218165260
I1210 01:55:41.000325  1671 layer_factory.hpp:77] Creating layer res4f_relu
I1210 01:55:41.000349  1671 net.cpp:100] Creating Layer res4f_relu
I1210 01:55:41.000366  1671 net.cpp:434] res4f_relu <- res4f
I1210 01:55:41.000382  1671 net.cpp:395] res4f_relu -> res4f (in-place)
I1210 01:55:41.000694  1671 net.cpp:150] Setting up res4f_relu
I1210 01:55:41.000730  1671 net.cpp:157] Top shape: 1 1024 14 14 (200704)
I1210 01:55:41.000746  1671 net.cpp:165] Memory required for data: 218968076
I1210 01:55:41.000761  1671 layer_factory.hpp:77] Creating layer res4f_res4f_relu_0_split
I1210 01:55:41.000778  1671 net.cpp:100] Creating Layer res4f_res4f_relu_0_split
I1210 01:55:41.000794  1671 net.cpp:434] res4f_res4f_relu_0_split <- res4f
I1210 01:55:41.000811  1671 net.cpp:408] res4f_res4f_relu_0_split -> res4f_res4f_relu_0_split_0
I1210 01:55:41.000830  1671 net.cpp:408] res4f_res4f_relu_0_split -> res4f_res4f_relu_0_split_1
I1210 01:55:41.000941  1671 net.cpp:150] Setting up res4f_res4f_relu_0_split
I1210 01:55:41.000964  1671 net.cpp:157] Top shape: 1 1024 14 14 (200704)
I1210 01:55:41.000980  1671 net.cpp:157] Top shape: 1 1024 14 14 (200704)
I1210 01:55:41.000993  1671 net.cpp:165] Memory required for data: 220573708
I1210 01:55:41.001006  1671 layer_factory.hpp:77] Creating layer res5a_branch1
I1210 01:55:41.001032  1671 net.cpp:100] Creating Layer res5a_branch1
I1210 01:55:41.001051  1671 net.cpp:434] res5a_branch1 <- res4f_res4f_relu_0_split_0
I1210 01:55:41.001076  1671 net.cpp:408] res5a_branch1 -> res5a_branch1
I1210 01:55:41.082273  1671 net.cpp:150] Setting up res5a_branch1
I1210 01:55:41.082355  1671 net.cpp:157] Top shape: 1 2048 7 7 (100352)
I1210 01:55:41.082375  1671 net.cpp:165] Memory required for data: 220975116
I1210 01:55:41.082396  1671 layer_factory.hpp:77] Creating layer bn5a_branch1
I1210 01:55:41.082422  1671 net.cpp:100] Creating Layer bn5a_branch1
I1210 01:55:41.082440  1671 net.cpp:434] bn5a_branch1 <- res5a_branch1
I1210 01:55:41.082468  1671 net.cpp:395] bn5a_branch1 -> res5a_branch1 (in-place)
I1210 01:55:41.082988  1671 net.cpp:150] Setting up bn5a_branch1
I1210 01:55:41.083019  1671 net.cpp:157] Top shape: 1 2048 7 7 (100352)
I1210 01:55:41.083032  1671 net.cpp:165] Memory required for data: 221376524
I1210 01:55:41.083053  1671 layer_factory.hpp:77] Creating layer scale5a_branch1
I1210 01:55:41.083075  1671 net.cpp:100] Creating Layer scale5a_branch1
I1210 01:55:41.083091  1671 net.cpp:434] scale5a_branch1 <- res5a_branch1
I1210 01:55:41.083108  1671 net.cpp:395] scale5a_branch1 -> res5a_branch1 (in-place)
I1210 01:55:41.083218  1671 layer_factory.hpp:77] Creating layer scale5a_branch1
I1210 01:55:41.083500  1671 net.cpp:150] Setting up scale5a_branch1
I1210 01:55:41.083525  1671 net.cpp:157] Top shape: 1 2048 7 7 (100352)
I1210 01:55:41.083540  1671 net.cpp:165] Memory required for data: 221777932
I1210 01:55:41.083567  1671 layer_factory.hpp:77] Creating layer res5a_branch2a
I1210 01:55:41.083597  1671 net.cpp:100] Creating Layer res5a_branch2a
I1210 01:55:41.083616  1671 net.cpp:434] res5a_branch2a <- res4f_res4f_relu_0_split_1
I1210 01:55:41.083640  1671 net.cpp:408] res5a_branch2a -> res5a_branch2a
I1210 01:55:41.106904  1671 net.cpp:150] Setting up res5a_branch2a
I1210 01:55:41.106978  1671 net.cpp:157] Top shape: 1 512 7 7 (25088)
I1210 01:55:41.106995  1671 net.cpp:165] Memory required for data: 221878284
I1210 01:55:41.107015  1671 layer_factory.hpp:77] Creating layer bn5a_branch2a
I1210 01:55:41.107048  1671 net.cpp:100] Creating Layer bn5a_branch2a
I1210 01:55:41.107071  1671 net.cpp:434] bn5a_branch2a <- res5a_branch2a
I1210 01:55:41.107090  1671 net.cpp:395] bn5a_branch2a -> res5a_branch2a (in-place)
I1210 01:55:41.107537  1671 net.cpp:150] Setting up bn5a_branch2a
I1210 01:55:41.107609  1671 net.cpp:157] Top shape: 1 512 7 7 (25088)
I1210 01:55:41.107645  1671 net.cpp:165] Memory required for data: 221978636
I1210 01:55:41.107666  1671 layer_factory.hpp:77] Creating layer scale5a_branch2a
I1210 01:55:41.107693  1671 net.cpp:100] Creating Layer scale5a_branch2a
I1210 01:55:41.107712  1671 net.cpp:434] scale5a_branch2a <- res5a_branch2a
I1210 01:55:41.107729  1671 net.cpp:395] scale5a_branch2a -> res5a_branch2a (in-place)
I1210 01:55:41.107841  1671 layer_factory.hpp:77] Creating layer scale5a_branch2a
I1210 01:55:41.108121  1671 net.cpp:150] Setting up scale5a_branch2a
I1210 01:55:41.108145  1671 net.cpp:157] Top shape: 1 512 7 7 (25088)
I1210 01:55:41.108160  1671 net.cpp:165] Memory required for data: 222078988
I1210 01:55:41.108177  1671 layer_factory.hpp:77] Creating layer res5a_branch2a_relu
I1210 01:55:41.108196  1671 net.cpp:100] Creating Layer res5a_branch2a_relu
I1210 01:55:41.108211  1671 net.cpp:434] res5a_branch2a_relu <- res5a_branch2a
I1210 01:55:41.108233  1671 net.cpp:395] res5a_branch2a_relu -> res5a_branch2a (in-place)
I1210 01:55:41.108537  1671 net.cpp:150] Setting up res5a_branch2a_relu
I1210 01:55:41.108574  1671 net.cpp:157] Top shape: 1 512 7 7 (25088)
I1210 01:55:41.108589  1671 net.cpp:165] Memory required for data: 222179340
I1210 01:55:41.108603  1671 layer_factory.hpp:77] Creating layer res5a_branch2b
I1210 01:55:41.108633  1671 net.cpp:100] Creating Layer res5a_branch2b
I1210 01:55:41.108651  1671 net.cpp:434] res5a_branch2b <- res5a_branch2a
I1210 01:55:41.108678  1671 net.cpp:408] res5a_branch2b -> res5a_branch2b
I1210 01:55:41.201584  1671 net.cpp:150] Setting up res5a_branch2b
I1210 01:55:41.201654  1671 net.cpp:157] Top shape: 1 512 7 7 (25088)
I1210 01:55:41.201663  1671 net.cpp:165] Memory required for data: 222279692
I1210 01:55:41.201674  1671 layer_factory.hpp:77] Creating layer bn5a_branch2b
I1210 01:55:41.201697  1671 net.cpp:100] Creating Layer bn5a_branch2b
I1210 01:55:41.201711  1671 net.cpp:434] bn5a_branch2b <- res5a_branch2b
I1210 01:55:41.201721  1671 net.cpp:395] bn5a_branch2b -> res5a_branch2b (in-place)
I1210 01:55:41.202185  1671 net.cpp:150] Setting up bn5a_branch2b
I1210 01:55:41.202201  1671 net.cpp:157] Top shape: 1 512 7 7 (25088)
I1210 01:55:41.202206  1671 net.cpp:165] Memory required for data: 222380044
I1210 01:55:41.202222  1671 layer_factory.hpp:77] Creating layer scale5a_branch2b
I1210 01:55:41.202234  1671 net.cpp:100] Creating Layer scale5a_branch2b
I1210 01:55:41.202244  1671 net.cpp:434] scale5a_branch2b <- res5a_branch2b
I1210 01:55:41.202250  1671 net.cpp:395] scale5a_branch2b -> res5a_branch2b (in-place)
I1210 01:55:41.202337  1671 layer_factory.hpp:77] Creating layer scale5a_branch2b
I1210 01:55:41.202620  1671 net.cpp:150] Setting up scale5a_branch2b
I1210 01:55:41.202638  1671 net.cpp:157] Top shape: 1 512 7 7 (25088)
I1210 01:55:41.202643  1671 net.cpp:165] Memory required for data: 222480396
I1210 01:55:41.202651  1671 layer_factory.hpp:77] Creating layer res5a_branch2b_relu
I1210 01:55:41.202672  1671 net.cpp:100] Creating Layer res5a_branch2b_relu
I1210 01:55:41.202682  1671 net.cpp:434] res5a_branch2b_relu <- res5a_branch2b
I1210 01:55:41.202688  1671 net.cpp:395] res5a_branch2b_relu -> res5a_branch2b (in-place)
I1210 01:55:41.203011  1671 net.cpp:150] Setting up res5a_branch2b_relu
I1210 01:55:41.203030  1671 net.cpp:157] Top shape: 1 512 7 7 (25088)
I1210 01:55:41.203035  1671 net.cpp:165] Memory required for data: 222580748
I1210 01:55:41.203039  1671 layer_factory.hpp:77] Creating layer res5a_branch2c
I1210 01:55:41.203061  1671 net.cpp:100] Creating Layer res5a_branch2c
I1210 01:55:41.203068  1671 net.cpp:434] res5a_branch2c <- res5a_branch2b
I1210 01:55:41.203076  1671 net.cpp:408] res5a_branch2c -> res5a_branch2c
I1210 01:55:41.245316  1671 net.cpp:150] Setting up res5a_branch2c
I1210 01:55:41.245347  1671 net.cpp:157] Top shape: 1 2048 7 7 (100352)
I1210 01:55:41.245352  1671 net.cpp:165] Memory required for data: 222982156
I1210 01:55:41.245360  1671 layer_factory.hpp:77] Creating layer bn5a_branch2c
I1210 01:55:41.245375  1671 net.cpp:100] Creating Layer bn5a_branch2c
I1210 01:55:41.245448  1671 net.cpp:434] bn5a_branch2c <- res5a_branch2c
I1210 01:55:41.245458  1671 net.cpp:395] bn5a_branch2c -> res5a_branch2c (in-place)
I1210 01:55:41.245904  1671 net.cpp:150] Setting up bn5a_branch2c
I1210 01:55:41.245923  1671 net.cpp:157] Top shape: 1 2048 7 7 (100352)
I1210 01:55:41.245928  1671 net.cpp:165] Memory required for data: 223383564
I1210 01:55:41.245937  1671 layer_factory.hpp:77] Creating layer scale5a_branch2c
I1210 01:55:41.245946  1671 net.cpp:100] Creating Layer scale5a_branch2c
I1210 01:55:41.245951  1671 net.cpp:434] scale5a_branch2c <- res5a_branch2c
I1210 01:55:41.245964  1671 net.cpp:395] scale5a_branch2c -> res5a_branch2c (in-place)
I1210 01:55:41.246037  1671 layer_factory.hpp:77] Creating layer scale5a_branch2c
I1210 01:55:41.246285  1671 net.cpp:150] Setting up scale5a_branch2c
I1210 01:55:41.246300  1671 net.cpp:157] Top shape: 1 2048 7 7 (100352)
I1210 01:55:41.246305  1671 net.cpp:165] Memory required for data: 223784972
I1210 01:55:41.246312  1671 layer_factory.hpp:77] Creating layer res5a
I1210 01:55:41.246325  1671 net.cpp:100] Creating Layer res5a
I1210 01:55:41.246335  1671 net.cpp:434] res5a <- res5a_branch1
I1210 01:55:41.246340  1671 net.cpp:434] res5a <- res5a_branch2c
I1210 01:55:41.246350  1671 net.cpp:408] res5a -> res5a
I1210 01:55:41.246403  1671 net.cpp:150] Setting up res5a
I1210 01:55:41.246417  1671 net.cpp:157] Top shape: 1 2048 7 7 (100352)
I1210 01:55:41.246420  1671 net.cpp:165] Memory required for data: 224186380
I1210 01:55:41.246424  1671 layer_factory.hpp:77] Creating layer res5a_relu
I1210 01:55:41.246438  1671 net.cpp:100] Creating Layer res5a_relu
I1210 01:55:41.246446  1671 net.cpp:434] res5a_relu <- res5a
I1210 01:55:41.246453  1671 net.cpp:395] res5a_relu -> res5a (in-place)
I1210 01:55:41.246770  1671 net.cpp:150] Setting up res5a_relu
I1210 01:55:41.246796  1671 net.cpp:157] Top shape: 1 2048 7 7 (100352)
I1210 01:55:41.246803  1671 net.cpp:165] Memory required for data: 224587788
I1210 01:55:41.246806  1671 layer_factory.hpp:77] Creating layer res5a_res5a_relu_0_split
I1210 01:55:41.246815  1671 net.cpp:100] Creating Layer res5a_res5a_relu_0_split
I1210 01:55:41.246820  1671 net.cpp:434] res5a_res5a_relu_0_split <- res5a
I1210 01:55:41.246827  1671 net.cpp:408] res5a_res5a_relu_0_split -> res5a_res5a_relu_0_split_0
I1210 01:55:41.246835  1671 net.cpp:408] res5a_res5a_relu_0_split -> res5a_res5a_relu_0_split_1
I1210 01:55:41.246920  1671 net.cpp:150] Setting up res5a_res5a_relu_0_split
I1210 01:55:41.246934  1671 net.cpp:157] Top shape: 1 2048 7 7 (100352)
I1210 01:55:41.246940  1671 net.cpp:157] Top shape: 1 2048 7 7 (100352)
I1210 01:55:41.246944  1671 net.cpp:165] Memory required for data: 225390604
I1210 01:55:41.246948  1671 layer_factory.hpp:77] Creating layer res5b_branch2a
I1210 01:55:41.246966  1671 net.cpp:100] Creating Layer res5b_branch2a
I1210 01:55:41.246975  1671 net.cpp:434] res5b_branch2a <- res5a_res5a_relu_0_split_0
I1210 01:55:41.246989  1671 net.cpp:408] res5b_branch2a -> res5b_branch2a
I1210 01:55:41.288810  1671 net.cpp:150] Setting up res5b_branch2a
I1210 01:55:41.288853  1671 net.cpp:157] Top shape: 1 512 7 7 (25088)
I1210 01:55:41.288872  1671 net.cpp:165] Memory required for data: 225490956
I1210 01:55:41.288888  1671 layer_factory.hpp:77] Creating layer bn5b_branch2a
I1210 01:55:41.288908  1671 net.cpp:100] Creating Layer bn5b_branch2a
I1210 01:55:41.288924  1671 net.cpp:434] bn5b_branch2a <- res5b_branch2a
I1210 01:55:41.288949  1671 net.cpp:395] bn5b_branch2a -> res5b_branch2a (in-place)
I1210 01:55:41.289397  1671 net.cpp:150] Setting up bn5b_branch2a
I1210 01:55:41.289422  1671 net.cpp:157] Top shape: 1 512 7 7 (25088)
I1210 01:55:41.289436  1671 net.cpp:165] Memory required for data: 225591308
I1210 01:55:41.289456  1671 layer_factory.hpp:77] Creating layer scale5b_branch2a
I1210 01:55:41.289475  1671 net.cpp:100] Creating Layer scale5b_branch2a
I1210 01:55:41.289492  1671 net.cpp:434] scale5b_branch2a <- res5b_branch2a
I1210 01:55:41.289526  1671 net.cpp:395] scale5b_branch2a -> res5b_branch2a (in-place)
I1210 01:55:41.289669  1671 layer_factory.hpp:77] Creating layer scale5b_branch2a
I1210 01:55:41.289949  1671 net.cpp:150] Setting up scale5b_branch2a
I1210 01:55:41.289975  1671 net.cpp:157] Top shape: 1 512 7 7 (25088)
I1210 01:55:41.289989  1671 net.cpp:165] Memory required for data: 225691660
I1210 01:55:41.290007  1671 layer_factory.hpp:77] Creating layer res5b_branch2a_relu
I1210 01:55:41.290031  1671 net.cpp:100] Creating Layer res5b_branch2a_relu
I1210 01:55:41.290050  1671 net.cpp:434] res5b_branch2a_relu <- res5b_branch2a
I1210 01:55:41.290066  1671 net.cpp:395] res5b_branch2a_relu -> res5b_branch2a (in-place)
I1210 01:55:41.290431  1671 net.cpp:150] Setting up res5b_branch2a_relu
I1210 01:55:41.290459  1671 net.cpp:157] Top shape: 1 512 7 7 (25088)
I1210 01:55:41.290474  1671 net.cpp:165] Memory required for data: 225792012
I1210 01:55:41.290488  1671 layer_factory.hpp:77] Creating layer res5b_branch2b
I1210 01:55:41.290514  1671 net.cpp:100] Creating Layer res5b_branch2b
I1210 01:55:41.290532  1671 net.cpp:434] res5b_branch2b <- res5b_branch2a
I1210 01:55:41.290601  1671 net.cpp:408] res5b_branch2b -> res5b_branch2b
I1210 01:55:41.381319  1671 net.cpp:150] Setting up res5b_branch2b
I1210 01:55:41.381368  1671 net.cpp:157] Top shape: 1 512 7 7 (25088)
I1210 01:55:41.381384  1671 net.cpp:165] Memory required for data: 225892364
I1210 01:55:41.381403  1671 layer_factory.hpp:77] Creating layer bn5b_branch2b
I1210 01:55:41.381431  1671 net.cpp:100] Creating Layer bn5b_branch2b
I1210 01:55:41.381451  1671 net.cpp:434] bn5b_branch2b <- res5b_branch2b
I1210 01:55:41.381469  1671 net.cpp:395] bn5b_branch2b -> res5b_branch2b (in-place)
I1210 01:55:41.381939  1671 net.cpp:150] Setting up bn5b_branch2b
I1210 01:55:41.381966  1671 net.cpp:157] Top shape: 1 512 7 7 (25088)
I1210 01:55:41.381980  1671 net.cpp:165] Memory required for data: 225992716
I1210 01:55:41.382000  1671 layer_factory.hpp:77] Creating layer scale5b_branch2b
I1210 01:55:41.382020  1671 net.cpp:100] Creating Layer scale5b_branch2b
I1210 01:55:41.382035  1671 net.cpp:434] scale5b_branch2b <- res5b_branch2b
I1210 01:55:41.382059  1671 net.cpp:395] scale5b_branch2b -> res5b_branch2b (in-place)
I1210 01:55:41.382161  1671 layer_factory.hpp:77] Creating layer scale5b_branch2b
I1210 01:55:41.382446  1671 net.cpp:150] Setting up scale5b_branch2b
I1210 01:55:41.382470  1671 net.cpp:157] Top shape: 1 512 7 7 (25088)
I1210 01:55:41.382483  1671 net.cpp:165] Memory required for data: 226093068
I1210 01:55:41.382501  1671 layer_factory.hpp:77] Creating layer res5b_branch2b_relu
I1210 01:55:41.382525  1671 net.cpp:100] Creating Layer res5b_branch2b_relu
I1210 01:55:41.382570  1671 net.cpp:434] res5b_branch2b_relu <- res5b_branch2b
I1210 01:55:41.382594  1671 net.cpp:395] res5b_branch2b_relu -> res5b_branch2b (in-place)
I1210 01:55:41.384157  1671 net.cpp:150] Setting up res5b_branch2b_relu
I1210 01:55:41.384193  1671 net.cpp:157] Top shape: 1 512 7 7 (25088)
I1210 01:55:41.384209  1671 net.cpp:165] Memory required for data: 226193420
I1210 01:55:41.384223  1671 layer_factory.hpp:77] Creating layer res5b_branch2c
I1210 01:55:41.384255  1671 net.cpp:100] Creating Layer res5b_branch2c
I1210 01:55:41.384275  1671 net.cpp:434] res5b_branch2c <- res5b_branch2b
I1210 01:55:41.384294  1671 net.cpp:408] res5b_branch2c -> res5b_branch2c
I1210 01:55:41.426080  1671 net.cpp:150] Setting up res5b_branch2c
I1210 01:55:41.426121  1671 net.cpp:157] Top shape: 1 2048 7 7 (100352)
I1210 01:55:41.426138  1671 net.cpp:165] Memory required for data: 226594828
I1210 01:55:41.426156  1671 layer_factory.hpp:77] Creating layer bn5b_branch2c
I1210 01:55:41.426182  1671 net.cpp:100] Creating Layer bn5b_branch2c
I1210 01:55:41.426201  1671 net.cpp:434] bn5b_branch2c <- res5b_branch2c
I1210 01:55:41.426219  1671 net.cpp:395] bn5b_branch2c -> res5b_branch2c (in-place)
I1210 01:55:41.426723  1671 net.cpp:150] Setting up bn5b_branch2c
I1210 01:55:41.426753  1671 net.cpp:157] Top shape: 1 2048 7 7 (100352)
I1210 01:55:41.426879  1671 net.cpp:165] Memory required for data: 226996236
I1210 01:55:41.426919  1671 layer_factory.hpp:77] Creating layer scale5b_branch2c
I1210 01:55:41.426940  1671 net.cpp:100] Creating Layer scale5b_branch2c
I1210 01:55:41.426957  1671 net.cpp:434] scale5b_branch2c <- res5b_branch2c
I1210 01:55:41.426981  1671 net.cpp:395] scale5b_branch2c -> res5b_branch2c (in-place)
I1210 01:55:41.427089  1671 layer_factory.hpp:77] Creating layer scale5b_branch2c
I1210 01:55:41.427379  1671 net.cpp:150] Setting up scale5b_branch2c
I1210 01:55:41.427409  1671 net.cpp:157] Top shape: 1 2048 7 7 (100352)
I1210 01:55:41.427424  1671 net.cpp:165] Memory required for data: 227397644
I1210 01:55:41.427443  1671 layer_factory.hpp:77] Creating layer res5b
I1210 01:55:41.427461  1671 net.cpp:100] Creating Layer res5b
I1210 01:55:41.427476  1671 net.cpp:434] res5b <- res5a_res5a_relu_0_split_1
I1210 01:55:41.427494  1671 net.cpp:434] res5b <- res5b_branch2c
I1210 01:55:41.427510  1671 net.cpp:408] res5b -> res5b
I1210 01:55:41.427606  1671 net.cpp:150] Setting up res5b
I1210 01:55:41.427630  1671 net.cpp:157] Top shape: 1 2048 7 7 (100352)
I1210 01:55:41.427644  1671 net.cpp:165] Memory required for data: 227799052
I1210 01:55:41.427657  1671 layer_factory.hpp:77] Creating layer res5b_relu
I1210 01:55:41.427680  1671 net.cpp:100] Creating Layer res5b_relu
I1210 01:55:41.427697  1671 net.cpp:434] res5b_relu <- res5b
I1210 01:55:41.427713  1671 net.cpp:395] res5b_relu -> res5b (in-place)
I1210 01:55:41.428019  1671 net.cpp:150] Setting up res5b_relu
I1210 01:55:41.428045  1671 net.cpp:157] Top shape: 1 2048 7 7 (100352)
I1210 01:55:41.428066  1671 net.cpp:165] Memory required for data: 228200460
I1210 01:55:41.428081  1671 layer_factory.hpp:77] Creating layer res5b_res5b_relu_0_split
I1210 01:55:41.428099  1671 net.cpp:100] Creating Layer res5b_res5b_relu_0_split
I1210 01:55:41.428114  1671 net.cpp:434] res5b_res5b_relu_0_split <- res5b
I1210 01:55:41.428131  1671 net.cpp:408] res5b_res5b_relu_0_split -> res5b_res5b_relu_0_split_0
I1210 01:55:41.428150  1671 net.cpp:408] res5b_res5b_relu_0_split -> res5b_res5b_relu_0_split_1
I1210 01:55:41.428267  1671 net.cpp:150] Setting up res5b_res5b_relu_0_split
I1210 01:55:41.428290  1671 net.cpp:157] Top shape: 1 2048 7 7 (100352)
I1210 01:55:41.428305  1671 net.cpp:157] Top shape: 1 2048 7 7 (100352)
I1210 01:55:41.428318  1671 net.cpp:165] Memory required for data: 229003276
I1210 01:55:41.428331  1671 layer_factory.hpp:77] Creating layer res5c_branch2a
I1210 01:55:41.428357  1671 net.cpp:100] Creating Layer res5c_branch2a
I1210 01:55:41.428375  1671 net.cpp:434] res5c_branch2a <- res5b_res5b_relu_0_split_0
I1210 01:55:41.428400  1671 net.cpp:408] res5c_branch2a -> res5c_branch2a
I1210 01:55:41.469586  1671 net.cpp:150] Setting up res5c_branch2a
I1210 01:55:41.469629  1671 net.cpp:157] Top shape: 1 512 7 7 (25088)
I1210 01:55:41.469645  1671 net.cpp:165] Memory required for data: 229103628
I1210 01:55:41.469662  1671 layer_factory.hpp:77] Creating layer bn5c_branch2a
I1210 01:55:41.469682  1671 net.cpp:100] Creating Layer bn5c_branch2a
I1210 01:55:41.469698  1671 net.cpp:434] bn5c_branch2a <- res5c_branch2a
I1210 01:55:41.469718  1671 net.cpp:395] bn5c_branch2a -> res5c_branch2a (in-place)
I1210 01:55:41.470140  1671 net.cpp:150] Setting up bn5c_branch2a
I1210 01:55:41.470165  1671 net.cpp:157] Top shape: 1 512 7 7 (25088)
I1210 01:55:41.470180  1671 net.cpp:165] Memory required for data: 229203980
I1210 01:55:41.470199  1671 layer_factory.hpp:77] Creating layer scale5c_branch2a
I1210 01:55:41.470217  1671 net.cpp:100] Creating Layer scale5c_branch2a
I1210 01:55:41.470233  1671 net.cpp:434] scale5c_branch2a <- res5c_branch2a
I1210 01:55:41.470249  1671 net.cpp:395] scale5c_branch2a -> res5c_branch2a (in-place)
I1210 01:55:41.470351  1671 layer_factory.hpp:77] Creating layer scale5c_branch2a
I1210 01:55:41.470659  1671 net.cpp:150] Setting up scale5c_branch2a
I1210 01:55:41.470687  1671 net.cpp:157] Top shape: 1 512 7 7 (25088)
I1210 01:55:41.470701  1671 net.cpp:165] Memory required for data: 229304332
I1210 01:55:41.470731  1671 layer_factory.hpp:77] Creating layer res5c_branch2a_relu
I1210 01:55:41.470758  1671 net.cpp:100] Creating Layer res5c_branch2a_relu
I1210 01:55:41.470777  1671 net.cpp:434] res5c_branch2a_relu <- res5c_branch2a
I1210 01:55:41.470793  1671 net.cpp:395] res5c_branch2a_relu -> res5c_branch2a (in-place)
I1210 01:55:41.471086  1671 net.cpp:150] Setting up res5c_branch2a_relu
I1210 01:55:41.471112  1671 net.cpp:157] Top shape: 1 512 7 7 (25088)
I1210 01:55:41.471127  1671 net.cpp:165] Memory required for data: 229404684
I1210 01:55:41.471140  1671 layer_factory.hpp:77] Creating layer res5c_branch2b
I1210 01:55:41.471163  1671 net.cpp:100] Creating Layer res5c_branch2b
I1210 01:55:41.471179  1671 net.cpp:434] res5c_branch2b <- res5c_branch2a
I1210 01:55:41.471199  1671 net.cpp:408] res5c_branch2b -> res5c_branch2b
I1210 01:55:41.562161  1671 net.cpp:150] Setting up res5c_branch2b
I1210 01:55:41.562206  1671 net.cpp:157] Top shape: 1 512 7 7 (25088)
I1210 01:55:41.562222  1671 net.cpp:165] Memory required for data: 229505036
I1210 01:55:41.562242  1671 layer_factory.hpp:77] Creating layer bn5c_branch2b
I1210 01:55:41.562263  1671 net.cpp:100] Creating Layer bn5c_branch2b
I1210 01:55:41.562279  1671 net.cpp:434] bn5c_branch2b <- res5c_branch2b
I1210 01:55:41.562304  1671 net.cpp:395] bn5c_branch2b -> res5c_branch2b (in-place)
I1210 01:55:41.562813  1671 net.cpp:150] Setting up bn5c_branch2b
I1210 01:55:41.562842  1671 net.cpp:157] Top shape: 1 512 7 7 (25088)
I1210 01:55:41.562857  1671 net.cpp:165] Memory required for data: 229605388
I1210 01:55:41.562877  1671 layer_factory.hpp:77] Creating layer scale5c_branch2b
I1210 01:55:41.562897  1671 net.cpp:100] Creating Layer scale5c_branch2b
I1210 01:55:41.562913  1671 net.cpp:434] scale5c_branch2b <- res5c_branch2b
I1210 01:55:41.562930  1671 net.cpp:395] scale5c_branch2b -> res5c_branch2b (in-place)
I1210 01:55:41.563040  1671 layer_factory.hpp:77] Creating layer scale5c_branch2b
I1210 01:55:41.563329  1671 net.cpp:150] Setting up scale5c_branch2b
I1210 01:55:41.563354  1671 net.cpp:157] Top shape: 1 512 7 7 (25088)
I1210 01:55:41.563369  1671 net.cpp:165] Memory required for data: 229705740
I1210 01:55:41.563386  1671 layer_factory.hpp:77] Creating layer res5c_branch2b_relu
I1210 01:55:41.563450  1671 net.cpp:100] Creating Layer res5c_branch2b_relu
I1210 01:55:41.563470  1671 net.cpp:434] res5c_branch2b_relu <- res5c_branch2b
I1210 01:55:41.563486  1671 net.cpp:395] res5c_branch2b_relu -> res5c_branch2b (in-place)
I1210 01:55:41.563822  1671 net.cpp:150] Setting up res5c_branch2b_relu
I1210 01:55:41.563849  1671 net.cpp:157] Top shape: 1 512 7 7 (25088)
I1210 01:55:41.563871  1671 net.cpp:165] Memory required for data: 229806092
I1210 01:55:41.563886  1671 layer_factory.hpp:77] Creating layer res5c_branch2c
I1210 01:55:41.563907  1671 net.cpp:100] Creating Layer res5c_branch2c
I1210 01:55:41.563923  1671 net.cpp:434] res5c_branch2c <- res5c_branch2b
I1210 01:55:41.563948  1671 net.cpp:408] res5c_branch2c -> res5c_branch2c
I1210 01:55:41.605710  1671 net.cpp:150] Setting up res5c_branch2c
I1210 01:55:41.605752  1671 net.cpp:157] Top shape: 1 2048 7 7 (100352)
I1210 01:55:41.605768  1671 net.cpp:165] Memory required for data: 230207500
I1210 01:55:41.605787  1671 layer_factory.hpp:77] Creating layer bn5c_branch2c
I1210 01:55:41.605813  1671 net.cpp:100] Creating Layer bn5c_branch2c
I1210 01:55:41.605832  1671 net.cpp:434] bn5c_branch2c <- res5c_branch2c
I1210 01:55:41.605850  1671 net.cpp:395] bn5c_branch2c -> res5c_branch2c (in-place)
I1210 01:55:41.606312  1671 net.cpp:150] Setting up bn5c_branch2c
I1210 01:55:41.606338  1671 net.cpp:157] Top shape: 1 2048 7 7 (100352)
I1210 01:55:41.606351  1671 net.cpp:165] Memory required for data: 230608908
I1210 01:55:41.606379  1671 layer_factory.hpp:77] Creating layer scale5c_branch2c
I1210 01:55:41.606400  1671 net.cpp:100] Creating Layer scale5c_branch2c
I1210 01:55:41.606416  1671 net.cpp:434] scale5c_branch2c <- res5c_branch2c
I1210 01:55:41.606433  1671 net.cpp:395] scale5c_branch2c -> res5c_branch2c (in-place)
I1210 01:55:41.606616  1671 layer_factory.hpp:77] Creating layer scale5c_branch2c
I1210 01:55:41.606935  1671 net.cpp:150] Setting up scale5c_branch2c
I1210 01:55:41.606961  1671 net.cpp:157] Top shape: 1 2048 7 7 (100352)
I1210 01:55:41.606974  1671 net.cpp:165] Memory required for data: 231010316
I1210 01:55:41.606992  1671 layer_factory.hpp:77] Creating layer res5c
I1210 01:55:41.607018  1671 net.cpp:100] Creating Layer res5c
I1210 01:55:41.607036  1671 net.cpp:434] res5c <- res5b_res5b_relu_0_split_1
I1210 01:55:41.607053  1671 net.cpp:434] res5c <- res5c_branch2c
I1210 01:55:41.607071  1671 net.cpp:408] res5c -> res5c
I1210 01:55:41.607161  1671 net.cpp:150] Setting up res5c
I1210 01:55:41.607183  1671 net.cpp:157] Top shape: 1 2048 7 7 (100352)
I1210 01:55:41.607197  1671 net.cpp:165] Memory required for data: 231411724
I1210 01:55:41.607210  1671 layer_factory.hpp:77] Creating layer res5c_relu
I1210 01:55:41.607226  1671 net.cpp:100] Creating Layer res5c_relu
I1210 01:55:41.607241  1671 net.cpp:434] res5c_relu <- res5c
I1210 01:55:41.607264  1671 net.cpp:395] res5c_relu -> res5c (in-place)
I1210 01:55:41.607584  1671 net.cpp:150] Setting up res5c_relu
I1210 01:55:41.607612  1671 net.cpp:157] Top shape: 1 2048 7 7 (100352)
I1210 01:55:41.607627  1671 net.cpp:165] Memory required for data: 231813132
I1210 01:55:41.607641  1671 layer_factory.hpp:77] Creating layer pool5
I1210 01:55:41.607667  1671 net.cpp:100] Creating Layer pool5
I1210 01:55:41.607686  1671 net.cpp:434] pool5 <- res5c
I1210 01:55:41.607703  1671 net.cpp:408] pool5 -> pool5
I1210 01:55:41.611553  1671 net.cpp:150] Setting up pool5
I1210 01:55:41.611595  1671 net.cpp:157] Top shape: 1 2048 1 1 (2048)
I1210 01:55:41.611613  1671 net.cpp:165] Memory required for data: 231821324
I1210 01:55:41.611626  1671 layer_factory.hpp:77] Creating layer fc10000
I1210 01:55:41.611647  1671 net.cpp:100] Creating Layer fc10000
I1210 01:55:41.611663  1671 net.cpp:434] fc10000 <- pool5
I1210 01:55:41.611685  1671 net.cpp:408] fc10000 -> fc10000
I1210 01:55:43.564843  1671 net.cpp:150] Setting up fc10000
I1210 01:55:43.565021  1671 net.cpp:157] Top shape: 1 81773 (81773)
I1210 01:55:43.565042  1671 net.cpp:165] Memory required for data: 232148416
I1210 01:55:43.565066  1671 layer_factory.hpp:77] Creating layer fc10000_fc10000_0_split
I1210 01:55:43.565099  1671 net.cpp:100] Creating Layer fc10000_fc10000_0_split
I1210 01:55:43.565146  1671 net.cpp:434] fc10000_fc10000_0_split <- fc10000
I1210 01:55:43.565172  1671 net.cpp:408] fc10000_fc10000_0_split -> fc10000_fc10000_0_split_0
I1210 01:55:43.565196  1671 net.cpp:408] fc10000_fc10000_0_split -> fc10000_fc10000_0_split_1
I1210 01:55:43.565275  1671 net.cpp:150] Setting up fc10000_fc10000_0_split
I1210 01:55:43.565299  1671 net.cpp:157] Top shape: 1 81773 (81773)
I1210 01:55:43.565313  1671 net.cpp:157] Top shape: 1 81773 (81773)
I1210 01:55:43.565326  1671 net.cpp:165] Memory required for data: 232802600
I1210 01:55:43.565340  1671 layer_factory.hpp:77] Creating layer loss
I1210 01:55:43.565358  1671 net.cpp:100] Creating Layer loss
I1210 01:55:43.565373  1671 net.cpp:434] loss <- fc10000_fc10000_0_split_0
I1210 01:55:43.565389  1671 net.cpp:434] loss <- label_data_1_split_0
I1210 01:55:43.565440  1671 net.cpp:408] loss -> loss
…
