…
I1210 18:42:08.914041  1585 solver.cpp:81] Creating training net from train_net file: ResNet_50_train.prototxt
I1210 18:42:08.921339  1585 net.cpp:58] Initializing net from parameters: 
name: "ResNet-50"
state {
  phase: TRAIN
  level: 0
  stage: ""
}
layer {
  name: "data"
  type: "ImageData"
  top: "data"
  top: "label"
  transform_param {
    mirror: true
    crop_size: 224
    mean_value: 104
    mean_value: 117
    mean_value: 123
  }
  image_data_param {
    source: "/data/face_recongize/resnet/trainAll.list"
    batch_size: 50
    shuffle: true
    root_folder: "/data/msra_lfw/msra/MsCelebV1-Faces-Cropped_all_224x224/"
  }
}
layer {
  name: "conv1"
  type: "Convolution"
  bottom: "data"
  top: "conv1"
  convolution_param {
    num_output: 64
    bias_term: true
    pad: 3
    kernel_size: 7
    stride: 2
    weight_filler {
      type: "msra"
    }
  }
}
layer {
  name: "bn_conv1"
  type: "BatchNorm"
  bottom: "conv1"
  top: "conv1"
  batch_norm_param {
    use_global_stats: false
  }
}
layer {
  name: "scale_conv1"
  type: "Scale"
  bottom: "conv1"
  top: "conv1"
  scale_param {
    bias_term: true
  }
}
layer {
  name: "conv1_relu"
  type: "ReLU"
  bottom: "conv1"
  top: "conv1"
}
layer {
  name: "pool1"
  type: "Pooling"
  bottom: "conv1"
  top: "pool1"
  pooling_param {
    pool: MAX
    kernel_size: 3
    stride: 2
  }
}
layer {
  name: "res2a_branch1"
  type: "Convolution"
  bottom: "pool1"
  top: "res2a_branch1"
  convolution_param {
    num_output: 256
    bias_term: false
    pad: 0
    kernel_size: 1
    stride: 1
    weight_filler {
      type: "msra"
    }
  }
}
layer {
  name: "bn2a_branch1"
  type: "BatchNorm"
  bottom: "res2a_branch1"
  top: "res2a_branch1"
  batch_norm_param {
    use_global_stats: false
  }
}
layer {
  name: "scale2a_branch1"
  type: "Scale"
  bottom: "res2a_branch1"
  top: "res2a_branch1"
  scale_param {
    bias_term: true
  }
}
layer {
  name: "res2a_branch2a"
  type: "Convolution"
  bottom: "pool1"
  top: "res2a_branch2a"
  convolution_param {
    num_output: 64
    bias_term: false
    pad: 0
    kernel_size: 1
    stride: 1
    weight_filler {
      type: "msra"
    }
  }
}
layer {
  name: "bn2a_branch2a"
  type: "BatchNorm"
  bottom: "res2a_branch2a"
  top: "res2a_branch2a"
  batch_norm_param {
    use_global_stats: false
  }
}
layer {
  name: "scale2a_branch2a"
  type: "Scale"
  bottom: "res2a_branch2a"
  top: "res2a_branch2a"
  scale_param {
    bias_term: true
  }
}
layer {
  name: "res2a_branch2a_relu"
  type: "ReLU"
  bottom: "res2a_branch2a"
  top: "res2a_branch2a"
}
layer {
  name: "res2a_branch2b"
  type: "Convolution"
  bottom: "res2a_branch2a"
  top: "res2a_branch2b"
  convolution_param {
    num_output: 64
    bias_term: false
    pad: 1
    kernel_size: 3
    stride: 1
    weight_filler {
      type: "msra"
    }
  }
}
layer {
  name: "bn2a_branch2b"
  type: "BatchNorm"
  bottom: "res2a_branch2b"
  top: "res2a_branch2b"
  batch_norm_param {
    use_global_stats: false
  }
}
layer {
  name: "scale2a_branch2b"
  type: "Scale"
  bottom: "res2a_branch2b"
  top: "res2a_branch2b"
  scale_param {
    bias_term: true
  }
}
layer {
  name: "res2a_branch2b_relu"
  type: "ReLU"
  bottom: "res2a_branch2b"
  top: "res2a_branch2b"
}
layer {
  name: "res2a_branch2c"
  type: "Convolution"
  bottom: "res2a_branch2b"
  top: "res2a_branch2c"
  convolution_param {
    num_output: 256
    bias_term: false
    pad: 0
    kernel_size: 1
    stride: 1
    weight_filler {
      type: "msra"
    }
  }
}
layer {
  name: "bn2a_branch2c"
  type: "BatchNorm"
  bottom: "res2a_branch2c"
  top: "res2a_branch2c"
  batch_norm_param {
    use_global_stats: false
  }
}
layer {
  name: "scale2a_branch2c"
  type: "Scale"
  bottom: "res2a_branch2c"
  top: "res2a_branch2c"
  scale_param {
    bias_term: true
  }
}
layer {
  name: "res2a"
  type: "Eltwise"
  bottom: "res2a_branch1"
  bottom: "res2a_branch2c"
  top: "res2a"
  eltwise_param {
    operation: SUM
  }
}
layer {
  name: "res2a_relu"
  type: "ReLU"
  bottom: "res2a"
  top: "res2a"
}
layer {
  name: "res2b_branch2a"
  type: "Convolution"
  bottom: "res2a"
  top: "res2b_branch2a"
  convolution_param {
    num_output: 64
    bias_term: false
    pad: 0
    kernel_size: 1
    stride: 1
    weight_filler {
      type: "msra"
    }
  }
}
layer {
  name: "bn2b_branch2a"
  type: "BatchNorm"
  bottom: "res2b_branch2a"
  top: "res2b_branch2a"
  batch_norm_param {
    use_global_stats: false
  }
}
layer {
  name: "scale2b_branch2a"
  type: "Scale"
  bottom: "res2b_branch2a"
  top: "res2b_branch2a"
  scale_param {
    bias_term: true
  }
}
layer {
  name: "res2b_branch2a_relu"
  type: "ReLU"
  bottom: "res2b_branch2a"
  top: "res2b_branch2a"
}
layer {
  name: "res2b_branch2b"
  type: "Convolution"
  bottom: "res2b_branch2a"
  top: "res2b_branch2b"
  convolution_param {
    num_output: 64
    bias_term: false
    pad: 1
    kernel_size: 3
    stride: 1
    weight_filler {
      type: "msra"
    }
  }
}
layer {
  name: "bn2b_branch2b"
  type: "BatchNorm"
  bottom: "res2b_branch2b"
  top: "res2b_branch2b"
  batch_norm_param {
    use_global_stats: false
  }
}
layer {
  name: "scale2b_branch2b"
  type: "Scale"
  bottom: "res2b_branch2b"
  top: "res2b_branch2b"
  scale_param {
    bias_term: true
  }
}
layer {
  name: "res2b_branch2b_relu"
  type: "ReLU"
  bottom: "res2b_branch2b"
  top: "res2b_branch2b"
}
layer {
  name: "res2b_branch2c"
  type: "Convolution"
  bottom: "res2b_branch2b"
  top: "res2b_branch2c"
  convolution_param {
    num_output: 256
    bias_term: false
    pad: 0
    kernel_size: 1
    stride: 1
    weight_filler {
      type: "msra"
    }
  }
}
layer {
  name: "bn2b_branch2c"
  type: "BatchNorm"
  bottom: "res2b_branch2c"
  top: "res2b_branch2c"
  batch_norm_param {
    use_global_stats: false
  }
}
layer {
  name: "scale2b_branch2c"
  type: "Scale"
  bottom: "res2b_branch2c"
  top: "res2b_branch2c"
  scale_param {
    bias_term: true
  }
}
layer {
  name: "res2b"
  type: "Eltwise"
  bottom: "res2a"
  bottom: "res2b_branch2c"
  top: "res2b"
  eltwise_param {
    operation: SUM
  }
}
layer {
  name: "res2b_relu"
  type: "ReLU"
  bottom: "res2b"
  top: "res2b"
}
layer {
  name: "res2c_branch2a"
  type: "Convolution"
  bottom: "res2b"
  top: "res2c_branch2a"
  convolution_param {
    num_output: 64
    bias_term: false
    pad: 0
    kernel_size: 1
    stride: 1
    weight_filler {
      type: "msra"
    }
  }
}
layer {
  name: "bn2c_branch2a"
  type: "BatchNorm"
  bottom: "res2c_branch2a"
  top: "res2c_branch2a"
  batch_norm_param {
    use_global_stats: false
  }
}
layer {
  name: "scale2c_branch2a"
  type: "Scale"
  bottom: "res2c_branch2a"
  top: "res2c_branch2a"
  scale_param {
    bias_term: true
  }
}
layer {
  name: "res2c_branch2a_relu"
  type: "ReLU"
  bottom: "res2c_branch2a"
  top: "res2c_branch2a"
}
layer {
  name: "res2c_branch2b"
  type: "Convolution"
  bottom: "res2c_branch2a"
  top: "res2c_branch2b"
  convolution_param {
    num_output: 64
    bias_term: false
    pad: 1
    kernel_size: 3
    stride: 1
    weight_filler {
      type: "msra"
    }
  }
}
layer {
  name: "bn2c_branch2b"
  type: "BatchNorm"
  bottom: "res2c_branch2b"
  top: "res2c_branch2b"
  batch_norm_param {
    use_global_stats: false
  }
}
layer {
  name: "scale2c_branch2b"
  type: "Scale"
  bottom: "res2c_branch2b"
  top: "res2c_branch2b"
  scale_param {
    bias_term: true
  }
}
layer {
  name: "res2c_branch2b_relu"
  type: "ReLU"
  bottom: "res2c_branch2b"
  top: "res2c_branch2b"
}
layer {
  name: "res2c_branch2c"
  type: "Convolution"
  bottom: "res2c_branch2b"
  top: "res2c_branch2c"
  convolution_param {
    num_output: 256
    bias_term: false
    pad: 0
    kernel_size: 1
    stride: 1
    weight_filler {
      type: "msra"
    }
  }
}
layer {
  name: "bn2c_branch2c"
  type: "BatchNorm"
  bottom: "res2c_branch2c"
  top: "res2c_branch2c"
  batch_norm_param {
    use_global_stats: false
  }
}
layer {
  name: "scale2c_branch2c"
  type: "Scale"
  bottom: "res2c_branch2c"
  top: "res2c_branch2c"
  scale_param {
    bias_term: true
  }
}
layer {
  name: "res2c"
  type: "Eltwise"
  bottom: "res2b"
  bottom: "res2c_branch2c"
  top: "res2c"
  eltwise_param {
    operation: SUM
  }
}
layer {
  name: "res2c_relu"
  type: "ReLU"
  bottom: "res2c"
  top: "res2c"
}
layer {
  name: "res3a_branch1"
  type: "Convolution"
  bottom: "res2c"
  top: "res3a_branch1"
  convolution_param {
    num_output: 512
    bias_term: false
    pad: 0
    kernel_size: 1
    stride: 2
    weight_filler {
      type: "msra"
    }
  }
}
layer {
  name: "bn3a_branch1"
  type: "BatchNorm"
  bottom: "res3a_branch1"
  top: "res3a_branch1"
  batch_norm_param {
    use_global_stats: false
  }
}
layer {
  name: "scale3a_branch1"
  type: "Scale"
  bottom: "res3a_branch1"
  top: "res3a_branch1"
  scale_param {
    bias_term: true
  }
}
layer {
  name: "res3a_branch2a"
  type: "Convolution"
  bottom: "res2c"
  top: "res3a_branch2a"
  convolution_param {
    num_output: 128
    bias_term: false
    pad: 0
    kernel_size: 1
    stride: 2
    weight_filler {
      type: "msra"
    }
  }
}
layer {
  name: "bn3a_branch2a"
  type: "BatchNorm"
  bottom: "res3a_branch2a"
  top: "res3a_branch2a"
  batch_norm_param {
    use_global_stats: false
  }
}
layer {
  name: "scale3a_branch2a"
  type: "Scale"
  bottom: "res3a_branch2a"
  top: "res3a_branch2a"
  scale_param {
    bias_term: true
  }
}
layer {
  name: "res3a_branch2a_relu"
  type: "ReLU"
  bottom: "res3a_branch2a"
  top: "res3a_branch2a"
}
layer {
  name: "res3a_branch2b"
  type: "Convolution"
  bottom: "res3a_branch2a"
  top: "res3a_branch2b"
  convolution_param {
    num_output: 128
    bias_term: false
    pad: 1
    kernel_size: 3
    stride: 1
    weight_filler {
      type: "msra"
    }
  }
}
layer {
  name: "bn3a_branch2b"
  type: "BatchNorm"
  bottom: "res3a_branch2b"
  top: "res3a_branch2b"
  batch_norm_param {
    use_global_stats: false
  }
}
layer {
  name: "scale3a_branch2b"
  type: "Scale"
  bottom: "res3a_branch2b"
  top: "res3a_branch2b"
  scale_param {
    bias_term: true
  }
}
layer {
  name: "res3a_branch2b_relu"
  type: "ReLU"
  bottom: "res3a_branch2b"
  top: "res3a_branch2b"
}
layer {
  name: "res3a_branch2c"
  type: "Convolution"
  bottom: "res3a_branch2b"
  top: "res3a_branch2c"
  convolution_param {
    num_output: 512
    bias_term: false
    pad: 0
    kernel_size: 1
    stride: 1
    weight_filler {
      type: "msra"
    }
  }
}
layer {
  name: "bn3a_branch2c"
  type: "BatchNorm"
  bottom: "res3a_branch2c"
  top: "res3a_branch2c"
  batch_norm_param {
    use_global_stats: false
  }
}
layer {
  name: "scale3a_branch2c"
  type: "Scale"
  bottom: "res3a_branch2c"
  top: "res3a_branch2c"
  scale_param {
    bias_term: true
  }
}
layer {
  name: "res3a"
  type: "Eltwise"
  bottom: "res3a_branch1"
  bottom: "res3a_branch2c"
  top: "res3a"
  eltwise_param {
    operation: SUM
  }
}
layer {
  name: "res3a_relu"
  type: "ReLU"
  bottom: "res3a"
  top: "res3a"
}
layer {
  name: "res3b_branch2a"
  type: "Convolution"
  bottom: "res3a"
  top: "res3b_branch2a"
  convolution_param {
    num_output: 128
    bias_term: false
    pad: 0
    kernel_size: 1
    stride: 1
    weight_filler {
      type: "msra"
    }
  }
}
layer {
  name: "bn3b_branch2a"
  type: "BatchNorm"
  bottom: "res3b_branch2a"
  top: "res3b_branch2a"
  batch_norm_param {
    use_global_stats: false
  }
}
layer {
  name: "scale3b_branch2a"
  type: "Scale"
  bottom: "res3b_branch2a"
  top: "res3b_branch2a"
  scale_param {
    bias_term: true
  }
}
layer {
  name: "res3b_branch2a_relu"
  type: "ReLU"
  bottom: "res3b_branch2a"
  top: "res3b_branch2a"
}
layer {
  name: "res3b_branch2b"
  type: "Convolution"
  bottom: "res3b_branch2a"
  top: "res3b_branch2b"
  convolution_param {
    num_output: 128
    bias_term: false
    pad: 1
    kernel_size: 3
    stride: 1
    weight_filler {
      type: "msra"
    }
  }
}
layer {
  name: "bn3b_branch2b"
  type: "BatchNorm"
  bottom: "res3b_branch2b"
  top: "res3b_branch2b"
  batch_norm_param {
    use_global_stats: false
  }
}
layer {
  name: "scale3b_branch2b"
  type: "Scale"
  bottom: "res3b_branch2b"
  top: "res3b_branch2b"
  scale_param {
    bias_term: true
  }
}
layer {
  name: "res3b_branch2b_relu"
  type: "ReLU"
  bottom: "res3b_branch2b"
  top: "res3b_branch2b"
}
layer {
  name: "res3b_branch2c"
  type: "Convolution"
  bottom: "res3b_branch2b"
  top: "res3b_branch2c"
  convolution_param {
    num_output: 512
    bias_term: false
    pad: 0
    kernel_size: 1
    stride: 1
    weight_filler {
      type: "msra"
    }
  }
}
layer {
  name: "bn3b_branch2c"
  type: "BatchNorm"
  bottom: "res3b_branch2c"
  top: "res3b_branch2c"
  batch_norm_param {
    use_global_stats: false
  }
}
layer {
  name: "scale3b_branch2c"
  type: "Scale"
  bottom: "res3b_branch2c"
  top: "res3b_branch2c"
  scale_param {
    bias_term: true
  }
}
layer {
  name: "res3b"
  type: "Eltwise"
  bottom: "res3a"
  bottom: "res3b_branch2c"
  top: "res3b"
  eltwise_param {
    operation: SUM
  }
}
layer {
  name: "res3b_relu"
  type: "ReLU"
  bottom: "res3b"
  top: "res3b"
}
layer {
  name: "res3c_branch2a"
  type: "Convolution"
  bottom: "res3b"
  top: "res3c_branch2a"
  convolution_param {
    num_output: 128
    bias_term: false
    pad: 0
    kernel_size: 1
    stride: 1
    weight_filler {
      type: "msra"
    }
  }
}
layer {
  name: "bn3c_branch2a"
  type: "BatchNorm"
  bottom: "res3c_branch2a"
  top: "res3c_branch2a"
  batch_norm_param {
    use_global_stats: false
  }
}
layer {
  name: "scale3c_branch2a"
  type: "Scale"
  bottom: "res3c_branch2a"
  top: "res3c_branch2a"
  scale_param {
    bias_term: true
  }
}
layer {
  name: "res3c_branch2a_relu"
  type: "ReLU"
  bottom: "res3c_branch2a"
  top: "res3c_branch2a"
}
layer {
  name: "res3c_branch2b"
  type: "Convolution"
  bottom: "res3c_branch2a"
  top: "res3c_branch2b"
  convolution_param {
    num_output: 128
    bias_term: false
    pad: 1
    kernel_size: 3
    stride: 1
    weight_filler {
      type: "msra"
    }
  }
}
layer {
  name: "bn3c_branch2b"
  type: "BatchNorm"
  bottom: "res3c_branch2b"
  top: "res3c_branch2b"
  batch_norm_param {
    use_global_stats: false
  }
}
layer {
  name: "scale3c_branch2b"
  type: "Scale"
  bottom: "res3c_branch2b"
  top: "res3c_branch2b"
  scale_param {
    bias_term: true
  }
}
layer {
  name: "res3c_branch2b_relu"
  type: "ReLU"
  bottom: "res3c_branch2b"
  top: "res3c_branch2b"
}
layer {
  name: "res3c_branch2c"
  type: "Convolution"
  bottom: "res3c_branch2b"
  top: "res3c_branch2c"
  convolution_param {
    num_output: 512
    bias_term: false
    pad: 0
    kernel_size: 1
    stride: 1
    weight_filler {
      type: "msra"
    }
  }
}
layer {
  name: "bn3c_branch2c"
  type: "BatchNorm"
  bottom: "res3c_branch2c"
  top: "res3c_branch2c"
  batch_norm_param {
    use_global_stats: false
  }
}
layer {
  name: "scale3c_branch2c"
  type: "Scale"
  bottom: "res3c_branch2c"
  top: "res3c_branch2c"
  scale_param {
    bias_term: true
  }
}
layer {
  name: "res3c"
  type: "Eltwise"
  bottom: "res3b"
  bottom: "res3c_branch2c"
  top: "res3c"
  eltwise_param {
    operation: SUM
  }
}
layer {
  name: "res3c_relu"
  type: "ReLU"
  bottom: "res3c"
  top: "res3c"
}
layer {
  name: "res3d_branch2a"
  type: "Convolution"
  bottom: "res3c"
  top: "res3d_branch2a"
  convolution_param {
    num_output: 128
    bias_term: false
    pad: 0
    kernel_size: 1
    stride: 1
    weight_filler {
      type: "msra"
    }
  }
}
layer {
  name: "bn3d_branch2a"
  type: "BatchNorm"
  bottom: "res3d_branch2a"
  top: "res3d_branch2a"
  batch_norm_param {
    use_global_stats: false
  }
}
layer {
  name: "scale3d_branch2a"
  type: "Scale"
  bottom: "res3d_branch2a"
  top: "res3d_branch2a"
  scale_param {
    bias_term: true
  }
}
layer {
  name: "res3d_branch2a_relu"
  type: "ReLU"
  bottom: "res3d_branch2a"
  top: "res3d_branch2a"
}
layer {
  name: "res3d_branch2b"
  type: "Convolution"
  bottom: "res3d_branch2a"
  top: "res3d_branch2b"
  convolution_param {
    num_output: 128
    bias_term: false
    pad: 1
    kernel_size: 3
    stride: 1
    weight_filler {
      type: "msra"
    }
  }
}
layer {
  name: "bn3d_branch2b"
  type: "BatchNorm"
  bottom: "res3d_branch2b"
  top: "res3d_branch2b"
  batch_norm_param {
    use_global_stats: false
  }
}
layer {
  name: "scale3d_branch2b"
  type: "Scale"
  bottom: "res3d_branch2b"
  top: "res3d_branch2b"
  scale_param {
    bias_term: true
  }
}
layer {
  name: "res3d_branch2b_relu"
  type: "ReLU"
  bottom: "res3d_branch2b"
  top: "res3d_branch2b"
}
layer {
  name: "res3d_branch2c"
  type: "Convolution"
  bottom: "res3d_branch2b"
  top: "res3d_branch2c"
  convolution_param {
    num_output: 512
    bias_term: false
    pad: 0
    kernel_size: 1
    stride: 1
    weight_filler {
      type: "msra"
    }
  }
}
layer {
  name: "bn3d_branch2c"
  type: "BatchNorm"
  bottom: "res3d_branch2c"
  top: "res3d_branch2c"
  batch_norm_param {
    use_global_stats: false
  }
}
layer {
  name: "scale3d_branch2c"
  type: "Scale"
  bottom: "res3d_branch2c"
  top: "res3d_branch2c"
  scale_param {
    bias_term: true
  }
}
layer {
  name: "res3d"
  type: "Eltwise"
  bottom: "res3c"
  bottom: "res3d_branch2c"
  top: "res3d"
  eltwise_param {
    operation: SUM
  }
}
layer {
  name: "res3d_relu"
  type: "ReLU"
  bottom: "res3d"
  top: "res3d"
}
layer {
  name: "res4a_branch1"
  type: "Convolution"
  bottom: "res3d"
  top: "res4a_branch1"
  convolution_param {
    num_output: 1024
    bias_term: false
    pad: 0
    kernel_size: 1
    stride: 2
    weight_filler {
      type: "msra"
    }
  }
}
layer {
  name: "bn4a_branch1"
  type: "BatchNorm"
  bottom: "res4a_branch1"
  top: "res4a_branch1"
  batch_norm_param {
    use_global_stats: false
  }
}
layer {
  name: "scale4a_branch1"
  type: "Scale"
  bottom: "res4a_branch1"
  top: "res4a_branch1"
  scale_param {
    bias_term: true
  }
}
layer {
  name: "res4a_branch2a"
  type: "Convolution"
  bottom: "res3d"
  top: "res4a_branch2a"
  convolution_param {
    num_output: 256
    bias_term: false
    pad: 0
    kernel_size: 1
    stride: 2
    weight_filler {
      type: "msra"
    }
  }
}
layer {
  name: "bn4a_branch2a"
  type: "BatchNorm"
  bottom: "res4a_branch2a"
  top: "res4a_branch2a"
  batch_norm_param {
    use_global_stats: false
  }
}
layer {
  name: "scale4a_branch2a"
  type: "Scale"
  bottom: "res4a_branch2a"
  top: "res4a_branch2a"
  scale_param {
    bias_term: true
  }
}
layer {
  name: "res4a_branch2a_relu"
  type: "ReLU"
  bottom: "res4a_branch2a"
  top: "res4a_branch2a"
}
layer {
  name: "res4a_branch2b"
  type: "Convolution"
  bottom: "res4a_branch2a"
  top: "res4a_branch2b"
  convolution_param {
    num_output: 256
    bias_term: false
    pad: 1
    kernel_size: 3
    stride: 1
    weight_filler {
      type: "msra"
    }
  }
}
layer {
  name: "bn4a_branch2b"
  type: "BatchNorm"
  bottom: "res4a_branch2b"
  top: "res4a_branch2b"
  batch_norm_param {
    use_global_stats: false
  }
}
layer {
  name: "scale4a_branch2b"
  type: "Scale"
  bottom: "res4a_branch2b"
  top: "res4a_branch2b"
  scale_param {
    bias_term: true
  }
}
layer {
  name: "res4a_branch2b_relu"
  type: "ReLU"
  bottom: "res4a_branch2b"
  top: "res4a_branch2b"
}
layer {
  name: "res4a_branch2c"
  type: "Convolution"
  bottom: "res4a_branch2b"
  top: "res4a_branch2c"
  convolution_param {
    num_output: 1024
    bias_term: false
    pad: 0
    kernel_size: 1
    stride: 1
    weight_filler {
      type: "msra"
    }
  }
}
layer {
  name: "bn4a_branch2c"
  type: "BatchNorm"
  bottom: "res4a_branch2c"
  top: "res4a_branch2c"
  batch_norm_param {
    use_global_stats: false
  }
}
layer {
  name: "scale4a_branch2c"
  type: "Scale"
  bottom: "res4a_branch2c"
  top: "res4a_branch2c"
  scale_param {
    bias_term: true
  }
}
layer {
  name: "res4a"
  type: "Eltwise"
  bottom: "res4a_branch1"
  bottom: "res4a_branch2c"
  top: "res4a"
  eltwise_param {
    operation: SUM
  }
}
layer {
  name: "res4a_relu"
  type: "ReLU"
  bottom: "res4a"
  top: "res4a"
}
layer {
  name: "res4b_branch2a"
  type: "Convolution"
  bottom: "res4a"
  top: "res4b_branch2a"
  convolution_param {
    num_output: 256
    bias_term: false
    pad: 0
    kernel_size: 1
    stride: 1
    weight_filler {
      type: "msra"
    }
  }
}
layer {
  name: "bn4b_branch2a"
  type: "BatchNorm"
  bottom: "res4b_branch2a"
  top: "res4b_branch2a"
  batch_norm_param {
    use_global_stats: false
  }
}
layer {
  name: "scale4b_branch2a"
  type: "Scale"
  bottom: "res4b_branch2a"
  top: "res4b_branch2a"
  scale_param {
    bias_term: true
  }
}
layer {
  name: "res4b_branch2a_relu"
  type: "ReLU"
  bottom: "res4b_branch2a"
  top: "res4b_branch2a"
}
layer {
  name: "res4b_branch2b"
  type: "Convolution"
  bottom: "res4b_branch2a"
  top: "res4b_branch2b"
  convolution_param {
    num_output: 256
    bias_term: false
    pad: 1
    kernel_size: 3
    stride: 1
    weight_filler {
      type: "msra"
    }
  }
}
layer {
  name: "bn4b_branch2b"
  type: "BatchNorm"
  bottom: "res4b_branch2b"
  top: "res4b_branch2b"
  batch_norm_param {
    use_global_stats: false
  }
}
layer {
  name: "scale4b_branch2b"
  type: "Scale"
  bottom: "res4b_branch2b"
  top: "res4b_branch2b"
  scale_param {
    bias_term: true
  }
}
layer {
  name: "res4b_branch2b_relu"
  type: "ReLU"
  bottom: "res4b_branch2b"
  top: "res4b_branch2b"
}
layer {
  name: "res4b_branch2c"
  type: "Convolution"
  bottom: "res4b_branch2b"
  top: "res4b_branch2c"
  convolution_param {
    num_output: 1024
    bias_term: false
    pad: 0
    kernel_size: 1
    stride: 1
    weight_filler {
      type: "msra"
    }
  }
}
layer {
  name: "bn4b_branch2c"
  type: "BatchNorm"
  bottom: "res4b_branch2c"
  top: "res4b_branch2c"
  batch_norm_param {
    use_global_stats: false
  }
}
layer {
  name: "scale4b_branch2c"
  type: "Scale"
  bottom: "res4b_branch2c"
  top: "res4b_branch2c"
  scale_param {
    bias_term: true
  }
}
layer {
  name: "res4b"
  type: "Eltwise"
  bottom: "res4a"
  bottom: "res4b_branch2c"
  top: "res4b"
  eltwise_param {
    operation: SUM
  }
}
layer {
  name: "res4b_relu"
  type: "ReLU"
  bottom: "res4b"
  top: "res4b"
}
layer {
  name: "res4c_branch2a"
  type: "Convolution"
  bottom: "res4b"
  top: "res4c_branch2a"
  convolution_param {
    num_output: 256
    bias_term: false
    pad: 0
    kernel_size: 1
    stride: 1
    weight_filler {
      type: "msra"
    }
  }
}
layer {
  name: "bn4c_branch2a"
  type: "BatchNorm"
  bottom: "res4c_branch2a"
  top: "res4c_branch2a"
  batch_norm_param {
    use_global_stats: false
  }
}
layer {
  name: "scale4c_branch2a"
  type: "Scale"
  bottom: "res4c_branch2a"
  top: "res4c_branch2a"
  scale_param {
    bias_term: true
  }
}
layer {
  name: "res4c_branch2a_relu"
  type: "ReLU"
  bottom: "res4c_branch2a"
  top: "res4c_branch2a"
}
layer {
  name: "res4c_branch2b"
  type: "Convolution"
  bottom: "res4c_branch2a"
  top: "res4c_branch2b"
  convolution_param {
    num_output: 256
    bias_term: false
    pad: 1
    kernel_size: 3
    stride: 1
    weight_filler {
      type: "msra"
    }
  }
}
layer {
  name: "bn4c_branch2b"
  type: "BatchNorm"
  bottom: "res4c_branch2b"
  top: "res4c_branch2b"
  batch_norm_param {
    use_global_stats: false
  }
}
layer {
  name: "scale4c_branch2b"
  type: "Scale"
  bottom: "res4c_branch2b"
  top: "res4c_branch2b"
  scale_param {
    bias_term: true
  }
}
layer {
  name: "res4c_branch2b_relu"
  type: "ReLU"
  bottom: "res4c_branch2b"
  top: "res4c_branch2b"
}
layer {
  name: "res4c_branch2c"
  type: "Convolution"
  bottom: "res4c_branch2b"
  top: "res4c_branch2c"
  convolution_param {
    num_output: 1024
    bias_term: false
    pad: 0
    kernel_size: 1
    stride: 1
    weight_filler {
      type: "msra"
    }
  }
}
layer {
  name: "bn4c_branch2c"
  type: "BatchNorm"
  bottom: "res4c_branch2c"
  top: "res4c_branch2c"
  batch_norm_param {
    use_global_stats: false
  }
}
layer {
  name: "scale4c_branch2c"
  type: "Scale"
  bottom: "res4c_branch2c"
  top: "res4c_branch2c"
  scale_param {
    bias_term: true
  }
}
layer {
  name: "res4c"
  type: "Eltwise"
  bottom: "res4b"
  bottom: "res4c_branch2c"
  top: "res4c"
  eltwise_param {
    operation: SUM
  }
}
layer {
  name: "res4c_relu"
  type: "ReLU"
  bottom: "res4c"
  top: "res4c"
}
layer {
  name: "res4d_branch2a"
  type: "Convolution"
  bottom: "res4c"
  top: "res4d_branch2a"
  convolution_param {
    num_output: 256
    bias_term: false
    pad: 0
    kernel_size: 1
    stride: 1
    weight_filler {
      type: "msra"
    }
  }
}
layer {
  name: "bn4d_branch2a"
  type: "BatchNorm"
  bottom: "res4d_branch2a"
  top: "res4d_branch2a"
  batch_norm_param {
    use_global_stats: false
  }
}
layer {
  name: "scale4d_branch2a"
  type: "Scale"
  bottom: "res4d_branch2a"
  top: "res4d_branch2a"
  scale_param {
    bias_term: true
  }
}
layer {
  name: "res4d_branch2a_relu"
  type: "ReLU"
  bottom: "res4d_branch2a"
  top: "res4d_branch2a"
}
layer {
  name: "res4d_branch2b"
  type: "Convolution"
  bottom: "res4d_branch2a"
  top: "res4d_branch2b"
  convolution_param {
    num_output: 256
    bias_term: false
    pad: 1
    kernel_size: 3
    stride: 1
    weight_filler {
      type: "msra"
    }
  }
}
layer {
  name: "bn4d_branch2b"
  type: "BatchNorm"
  bottom: "res4d_branch2b"
  top: "res4d_branch2b"
  batch_norm_param {
    use_global_stats: false
  }
}
layer {
  name: "scale4d_branch2b"
  type: "Scale"
  bottom: "res4d_branch2b"
  top: "res4d_branch2b"
  scale_param {
    bias_term: true
  }
}
layer {
  name: "res4d_branch2b_relu"
  type: "ReLU"
  bottom: "res4d_branch2b"
  top: "res4d_branch2b"
}
layer {
  name: "res4d_branch2c"
  type: "Convolution"
  bottom: "res4d_branch2b"
  top: "res4d_branch2c"
  convolution_param {
    num_output: 1024
    bias_term: false
    pad: 0
    kernel_size: 1
    stride: 1
    weight_filler {
      type: "msra"
    }
  }
}
layer {
  name: "bn4d_branch2c"
  type: "BatchNorm"
  bottom: "res4d_branch2c"
  top: "res4d_branch2c"
  batch_norm_param {
    use_global_stats: false
  }
}
layer {
  name: "scale4d_branch2c"
  type: "Scale"
  bottom: "res4d_branch2c"
  top: "res4d_branch2c"
  scale_param {
    bias_term: true
  }
}
layer {
  name: "res4d"
  type: "Eltwise"
  bottom: "res4c"
  bottom: "res4d_branch2c"
  top: "res4d"
  eltwise_param {
    operation: SUM
  }
}
layer {
  name: "res4d_relu"
  type: "ReLU"
  bottom: "res4d"
  top: "res4d"
}
layer {
  name: "res4e_branch2a"
  type: "Convolution"
  bottom: "res4d"
  top: "res4e_branch2a"
  convolution_param {
    num_output: 256
    bias_term: false
    pad: 0
    kernel_size: 1
    stride: 1
    weight_filler {
      type: "msra"
    }
  }
}
layer {
  name: "bn4e_branch2a"
  type: "BatchNorm"
  bottom: "res4e_branch2a"
  top: "res4e_branch2a"
  batch_norm_param {
    use_global_stats: false
  }
}
layer {
  name: "scale4e_branch2a"
  type: "Scale"
  bottom: "res4e_branch2a"
  top: "res4e_branch2a"
  scale_param {
    bias_term: true
  }
}
layer {
  name: "res4e_branch2a_relu"
  type: "ReLU"
  bottom: "res4e_branch2a"
  top: "res4e_branch2a"
}
layer {
  name: "res4e_branch2b"
  type: "Convolution"
  bottom: "res4e_branch2a"
  top: "res4e_branch2b"
  convolution_param {
    num_output: 256
    bias_term: false
    pad: 1
    kernel_size: 3
    stride: 1
    weight_filler {
      type: "msra"
    }
  }
}
layer {
  name: "bn4e_branch2b"
  type: "BatchNorm"
  bottom: "res4e_branch2b"
  top: "res4e_branch2b"
  batch_norm_param {
    use_global_stats: false
  }
}
layer {
  name: "scale4e_branch2b"
  type: "Scale"
  bottom: "res4e_branch2b"
  top: "res4e_branch2b"
  scale_param {
    bias_term: true
  }
}
layer {
  name: "res4e_branch2b_relu"
  type: "ReLU"
  bottom: "res4e_branch2b"
  top: "res4e_branch2b"
}
layer {
  name: "res4e_branch2c"
  type: "Convolution"
  bottom: "res4e_branch2b"
  top: "res4e_branch2c"
  convolution_param {
    num_output: 1024
    bias_term: false
    pad: 0
    kernel_size: 1
    stride: 1
    weight_filler {
      type: "msra"
    }
  }
}
layer {
  name: "bn4e_branch2c"
  type: "BatchNorm"
  bottom: "res4e_branch2c"
  top: "res4e_branch2c"
  batch_norm_param {
    use_global_stats: false
  }
}
layer {
  name: "scale4e_branch2c"
  type: "Scale"
  bottom: "res4e_branch2c"
  top: "res4e_branch2c"
  scale_param {
    bias_term: true
  }
}
layer {
  name: "res4e"
  type: "Eltwise"
  bottom: "res4d"
  bottom: "res4e_branch2c"
  top: "res4e"
  eltwise_param {
    operation: SUM
  }
}
layer {
  name: "res4e_relu"
  type: "ReLU"
  bottom: "res4e"
  top: "res4e"
}
layer {
  name: "res4f_branch2a"
  type: "Convolution"
  bottom: "res4e"
  top: "res4f_branch2a"
  convolution_param {
    num_output: 256
    bias_term: false
    pad: 0
    kernel_size: 1
    stride: 1
    weight_filler {
      type: "msra"
    }
  }
}
layer {
  name: "bn4f_branch2a"
  type: "BatchNorm"
  bottom: "res4f_branch2a"
  top: "res4f_branch2a"
  batch_norm_param {
    use_global_stats: false
  }
}
layer {
  name: "scale4f_branch2a"
  type: "Scale"
  bottom: "res4f_branch2a"
  top: "res4f_branch2a"
  scale_param {
    bias_term: true
  }
}
layer {
  name: "res4f_branch2a_relu"
  type: "ReLU"
  bottom: "res4f_branch2a"
  top: "res4f_branch2a"
}
layer {
  name: "res4f_branch2b"
  type: "Convolution"
  bottom: "res4f_branch2a"
  top: "res4f_branch2b"
  convolution_param {
    num_output: 256
    bias_term: false
    pad: 1
    kernel_size: 3
    stride: 1
    weight_filler {
      type: "msra"
    }
  }
}
layer {
  name: "bn4f_branch2b"
  type: "BatchNorm"
  bottom: "res4f_branch2b"
  top: "res4f_branch2b"
  batch_norm_param {
    use_global_stats: false
  }
}
layer {
  name: "scale4f_branch2b"
  type: "Scale"
  bottom: "res4f_branch2b"
  top: "res4f_branch2b"
  scale_param {
    bias_term: true
  }
}
layer {
  name: "res4f_branch2b_relu"
  type: "ReLU"
  bottom: "res4f_branch2b"
  top: "res4f_branch2b"
}
layer {
  name: "res4f_branch2c"
  type: "Convolution"
  bottom: "res4f_branch2b"
  top: "res4f_branch2c"
  convolution_param {
    num_output: 1024
    bias_term: false
    pad: 0
    kernel_size: 1
    stride: 1
    weight_filler {
      type: "m
I1210 18:42:08.923633  1585 layer_factory.hpp:77] Creating layer data
I1210 18:42:08.924902  1585 net.cpp:100] Creating Layer data
I1210 18:42:08.924978  1585 net.cpp:408] data -> data
I1210 18:42:08.925849  1585 net.cpp:408] data -> label
I1210 18:42:08.926532  1585 image_data_layer.cpp:38] Opening file /data/face_recongize/resnet/trainAll.list
I1210 18:42:11.381027  1585 image_data_layer.cpp:53] Shuffling data
I1210 18:42:15.041663  1585 image_data_layer.cpp:58] A total of 4008201 images.
I1210 18:42:15.216387  1585 image_data_layer.cpp:85] output data size: 50,3,224,224
I1210 18:42:15.360973  1585 net.cpp:150] Setting up data
I1210 18:42:15.361104  1585 net.cpp:157] Top shape: 50 3 224 224 (7526400)
I1210 18:42:15.361126  1585 net.cpp:157] Top shape: 50 (50)
I1210 18:42:15.361133  1585 net.cpp:165] Memory required for data: 30105800
I1210 18:42:15.361182  1585 layer_factory.hpp:77] Creating layer label_data_1_split
I1210 18:42:15.362504  1585 net.cpp:100] Creating Layer label_data_1_split
I1210 18:42:15.362578  1585 net.cpp:434] label_data_1_split <- label
I1210 18:42:15.362637  1585 net.cpp:408] label_data_1_split -> label_data_1_split_0
I1210 18:42:15.362694  1585 net.cpp:408] label_data_1_split -> label_data_1_split_1
I1210 18:42:15.362913  1585 net.cpp:150] Setting up label_data_1_split
I1210 18:42:15.362944  1585 net.cpp:157] Top shape: 50 (50)
I1210 18:42:15.362953  1585 net.cpp:157] Top shape: 50 (50)
I1210 18:42:15.362960  1585 net.cpp:165] Memory required for data: 30106200
I1210 18:42:15.362968  1585 layer_factory.hpp:77] Creating layer conv1
I1210 18:42:15.363044  1585 net.cpp:100] Creating Layer conv1
I1210 18:42:15.363060  1585 net.cpp:434] conv1 <- data
I1210 18:42:15.363075  1585 net.cpp:408] conv1 -> conv1
I1210 18:42:17.678977  1585 net.cpp:150] Setting up conv1
I1210 18:42:17.679242  1585 net.cpp:157] Top shape: 50 64 112 112 (40140800)
I1210 18:42:17.679275  1585 net.cpp:165] Memory required for data: 190669400
I1210 18:42:17.679428  1585 layer_factory.hpp:77] Creating layer bn_conv1
I1210 18:42:17.679597  1585 net.cpp:100] Creating Layer bn_conv1
I1210 18:42:17.679690  1585 net.cpp:434] bn_conv1 <- conv1
I1210 18:42:17.679731  1585 net.cpp:395] bn_conv1 -> conv1 (in-place)
I1210 18:42:17.680181  1585 net.cpp:150] Setting up bn_conv1
I1210 18:42:17.680234  1585 net.cpp:157] Top shape: 50 64 112 112 (40140800)
I1210 18:42:17.680256  1585 net.cpp:165] Memory required for data: 351232600
I1210 18:42:17.680299  1585 layer_factory.hpp:77] Creating layer scale_conv1
I1210 18:42:17.680351  1585 net.cpp:100] Creating Layer scale_conv1
I1210 18:42:17.680374  1585 net.cpp:434] scale_conv1 <- conv1
I1210 18:42:17.680398  1585 net.cpp:395] scale_conv1 -> conv1 (in-place)
I1210 18:42:17.680542  1585 layer_factory.hpp:77] Creating layer scale_conv1
I1210 18:42:17.680860  1585 net.cpp:150] Setting up scale_conv1
I1210 18:42:17.680893  1585 net.cpp:157] Top shape: 50 64 112 112 (40140800)
I1210 18:42:17.680912  1585 net.cpp:165] Memory required for data: 511795800
I1210 18:42:17.680936  1585 layer_factory.hpp:77] Creating layer conv1_relu
I1210 18:42:17.681001  1585 net.cpp:100] Creating Layer conv1_relu
I1210 18:42:17.681030  1585 net.cpp:434] conv1_relu <- conv1
I1210 18:42:17.681052  1585 net.cpp:395] conv1_relu -> conv1 (in-place)
I1210 18:42:17.681377  1585 net.cpp:150] Setting up conv1_relu
I1210 18:42:17.681416  1585 net.cpp:157] Top shape: 50 64 112 112 (40140800)
I1210 18:42:17.681435  1585 net.cpp:165] Memory required for data: 672359000
I1210 18:42:17.681454  1585 layer_factory.hpp:77] Creating layer pool1
I1210 18:42:17.681500  1585 net.cpp:100] Creating Layer pool1
I1210 18:42:17.681524  1585 net.cpp:434] pool1 <- conv1
I1210 18:42:17.681552  1585 net.cpp:408] pool1 -> pool1
I1210 18:42:17.682729  1585 net.cpp:150] Setting up pool1
I1210 18:42:17.682775  1585 net.cpp:157] Top shape: 50 64 56 56 (10035200)
I1210 18:42:17.682786  1585 net.cpp:165] Memory required for data: 712499800
I1210 18:42:17.682796  1585 layer_factory.hpp:77] Creating layer pool1_pool1_0_split
I1210 18:42:17.682817  1585 net.cpp:100] Creating Layer pool1_pool1_0_split
I1210 18:42:17.682828  1585 net.cpp:434] pool1_pool1_0_split <- pool1
I1210 18:42:17.682842  1585 net.cpp:408] pool1_pool1_0_split -> pool1_pool1_0_split_0
I1210 18:42:17.682864  1585 net.cpp:408] pool1_pool1_0_split -> pool1_pool1_0_split_1
I1210 18:42:17.682951  1585 net.cpp:150] Setting up pool1_pool1_0_split
I1210 18:42:17.682973  1585 net.cpp:157] Top shape: 50 64 56 56 (10035200)
I1210 18:42:17.682983  1585 net.cpp:157] Top shape: 50 64 56 56 (10035200)
I1210 18:42:17.683001  1585 net.cpp:165] Memory required for data: 792781400
I1210 18:42:17.683014  1585 layer_factory.hpp:77] Creating layer res2a_branch1
I1210 18:42:17.683054  1585 net.cpp:100] Creating Layer res2a_branch1
I1210 18:42:17.683071  1585 net.cpp:434] res2a_branch1 <- pool1_pool1_0_split_0
I1210 18:42:17.683084  1585 net.cpp:408] res2a_branch1 -> res2a_branch1
I1210 18:42:17.689133  1585 net.cpp:150] Setting up res2a_branch1
I1210 18:42:17.689183  1585 net.cpp:157] Top shape: 50 256 56 56 (40140800)
I1210 18:42:17.689194  1585 net.cpp:165] Memory required for data: 953344600
I1210 18:42:17.689234  1585 layer_factory.hpp:77] Creating layer bn2a_branch1
I1210 18:42:17.689261  1585 net.cpp:100] Creating Layer bn2a_branch1
I1210 18:42:17.689271  1585 net.cpp:434] bn2a_branch1 <- res2a_branch1
I1210 18:42:17.689288  1585 net.cpp:395] bn2a_branch1 -> res2a_branch1 (in-place)
I1210 18:42:17.703666  1585 net.cpp:150] Setting up bn2a_branch1
I1210 18:42:17.703714  1585 net.cpp:157] Top shape: 50 256 56 56 (40140800)
I1210 18:42:17.703723  1585 net.cpp:165] Memory required for data: 1113907800
I1210 18:42:17.703745  1585 layer_factory.hpp:77] Creating layer scale2a_branch1
I1210 18:42:17.703766  1585 net.cpp:100] Creating Layer scale2a_branch1
I1210 18:42:17.703775  1585 net.cpp:434] scale2a_branch1 <- res2a_branch1
I1210 18:42:17.703789  1585 net.cpp:395] scale2a_branch1 -> res2a_branch1 (in-place)
I1210 18:42:17.703869  1585 layer_factory.hpp:77] Creating layer scale2a_branch1
I1210 18:42:17.704098  1585 net.cpp:150] Setting up scale2a_branch1
I1210 18:42:17.704123  1585 net.cpp:157] Top shape: 50 256 56 56 (40140800)
I1210 18:42:17.704290  1585 net.cpp:165] Memory required for data: 1274471000
I1210 18:42:17.704324  1585 layer_factory.hpp:77] Creating layer res2a_branch2a
I1210 18:42:17.704341  1585 net.cpp:100] Creating Layer res2a_branch2a
I1210 18:42:17.704355  1585 net.cpp:434] res2a_branch2a <- pool1_pool1_0_split_1
I1210 18:42:17.704366  1585 net.cpp:408] res2a_branch2a -> res2a_branch2a
I1210 18:42:17.707577  1585 net.cpp:150] Setting up res2a_branch2a
I1210 18:42:17.707615  1585 net.cpp:157] Top shape: 50 64 56 56 (10035200)
I1210 18:42:17.707624  1585 net.cpp:165] Memory required for data: 1314611800
I1210 18:42:17.707640  1585 layer_factory.hpp:77] Creating layer bn2a_branch2a
I1210 18:42:17.707655  1585 net.cpp:100] Creating Layer bn2a_branch2a
I1210 18:42:17.707664  1585 net.cpp:434] bn2a_branch2a <- res2a_branch2a
I1210 18:42:17.707680  1585 net.cpp:395] bn2a_branch2a -> res2a_branch2a (in-place)
I1210 18:42:17.708048  1585 net.cpp:150] Setting up bn2a_branch2a
I1210 18:42:17.708072  1585 net.cpp:157] Top shape: 50 64 56 56 (10035200)
I1210 18:42:17.708081  1585 net.cpp:165] Memory required for data: 1354752600
I1210 18:42:17.708101  1585 layer_factory.hpp:77] Creating layer scale2a_branch2a
I1210 18:42:17.708120  1585 net.cpp:100] Creating Layer scale2a_branch2a
I1210 18:42:17.708128  1585 net.cpp:434] scale2a_branch2a <- res2a_branch2a
I1210 18:42:17.708138  1585 net.cpp:395] scale2a_branch2a -> res2a_branch2a (in-place)
I1210 18:42:17.708220  1585 layer_factory.hpp:77] Creating layer scale2a_branch2a
I1210 18:42:17.708428  1585 net.cpp:150] Setting up scale2a_branch2a
I1210 18:42:17.708449  1585 net.cpp:157] Top shape: 50 64 56 56 (10035200)
I1210 18:42:17.708456  1585 net.cpp:165] Memory required for data: 1394893400
I1210 18:42:17.708467  1585 layer_factory.hpp:77] Creating layer res2a_branch2a_relu
I1210 18:42:17.708482  1585 net.cpp:100] Creating Layer res2a_branch2a_relu
I1210 18:42:17.708489  1585 net.cpp:434] res2a_branch2a_relu <- res2a_branch2a
I1210 18:42:17.708498  1585 net.cpp:395] res2a_branch2a_relu -> res2a_branch2a (in-place)
I1210 18:42:17.708803  1585 net.cpp:150] Setting up res2a_branch2a_relu
I1210 18:42:17.708828  1585 net.cpp:157] Top shape: 50 64 56 56 (10035200)
I1210 18:42:17.708835  1585 net.cpp:165] Memory required for data: 1435034200
I1210 18:42:17.708842  1585 layer_factory.hpp:77] Creating layer res2a_branch2b
I1210 18:42:17.708858  1585 net.cpp:100] Creating Layer res2a_branch2b
I1210 18:42:17.708864  1585 net.cpp:434] res2a_branch2b <- res2a_branch2a
I1210 18:42:17.708874  1585 net.cpp:408] res2a_branch2b -> res2a_branch2b
I1210 18:42:17.719877  1585 net.cpp:150] Setting up res2a_branch2b
I1210 18:42:17.719918  1585 net.cpp:157] Top shape: 50 64 56 56 (10035200)
I1210 18:42:17.719928  1585 net.cpp:165] Memory required for data: 1475175000
I1210 18:42:17.719938  1585 layer_factory.hpp:77] Creating layer bn2a_branch2b
I1210 18:42:17.719964  1585 net.cpp:100] Creating Layer bn2a_branch2b
I1210 18:42:17.719972  1585 net.cpp:434] bn2a_branch2b <- res2a_branch2b
I1210 18:42:17.719982  1585 net.cpp:395] bn2a_branch2b -> res2a_branch2b (in-place)
I1210 18:42:17.720396  1585 net.cpp:150] Setting up bn2a_branch2b
I1210 18:42:17.720432  1585 net.cpp:157] Top shape: 50 64 56 56 (10035200)
I1210 18:42:17.720440  1585 net.cpp:165] Memory required for data: 1515315800
I1210 18:42:17.720459  1585 layer_factory.hpp:77] Creating layer scale2a_branch2b
I1210 18:42:17.720474  1585 net.cpp:100] Creating Layer scale2a_branch2b
I1210 18:42:17.720484  1585 net.cpp:434] scale2a_branch2b <- res2a_branch2b
I1210 18:42:17.720494  1585 net.cpp:395] scale2a_branch2b -> res2a_branch2b (in-place)
I1210 18:42:17.720577  1585 layer_factory.hpp:77] Creating layer scale2a_branch2b
I1210 18:42:17.720829  1585 net.cpp:150] Setting up scale2a_branch2b
I1210 18:42:17.720856  1585 net.cpp:157] Top shape: 50 64 56 56 (10035200)
I1210 18:42:17.720865  1585 net.cpp:165] Memory required for data: 1555456600
I1210 18:42:17.720885  1585 layer_factory.hpp:77] Creating layer res2a_branch2b_relu
I1210 18:42:17.720937  1585 net.cpp:100] Creating Layer res2a_branch2b_relu
I1210 18:42:17.720947  1585 net.cpp:434] res2a_branch2b_relu <- res2a_branch2b
I1210 18:42:17.721001  1585 net.cpp:395] res2a_branch2b_relu -> res2a_branch2b (in-place)
I1210 18:42:17.723515  1585 net.cpp:150] Setting up res2a_branch2b_relu
I1210 18:42:17.723562  1585 net.cpp:157] Top shape: 50 64 56 56 (10035200)
I1210 18:42:17.723573  1585 net.cpp:165] Memory required for data: 1595597400
I1210 18:42:17.723584  1585 layer_factory.hpp:77] Creating layer res2a_branch2c
I1210 18:42:17.723604  1585 net.cpp:100] Creating Layer res2a_branch2c
I1210 18:42:17.723615  1585 net.cpp:434] res2a_branch2c <- res2a_branch2b
I1210 18:42:17.723629  1585 net.cpp:408] res2a_branch2c -> res2a_branch2c
I1210 18:42:17.727108  1585 net.cpp:150] Setting up res2a_branch2c
I1210 18:42:17.727154  1585 net.cpp:157] Top shape: 50 256 56 56 (40140800)
I1210 18:42:17.727227  1585 net.cpp:165] Memory required for data: 1756160600
I1210 18:42:17.727246  1585 layer_factory.hpp:77] Creating layer bn2a_branch2c
I1210 18:42:17.727268  1585 net.cpp:100] Creating Layer bn2a_branch2c
I1210 18:42:17.727280  1585 net.cpp:434] bn2a_branch2c <- res2a_branch2c
I1210 18:42:17.727316  1585 net.cpp:395] bn2a_branch2c -> res2a_branch2c (in-place)
I1210 18:42:17.727984  1585 net.cpp:150] Setting up bn2a_branch2c
I1210 18:42:17.728050  1585 net.cpp:157] Top shape: 50 256 56 56 (40140800)
I1210 18:42:17.728062  1585 net.cpp:165] Memory required for data: 1916723800
I1210 18:42:17.728090  1585 layer_factory.hpp:77] Creating layer scale2a_branch2c
I1210 18:42:17.728107  1585 net.cpp:100] Creating Layer scale2a_branch2c
I1210 18:42:17.728124  1585 net.cpp:434] scale2a_branch2c <- res2a_branch2c
I1210 18:42:17.728137  1585 net.cpp:395] scale2a_branch2c -> res2a_branch2c (in-place)
I1210 18:42:17.728317  1585 layer_factory.hpp:77] Creating layer scale2a_branch2c
I1210 18:42:17.728711  1585 net.cpp:150] Setting up scale2a_branch2c
I1210 18:42:17.728740  1585 net.cpp:157] Top shape: 50 256 56 56 (40140800)
I1210 18:42:17.728749  1585 net.cpp:165] Memory required for data: 2077287000
I1210 18:42:17.728763  1585 layer_factory.hpp:77] Creating layer res2a
I1210 18:42:17.728853  1585 net.cpp:100] Creating Layer res2a
I1210 18:42:17.728884  1585 net.cpp:434] res2a <- res2a_branch1
I1210 18:42:17.728901  1585 net.cpp:434] res2a <- res2a_branch2c
I1210 18:42:17.728981  1585 net.cpp:408] res2a -> res2a
I1210 18:42:17.729079  1585 net.cpp:150] Setting up res2a
I1210 18:42:17.729106  1585 net.cpp:157] Top shape: 50 256 56 56 (40140800)
I1210 18:42:17.729115  1585 net.cpp:165] Memory required for data: 2237850200
I1210 18:42:17.729123  1585 layer_factory.hpp:77] Creating layer res2a_relu
I1210 18:42:17.729176  1585 net.cpp:100] Creating Layer res2a_relu
I1210 18:42:17.729195  1585 net.cpp:434] res2a_relu <- res2a
I1210 18:42:17.729220  1585 net.cpp:395] res2a_relu -> res2a (in-place)
I1210 18:42:17.731621  1585 net.cpp:150] Setting up res2a_relu
I1210 18:42:17.731664  1585 net.cpp:157] Top shape: 50 256 56 56 (40140800)
I1210 18:42:17.731673  1585 net.cpp:165] Memory required for data: 2398413400
I1210 18:42:17.731683  1585 layer_factory.hpp:77] Creating layer res2a_res2a_relu_0_split
I1210 18:42:17.731695  1585 net.cpp:100] Creating Layer res2a_res2a_relu_0_split
I1210 18:42:17.731703  1585 net.cpp:434] res2a_res2a_relu_0_split <- res2a
I1210 18:42:17.731715  1585 net.cpp:408] res2a_res2a_relu_0_split -> res2a_res2a_relu_0_split_0
I1210 18:42:17.731730  1585 net.cpp:408] res2a_res2a_relu_0_split -> res2a_res2a_relu_0_split_1
I1210 18:42:17.731884  1585 net.cpp:150] Setting up res2a_res2a_relu_0_split
I1210 18:42:17.731911  1585 net.cpp:157] Top shape: 50 256 56 56 (40140800)
I1210 18:42:17.731921  1585 net.cpp:157] Top shape: 50 256 56 56 (40140800)
I1210 18:42:17.731928  1585 net.cpp:165] Memory required for data: 2719539800
I1210 18:42:17.731942  1585 layer_factory.hpp:77] Creating layer res2b_branch2a
I1210 18:42:17.732064  1585 net.cpp:100] Creating Layer res2b_branch2a
I1210 18:42:17.732091  1585 net.cpp:434] res2b_branch2a <- res2a_res2a_relu_0_split_0
I1210 18:42:17.732290  1585 net.cpp:408] res2b_branch2a -> res2b_branch2a
I1210 18:42:17.738911  1585 net.cpp:150] Setting up res2b_branch2a
I1210 18:42:17.738983  1585 net.cpp:157] Top shape: 50 64 56 56 (10035200)
I1210 18:42:17.739012  1585 net.cpp:165] Memory required for data: 2759680600
I1210 18:42:17.739042  1585 layer_factory.hpp:77] Creating layer bn2b_branch2a
I1210 18:42:17.739116  1585 net.cpp:100] Creating Layer bn2b_branch2a
I1210 18:42:17.739152  1585 net.cpp:434] bn2b_branch2a <- res2b_branch2a
I1210 18:42:17.739243  1585 net.cpp:395] bn2b_branch2a -> res2b_branch2a (in-place)
I1210 18:42:17.739909  1585 net.cpp:150] Setting up bn2b_branch2a
I1210 18:42:17.739950  1585 net.cpp:157] Top shape: 50 64 56 56 (10035200)
I1210 18:42:17.739972  1585 net.cpp:165] Memory required for data: 2799821400
I1210 18:42:17.740072  1585 layer_factory.hpp:77] Creating layer scale2b_branch2a
I1210 18:42:17.740118  1585 net.cpp:100] Creating Layer scale2b_branch2a
I1210 18:42:17.740141  1585 net.cpp:434] scale2b_branch2a <- res2b_branch2a
I1210 18:42:17.740212  1585 net.cpp:395] scale2b_branch2a -> res2b_branch2a (in-place)
I1210 18:42:17.740370  1585 layer_factory.hpp:77] Creating layer scale2b_branch2a
I1210 18:42:17.740789  1585 net.cpp:150] Setting up scale2b_branch2a
I1210 18:42:17.740828  1585 net.cpp:157] Top shape: 50 64 56 56 (10035200)
I1210 18:42:17.740850  1585 net.cpp:165] Memory required for data: 2839962200
I1210 18:42:17.740878  1585 layer_factory.hpp:77] Creating layer res2b_branch2a_relu
I1210 18:42:17.740914  1585 net.cpp:100] Creating Layer res2b_branch2a_relu
I1210 18:42:17.740938  1585 net.cpp:434] res2b_branch2a_relu <- res2b_branch2a
I1210 18:42:17.741003  1585 net.cpp:395] res2b_branch2a_relu -> res2b_branch2a (in-place)
I1210 18:42:17.741547  1585 net.cpp:150] Setting up res2b_branch2a_relu
I1210 18:42:17.741593  1585 net.cpp:157] Top shape: 50 64 56 56 (10035200)
I1210 18:42:17.741616  1585 net.cpp:165] Memory required for data: 2880103000
I1210 18:42:17.741639  1585 layer_factory.hpp:77] Creating layer res2b_branch2b
I1210 18:42:17.741714  1585 net.cpp:100] Creating Layer res2b_branch2b
I1210 18:42:17.741744  1585 net.cpp:434] res2b_branch2b <- res2b_branch2a
I1210 18:42:17.741807  1585 net.cpp:408] res2b_branch2b -> res2b_branch2b
I1210 18:42:17.748215  1585 net.cpp:150] Setting up res2b_branch2b
I1210 18:42:17.748278  1585 net.cpp:157] Top shape: 50 64 56 56 (10035200)
I1210 18:42:17.748303  1585 net.cpp:165] Memory required for data: 2920243800
I1210 18:42:17.748330  1585 layer_factory.hpp:77] Creating layer bn2b_branch2b
I1210 18:42:17.748397  1585 net.cpp:100] Creating Layer bn2b_branch2b
I1210 18:42:17.748428  1585 net.cpp:434] bn2b_branch2b <- res2b_branch2b
I1210 18:42:17.748463  1585 net.cpp:395] bn2b_branch2b -> res2b_branch2b (in-place)
I1210 18:42:17.749078  1585 net.cpp:150] Setting up bn2b_branch2b
I1210 18:42:17.749117  1585 net.cpp:157] Top shape: 50 64 56 56 (10035200)
I1210 18:42:17.749140  1585 net.cpp:165] Memory required for data: 2960384600
I1210 18:42:17.749171  1585 layer_factory.hpp:77] Creating layer scale2b_branch2b
I1210 18:42:17.749222  1585 net.cpp:100] Creating Layer scale2b_branch2b
I1210 18:42:17.749250  1585 net.cpp:434] scale2b_branch2b <- res2b_branch2b
I1210 18:42:17.749276  1585 net.cpp:395] scale2b_branch2b -> res2b_branch2b (in-place)
I1210 18:42:17.749459  1585 layer_factory.hpp:77] Creating layer scale2b_branch2b
I1210 18:42:17.749833  1585 net.cpp:150] Setting up scale2b_branch2b
I1210 18:42:17.749902  1585 net.cpp:157] Top shape: 50 64 56 56 (10035200)
I1210 18:42:17.749927  1585 net.cpp:165] Memory required for data: 3000525400
I1210 18:42:17.749954  1585 layer_factory.hpp:77] Creating layer res2b_branch2b_relu
I1210 18:42:17.749984  1585 net.cpp:100] Creating Layer res2b_branch2b_relu
I1210 18:42:17.750006  1585 net.cpp:434] res2b_branch2b_relu <- res2b_branch2b
I1210 18:42:17.750062  1585 net.cpp:395] res2b_branch2b_relu -> res2b_branch2b (in-place)
I1210 18:42:17.750654  1585 net.cpp:150] Setting up res2b_branch2b_relu
I1210 18:42:17.750739  1585 net.cpp:157] Top shape: 50 64 56 56 (10035200)
I1210 18:42:17.750763  1585 net.cpp:165] Memory required for data: 3040666200
I1210 18:42:17.750783  1585 layer_factory.hpp:77] Creating layer res2b_branch2c
I1210 18:42:17.750846  1585 net.cpp:100] Creating Layer res2b_branch2c
I1210 18:42:17.750876  1585 net.cpp:434] res2b_branch2c <- res2b_branch2b
I1210 18:42:17.750934  1585 net.cpp:408] res2b_branch2c -> res2b_branch2c
I1210 18:42:17.756065  1585 net.cpp:150] Setting up res2b_branch2c
I1210 18:42:17.756120  1585 net.cpp:157] Top shape: 50 256 56 56 (40140800)
I1210 18:42:17.756144  1585 net.cpp:165] Memory required for data: 3201229400
I1210 18:42:17.756177  1585 layer_factory.hpp:77] Creating layer bn2b_branch2c
I1210 18:42:17.756254  1585 net.cpp:100] Creating Layer bn2b_branch2c
I1210 18:42:17.756287  1585 net.cpp:434] bn2b_branch2c <- res2b_branch2c
I1210 18:42:17.756346  1585 net.cpp:395] bn2b_branch2c -> res2b_branch2c (in-place)
I1210 18:42:17.756883  1585 net.cpp:150] Setting up bn2b_branch2c
I1210 18:42:17.756920  1585 net.cpp:157] Top shape: 50 256 56 56 (40140800)
I1210 18:42:17.756942  1585 net.cpp:165] Memory required for data: 3361792600
I1210 18:42:17.756970  1585 layer_factory.hpp:77] Creating layer scale2b_branch2c
I1210 18:42:17.757030  1585 net.cpp:100] Creating Layer scale2b_branch2c
I1210 18:42:17.757057  1585 net.cpp:434] scale2b_branch2c <- res2b_branch2c
I1210 18:42:17.757083  1585 net.cpp:395] scale2b_branch2c -> res2b_branch2c (in-place)
I1210 18:42:17.757221  1585 layer_factory.hpp:77] Creating layer scale2b_branch2c
I1210 18:42:17.757647  1585 net.cpp:150] Setting up scale2b_branch2c
I1210 18:42:17.757684  1585 net.cpp:157] Top shape: 50 256 56 56 (40140800)
I1210 18:42:17.757704  1585 net.cpp:165] Memory required for data: 3522355800
I1210 18:42:17.757730  1585 layer_factory.hpp:77] Creating layer res2b
I1210 18:42:17.757756  1585 net.cpp:100] Creating Layer res2b
I1210 18:42:17.757777  1585 net.cpp:434] res2b <- res2a_res2a_relu_0_split_1
I1210 18:42:17.757807  1585 net.cpp:434] res2b <- res2b_branch2c
I1210 18:42:17.757867  1585 net.cpp:408] res2b -> res2b
I1210 18:42:17.757975  1585 net.cpp:150] Setting up res2b
I1210 18:42:17.758008  1585 net.cpp:157] Top shape: 50 256 56 56 (40140800)
I1210 18:42:17.758028  1585 net.cpp:165] Memory required for data: 3682919000
I1210 18:42:17.758047  1585 layer_factory.hpp:77] Creating layer res2b_relu
I1210 18:42:17.758080  1585 net.cpp:100] Creating Layer res2b_relu
I1210 18:42:17.758102  1585 net.cpp:434] res2b_relu <- res2b
I1210 18:42:17.758124  1585 net.cpp:395] res2b_relu -> res2b (in-place)
I1210 18:42:17.758627  1585 net.cpp:150] Setting up res2b_relu
I1210 18:42:17.758669  1585 net.cpp:157] Top shape: 50 256 56 56 (40140800)
I1210 18:42:17.758690  1585 net.cpp:165] Memory required for data: 3843482200
I1210 18:42:17.758793  1585 layer_factory.hpp:77] Creating layer res2b_res2b_relu_0_split
I1210 18:42:17.758828  1585 net.cpp:100] Creating Layer res2b_res2b_relu_0_split
I1210 18:42:17.758850  1585 net.cpp:434] res2b_res2b_relu_0_split <- res2b
I1210 18:42:17.758911  1585 net.cpp:408] res2b_res2b_relu_0_split -> res2b_res2b_relu_0_split_0
I1210 18:42:17.758949  1585 net.cpp:408] res2b_res2b_relu_0_split -> res2b_res2b_relu_0_split_1
I1210 18:42:17.759086  1585 net.cpp:150] Setting up res2b_res2b_relu_0_split
I1210 18:42:17.759120  1585 net.cpp:157] Top shape: 50 256 56 56 (40140800)
I1210 18:42:17.759143  1585 net.cpp:157] Top shape: 50 256 56 56 (40140800)
I1210 18:42:17.759162  1585 net.cpp:165] Memory required for data: 4164608600
I1210 18:42:17.759182  1585 layer_factory.hpp:77] Creating layer res2c_branch2a
I1210 18:42:17.759284  1585 net.cpp:100] Creating Layer res2c_branch2a
I1210 18:42:17.759316  1585 net.cpp:434] res2c_branch2a <- res2b_res2b_relu_0_split_0
I1210 18:42:17.759343  1585 net.cpp:408] res2c_branch2a -> res2c_branch2a
I1210 18:42:17.763967  1585 net.cpp:150] Setting up res2c_branch2a
I1210 18:42:17.764055  1585 net.cpp:157] Top shape: 50 64 56 56 (10035200)
I1210 18:42:17.764214  1585 net.cpp:165] Memory required for data: 4204749400
I1210 18:42:17.764291  1585 layer_factory.hpp:77] Creating layer bn2c_branch2a
I1210 18:42:17.764346  1585 net.cpp:100] Creating Layer bn2c_branch2a
I1210 18:42:17.764374  1585 net.cpp:434] bn2c_branch2a <- res2c_branch2a
I1210 18:42:17.764397  1585 net.cpp:395] bn2c_branch2a -> res2c_branch2a (in-place)
I1210 18:42:17.764915  1585 net.cpp:150] Setting up bn2c_branch2a
I1210 18:42:17.764950  1585 net.cpp:157] Top shape: 50 64 56 56 (10035200)
I1210 18:42:17.764969  1585 net.cpp:165] Memory required for data: 4244890200
I1210 18:42:17.764997  1585 layer_factory.hpp:77] Creating layer scale2c_branch2a
I1210 18:42:17.765030  1585 net.cpp:100] Creating Layer scale2c_branch2a
I1210 18:42:17.765051  1585 net.cpp:434] scale2c_branch2a <- res2c_branch2a
I1210 18:42:17.765074  1585 net.cpp:395] scale2c_branch2a -> res2c_branch2a (in-place)
I1210 18:42:17.765239  1585 layer_factory.hpp:77] Creating layer scale2c_branch2a
I1210 18:42:17.765594  1585 net.cpp:150] Setting up scale2c_branch2a
I1210 18:42:17.765627  1585 net.cpp:157] Top shape: 50 64 56 56 (10035200)
I1210 18:42:17.765646  1585 net.cpp:165] Memory required for data: 4285031000
I1210 18:42:17.765671  1585 layer_factory.hpp:77] Creating layer res2c_branch2a_relu
I1210 18:42:17.765732  1585 net.cpp:100] Creating Layer res2c_branch2a_relu
I1210 18:42:17.765758  1585 net.cpp:434] res2c_branch2a_relu <- res2c_branch2a
I1210 18:42:17.765780  1585 net.cpp:395] res2c_branch2a_relu -> res2c_branch2a (in-place)
I1210 18:42:17.766294  1585 net.cpp:150] Setting up res2c_branch2a_relu
I1210 18:42:17.766335  1585 net.cpp:157] Top shape: 50 64 56 56 (10035200)
I1210 18:42:17.766355  1585 net.cpp:165] Memory required for data: 4325171800
I1210 18:42:17.766374  1585 layer_factory.hpp:77] Creating layer res2c_branch2b
I1210 18:42:17.766433  1585 net.cpp:100] Creating Layer res2c_branch2b
I1210 18:42:17.766461  1585 net.cpp:434] res2c_branch2b <- res2c_branch2a
I1210 18:42:17.766486  1585 net.cpp:408] res2c_branch2b -> res2c_branch2b
I1210 18:42:17.771883  1585 net.cpp:150] Setting up res2c_branch2b
I1210 18:42:17.771934  1585 net.cpp:157] Top shape: 50 64 56 56 (10035200)
I1210 18:42:17.771955  1585 net.cpp:165] Memory required for data: 4365312600
I1210 18:42:17.771976  1585 layer_factory.hpp:77] Creating layer bn2c_branch2b
I1210 18:42:17.772063  1585 net.cpp:100] Creating Layer bn2c_branch2b
I1210 18:42:17.772096  1585 net.cpp:434] bn2c_branch2b <- res2c_branch2b
I1210 18:42:17.772121  1585 net.cpp:395] bn2c_branch2b -> res2c_branch2b (in-place)
I1210 18:42:17.772645  1585 net.cpp:150] Setting up bn2c_branch2b
I1210 18:42:17.772680  1585 net.cpp:157] Top shape: 50 64 56 56 (10035200)
I1210 18:42:17.772698  1585 net.cpp:165] Memory required for data: 4405453400
I1210 18:42:17.772724  1585 layer_factory.hpp:77] Creating layer scale2c_branch2b
I1210 18:42:17.772780  1585 net.cpp:100] Creating Layer scale2c_branch2b
I1210 18:42:17.772804  1585 net.cpp:434] scale2c_branch2b <- res2c_branch2b
I1210 18:42:17.772826  1585 net.cpp:395] scale2c_branch2b -> res2c_branch2b (in-place)
I1210 18:42:17.772946  1585 layer_factory.hpp:77] Creating layer scale2c_branch2b
I1210 18:42:17.773309  1585 net.cpp:150] Setting up scale2c_branch2b
I1210 18:42:17.773344  1585 net.cpp:157] Top shape: 50 64 56 56 (10035200)
I1210 18:42:17.773361  1585 net.cpp:165] Memory required for data: 4445594200
I1210 18:42:17.773385  1585 layer_factory.hpp:77] Creating layer res2c_branch2b_relu
I1210 18:42:17.773458  1585 net.cpp:100] Creating Layer res2c_branch2b_relu
I1210 18:42:17.773484  1585 net.cpp:434] res2c_branch2b_relu <- res2c_branch2b
I1210 18:42:17.773530  1585 net.cpp:395] res2c_branch2b_relu -> res2c_branch2b (in-place)
I1210 18:42:17.775477  1585 net.cpp:150] Setting up res2c_branch2b_relu
I1210 18:42:17.775524  1585 net.cpp:157] Top shape: 50 64 56 56 (10035200)
I1210 18:42:17.775544  1585 net.cpp:165] Memory required for data: 4485735000
I1210 18:42:17.775569  1585 layer_factory.hpp:77] Creating layer res2c_branch2c
I1210 18:42:17.775710  1585 net.cpp:100] Creating Layer res2c_branch2c
I1210 18:42:17.775770  1585 net.cpp:434] res2c_branch2c <- res2c_branch2b
I1210 18:42:17.775799  1585 net.cpp:408] res2c_branch2c -> res2c_branch2c
I1210 18:42:17.778610  1585 net.cpp:150] Setting up res2c_branch2c
I1210 18:42:17.778687  1585 net.cpp:157] Top shape: 50 256 56 56 (40140800)
I1210 18:42:17.778713  1585 net.cpp:165] Memory required for data: 4646298200
I1210 18:42:17.778735  1585 layer_factory.hpp:77] Creating layer bn2c_branch2c
I1210 18:42:17.778765  1585 net.cpp:100] Creating Layer bn2c_branch2c
I1210 18:42:17.778787  1585 net.cpp:434] bn2c_branch2c <- res2c_branch2c
I1210 18:42:17.778810  1585 net.cpp:395] bn2c_branch2c -> res2c_branch2c (in-place)
I1210 18:42:17.779321  1585 net.cpp:150] Setting up bn2c_branch2c
I1210 18:42:17.779371  1585 net.cpp:157] Top shape: 50 256 56 56 (40140800)
I1210 18:42:17.779387  1585 net.cpp:165] Memory required for data: 4806861400
I1210 18:42:17.779446  1585 layer_factory.hpp:77] Creating layer scale2c_branch2c
I1210 18:42:17.779502  1585 net.cpp:100] Creating Layer scale2c_branch2c
I1210 18:42:17.779526  1585 net.cpp:434] scale2c_branch2c <- res2c_branch2c
I1210 18:42:17.779547  1585 net.cpp:395] scale2c_branch2c -> res2c_branch2c (in-place)
I1210 18:42:17.779662  1585 layer_factory.hpp:77] Creating layer scale2c_branch2c
I1210 18:42:17.779985  1585 net.cpp:150] Setting up scale2c_branch2c
I1210 18:42:17.780033  1585 net.cpp:157] Top shape: 50 256 56 56 (40140800)
I1210 18:42:17.780056  1585 net.cpp:165] Memory required for data: 4967424600
I1210 18:42:17.780078  1585 layer_factory.hpp:77] Creating layer res2c
I1210 18:42:17.780136  1585 net.cpp:100] Creating Layer res2c
I1210 18:42:17.780160  1585 net.cpp:434] res2c <- res2b_res2b_relu_0_split_1
I1210 18:42:17.780181  1585 net.cpp:434] res2c <- res2c_branch2c
I1210 18:42:17.780211  1585 net.cpp:408] res2c -> res2c
I1210 18:42:17.780304  1585 net.cpp:150] Setting up res2c
I1210 18:42:17.780333  1585 net.cpp:157] Top shape: 50 256 56 56 (40140800)
I1210 18:42:17.780349  1585 net.cpp:165] Memory required for data: 5127987800
I1210 18:42:17.780371  1585 layer_factory.hpp:77] Creating layer res2c_relu
I1210 18:42:17.780395  1585 net.cpp:100] Creating Layer res2c_relu
I1210 18:42:17.780412  1585 net.cpp:434] res2c_relu <- res2c
I1210 18:42:17.780462  1585 net.cpp:395] res2c_relu -> res2c (in-place)
I1210 18:42:17.782263  1585 net.cpp:150] Setting up res2c_relu
I1210 18:42:17.782335  1585 net.cpp:157] Top shape: 50 256 56 56 (40140800)
I1210 18:42:17.782358  1585 net.cpp:165] Memory required for data: 5288551000
I1210 18:42:17.782377  1585 layer_factory.hpp:77] Creating layer res2c_res2c_relu_0_split
I1210 18:42:17.782397  1585 net.cpp:100] Creating Layer res2c_res2c_relu_0_split
I1210 18:42:17.782415  1585 net.cpp:434] res2c_res2c_relu_0_split <- res2c
I1210 18:42:17.782436  1585 net.cpp:408] res2c_res2c_relu_0_split -> res2c_res2c_relu_0_split_0
I1210 18:42:17.782459  1585 net.cpp:408] res2c_res2c_relu_0_split -> res2c_res2c_relu_0_split_1
I1210 18:42:17.782596  1585 net.cpp:150] Setting up res2c_res2c_relu_0_split
I1210 18:42:17.782625  1585 net.cpp:157] Top shape: 50 256 56 56 (40140800)
I1210 18:42:17.782644  1585 net.cpp:157] Top shape: 50 256 56 56 (40140800)
I1210 18:42:17.782660  1585 net.cpp:165] Memory required for data: 5609677400
I1210 18:42:17.782677  1585 layer_factory.hpp:77] Creating layer res3a_branch1
I1210 18:42:17.782732  1585 net.cpp:100] Creating Layer res3a_branch1
I1210 18:42:17.782755  1585 net.cpp:434] res3a_branch1 <- res2c_res2c_relu_0_split_0
I1210 18:42:17.782805  1585 net.cpp:408] res3a_branch1 -> res3a_branch1
I1210 18:42:17.803524  1585 net.cpp:150] Setting up res3a_branch1
I1210 18:42:17.803572  1585 net.cpp:157] Top shape: 50 512 28 28 (20070400)
I1210 18:42:17.803591  1585 net.cpp:165] Memory required for data: 5689959000
I1210 18:42:17.803612  1585 layer_factory.hpp:77] Creating layer bn3a_branch1
I1210 18:42:17.803663  1585 net.cpp:100] Creating Layer bn3a_branch1
I1210 18:42:17.803688  1585 net.cpp:434] bn3a_branch1 <- res3a_branch1
I1210 18:42:17.803802  1585 net.cpp:395] bn3a_branch1 -> res3a_branch1 (in-place)
I1210 18:42:17.809703  1585 net.cpp:150] Setting up bn3a_branch1
I1210 18:42:17.809813  1585 net.cpp:157] Top shape: 50 512 28 28 (20070400)
I1210 18:42:17.809842  1585 net.cpp:165] Memory required for data: 5770240600
I1210 18:42:17.809883  1585 layer_factory.hpp:77] Creating layer scale3a_branch1
I1210 18:42:17.809932  1585 net.cpp:100] Creating Layer scale3a_branch1
I1210 18:42:17.809962  1585 net.cpp:434] scale3a_branch1 <- res3a_branch1
I1210 18:42:17.809993  1585 net.cpp:395] scale3a_branch1 -> res3a_branch1 (in-place)
I1210 18:42:17.810158  1585 layer_factory.hpp:77] Creating layer scale3a_branch1
I1210 18:42:17.810468  1585 net.cpp:150] Setting up scale3a_branch1
I1210 18:42:17.810508  1585 net.cpp:157] Top shape: 50 512 28 28 (20070400)
I1210 18:42:17.810533  1585 net.cpp:165] Memory required for data: 5850522200
I1210 18:42:17.810564  1585 layer_factory.hpp:77] Creating layer res3a_branch2a
I1210 18:42:17.810636  1585 net.cpp:100] Creating Layer res3a_branch2a
I1210 18:42:17.810665  1585 net.cpp:434] res3a_branch2a <- res2c_res2c_relu_0_split_1
I1210 18:42:17.810705  1585 net.cpp:408] res3a_branch2a -> res3a_branch2a
I1210 18:42:17.817852  1585 net.cpp:150] Setting up res3a_branch2a
I1210 18:42:17.817934  1585 net.cpp:157] Top shape: 50 128 28 28 (5017600)
I1210 18:42:17.817966  1585 net.cpp:165] Memory required for data: 5870592600
I1210 18:42:17.818001  1585 layer_factory.hpp:77] Creating layer bn3a_branch2a
I1210 18:42:17.818075  1585 net.cpp:100] Creating Layer bn3a_branch2a
I1210 18:42:17.818114  1585 net.cpp:434] bn3a_branch2a <- res3a_branch2a
I1210 18:42:17.818150  1585 net.cpp:395] bn3a_branch2a -> res3a_branch2a (in-place)
I1210 18:42:17.818874  1585 net.cpp:150] Setting up bn3a_branch2a
I1210 18:42:17.818925  1585 net.cpp:157] Top shape: 50 128 28 28 (5017600)
I1210 18:42:17.818953  1585 net.cpp:165] Memory required for data: 5890663000
I1210 18:42:17.818990  1585 layer_factory.hpp:77] Creating layer scale3a_branch2a
I1210 18:42:17.819025  1585 net.cpp:100] Creating Layer scale3a_branch2a
I1210 18:42:17.819054  1585 net.cpp:434] scale3a_branch2a <- res3a_branch2a
I1210 18:42:17.819085  1585 net.cpp:395] scale3a_branch2a -> res3a_branch2a (in-place)
I1210 18:42:17.819272  1585 layer_factory.hpp:77] Creating layer scale3a_branch2a
I1210 18:42:17.819720  1585 net.cpp:150] Setting up scale3a_branch2a
I1210 18:42:17.819766  1585 net.cpp:157] Top shape: 50 128 28 28 (5017600)
I1210 18:42:17.819792  1585 net.cpp:165] Memory required for data: 5910733400
I1210 18:42:17.819825  1585 layer_factory.hpp:77] Creating layer res3a_branch2a_relu
I1210 18:42:17.819900  1585 net.cpp:100] Creating Layer res3a_branch2a_relu
I1210 18:42:17.819936  1585 net.cpp:434] res3a_branch2a_relu <- res3a_branch2a
I1210 18:42:17.819967  1585 net.cpp:395] res3a_branch2a_relu -> res3a_branch2a (in-place)
I1210 18:42:17.822692  1585 net.cpp:150] Setting up res3a_branch2a_relu
I1210 18:42:17.822762  1585 net.cpp:157] Top shape: 50 128 28 28 (5017600)
I1210 18:42:17.822791  1585 net.cpp:165] Memory required for data: 5930803800
I1210 18:42:17.822829  1585 layer_factory.hpp:77] Creating layer res3a_branch2b
I1210 18:42:17.822950  1585 net.cpp:100] Creating Layer res3a_branch2b
I1210 18:42:17.822989  1585 net.cpp:434] res3a_branch2b <- res3a_branch2a
I1210 18:42:17.823027  1585 net.cpp:408] res3a_branch2b -> res3a_branch2b
I1210 18:42:17.838104  1585 net.cpp:150] Setting up res3a_branch2b
I1210 18:42:17.838174  1585 net.cpp:157] Top shape: 50 128 28 28 (5017600)
I1210 18:42:17.838213  1585 net.cpp:165] Memory required for data: 5950874200
I1210 18:42:17.838245  1585 layer_factory.hpp:77] Creating layer bn3a_branch2b
I1210 18:42:17.838390  1585 net.cpp:100] Creating Layer bn3a_branch2b
I1210 18:42:17.838459  1585 net.cpp:434] bn3a_branch2b <- res3a_branch2b
I1210 18:42:17.838495  1585 net.cpp:395] bn3a_branch2b -> res3a_branch2b (in-place)
I1210 18:42:17.839532  1585 net.cpp:150] Setting up bn3a_branch2b
I1210 18:42:17.839700  1585 net.cpp:157] Top shape: 50 128 28 28 (5017600)
I1210 18:42:17.839817  1585 net.cpp:165] Memory required for data: 5970944600
I1210 18:42:17.839856  1585 layer_factory.hpp:77] Creating layer scale3a_branch2b
I1210 18:42:17.839890  1585 net.cpp:100] Creating Layer scale3a_branch2b
I1210 18:42:17.839915  1585 net.cpp:434] scale3a_branch2b <- res3a_branch2b
I1210 18:42:17.839984  1585 net.cpp:395] scale3a_branch2b -> res3a_branch2b (in-place)
I1210 18:42:17.840179  1585 layer_factory.hpp:77] Creating layer scale3a_branch2b
I1210 18:42:17.840632  1585 net.cpp:150] Setting up scale3a_branch2b
I1210 18:42:17.840708  1585 net.cpp:157] Top shape: 50 128 28 28 (5017600)
I1210 18:42:17.840739  1585 net.cpp:165] Memory required for data: 5991015000
I1210 18:42:17.840770  1585 layer_factory.hpp:77] Creating layer res3a_branch2b_relu
I1210 18:42:17.840807  1585 net.cpp:100] Creating Layer res3a_branch2b_relu
I1210 18:42:17.840834  1585 net.cpp:434] res3a_branch2b_relu <- res3a_branch2b
I1210 18:42:17.840862  1585 net.cpp:395] res3a_branch2b_relu -> res3a_branch2b (in-place)
I1210 18:42:17.841522  1585 net.cpp:150] Setting up res3a_branch2b_relu
I1210 18:42:17.841609  1585 net.cpp:157] Top shape: 50 128 28 28 (5017600)
I1210 18:42:17.841640  1585 net.cpp:165] Memory required for data: 6011085400
I1210 18:42:17.841671  1585 layer_factory.hpp:77] Creating layer res3a_branch2c
I1210 18:42:17.841786  1585 net.cpp:100] Creating Layer res3a_branch2c
I1210 18:42:17.841821  1585 net.cpp:434] res3a_branch2c <- res3a_branch2b
I1210 18:42:17.841855  1585 net.cpp:408] res3a_branch2c -> res3a_branch2c
I1210 18:42:17.850641  1585 net.cpp:150] Setting up res3a_branch2c
I1210 18:42:17.850703  1585 net.cpp:157] Top shape: 50 512 28 28 (20070400)
I1210 18:42:17.850729  1585 net.cpp:165] Memory required for data: 6091367000
I1210 18:42:17.850757  1585 layer_factory.hpp:77] Creating layer bn3a_branch2c
I1210 18:42:17.850824  1585 net.cpp:100] Creating Layer bn3a_branch2c
I1210 18:42:17.850855  1585 net.cpp:434] bn3a_branch2c <- res3a_branch2c
I1210 18:42:17.850883  1585 net.cpp:395] bn3a_branch2c -> res3a_branch2c (in-place)
I1210 18:42:17.851552  1585 net.cpp:150] Setting up bn3a_branch2c
I1210 18:42:17.851594  1585 net.cpp:157] Top shape: 50 512 28 28 (20070400)
I1210 18:42:17.851616  1585 net.cpp:165] Memory required for data: 6171648600
I1210 18:42:17.851678  1585 layer_factory.hpp:77] Creating layer scale3a_branch2c
I1210 18:42:17.851713  1585 net.cpp:100] Creating Layer scale3a_branch2c
I1210 18:42:17.851737  1585 net.cpp:434] scale3a_branch2c <- res3a_branch2c
I1210 18:42:17.851763  1585 net.cpp:395] scale3a_branch2c -> res3a_branch2c (in-place)
I1210 18:42:17.851915  1585 layer_factory.hpp:77] Creating layer scale3a_branch2c
I1210 18:42:17.852381  1585 net.cpp:150] Setting up scale3a_branch2c
I1210 18:42:17.852428  1585 net.cpp:157] Top shape: 50 512 28 28 (20070400)
I1210 18:42:17.852449  1585 net.cpp:165] Memory required for data: 6251930200
I1210 18:42:17.852478  1585 layer_factory.hpp:77] Creating layer res3a
I1210 18:42:17.852550  1585 net.cpp:100] Creating Layer res3a
I1210 18:42:17.852579  1585 net.cpp:434] res3a <- res3a_branch1
I1210 18:42:17.852612  1585 net.cpp:434] res3a <- res3a_branch2c
I1210 18:42:17.852643  1585 net.cpp:408] res3a -> res3a
I1210 18:42:17.852759  1585 net.cpp:150] Setting up res3a
I1210 18:42:17.852795  1585 net.cpp:157] Top shape: 50 512 28 28 (20070400)
I1210 18:42:17.852818  1585 net.cpp:165] Memory required for data: 6332211800
I1210 18:42:17.852844  1585 layer_factory.hpp:77] Creating layer res3a_relu
I1210 18:42:17.852874  1585 net.cpp:100] Creating Layer res3a_relu
I1210 18:42:17.852896  1585 net.cpp:434] res3a_relu <- res3a
I1210 18:42:17.852970  1585 net.cpp:395] res3a_relu -> res3a (in-place)
I1210 18:42:17.853617  1585 net.cpp:150] Setting up res3a_relu
I1210 18:42:17.853662  1585 net.cpp:157] Top shape: 50 512 28 28 (20070400)
I1210 18:42:17.853687  1585 net.cpp:165] Memory required for data: 6412493400
I1210 18:42:17.853708  1585 layer_factory.hpp:77] Creating layer res3a_res3a_relu_0_split
I1210 18:42:17.853806  1585 net.cpp:100] Creating Layer res3a_res3a_relu_0_split
I1210 18:42:17.853880  1585 net.cpp:434] res3a_res3a_relu_0_split <- res3a
I1210 18:42:17.853943  1585 net.cpp:408] res3a_res3a_relu_0_split -> res3a_res3a_relu_0_split_0
I1210 18:42:17.854020  1585 net.cpp:408] res3a_res3a_relu_0_split -> res3a_res3a_relu_0_split_1
I1210 18:42:17.854167  1585 net.cpp:150] Setting up res3a_res3a_relu_0_split
I1210 18:42:17.854216  1585 net.cpp:157] Top shape: 50 512 28 28 (20070400)
I1210 18:42:17.854244  1585 net.cpp:157] Top shape: 50 512 28 28 (20070400)
I1210 18:42:17.854265  1585 net.cpp:165] Memory required for data: 6573056600
I1210 18:42:17.854287  1585 layer_factory.hpp:77] Creating layer res3b_branch2a
I1210 18:42:17.854358  1585 net.cpp:100] Creating Layer res3b_branch2a
I1210 18:42:17.854389  1585 net.cpp:434] res3b_branch2a <- res3a_res3a_relu_0_split_0
I1210 18:42:17.854451  1585 net.cpp:408] res3b_branch2a -> res3b_branch2a
I1210 18:42:17.862354  1585 net.cpp:150] Setting up res3b_branch2a
I1210 18:42:17.862413  1585 net.cpp:157] Top shape: 50 128 28 28 (5017600)
I1210 18:42:17.862437  1585 net.cpp:165] Memory required for data: 6593127000
I1210 18:42:17.862462  1585 layer_factory.hpp:77] Creating layer bn3b_branch2a
I1210 18:42:17.862526  1585 net.cpp:100] Creating Layer bn3b_branch2a
I1210 18:42:17.862557  1585 net.cpp:434] bn3b_branch2a <- res3b_branch2a
I1210 18:42:17.862583  1585 net.cpp:395] bn3b_branch2a -> res3b_branch2a (in-place)
I1210 18:42:17.863167  1585 net.cpp:150] Setting up bn3b_branch2a
I1210 18:42:17.863216  1585 net.cpp:157] Top shape: 50 128 28 28 (5017600)
I1210 18:42:17.863240  1585 net.cpp:165] Memory required for data: 6613197400
I1210 18:42:17.863270  1585 layer_factory.hpp:77] Creating layer scale3b_branch2a
I1210 18:42:17.863296  1585 net.cpp:100] Creating Layer scale3b_branch2a
I1210 18:42:17.863319  1585 net.cpp:434] scale3b_branch2a <- res3b_branch2a
I1210 18:42:17.863343  1585 net.cpp:395] scale3b_branch2a -> res3b_branch2a (in-place)
I1210 18:42:17.863481  1585 layer_factory.hpp:77] Creating layer scale3b_branch2a
I1210 18:42:17.863843  1585 net.cpp:150] Setting up scale3b_branch2a
I1210 18:42:17.863879  1585 net.cpp:157] Top shape: 50 128 28 28 (5017600)
I1210 18:42:17.863900  1585 net.cpp:165] Memory required for data: 6633267800
I1210 18:42:17.863931  1585 layer_factory.hpp:77] Creating layer res3b_branch2a_relu
I1210 18:42:17.863991  1585 net.cpp:100] Creating Layer res3b_branch2a_relu
I1210 18:42:17.864048  1585 net.cpp:434] res3b_branch2a_relu <- res3b_branch2a
I1210 18:42:17.864084  1585 net.cpp:395] res3b_branch2a_relu -> res3b_branch2a (in-place)
I1210 18:42:17.864635  1585 net.cpp:150] Setting up res3b_branch2a_relu
I1210 18:42:17.864704  1585 net.cpp:157] Top shape: 50 128 28 28 (5017600)
I1210 18:42:17.864727  1585 net.cpp:165] Memory required for data: 6653338200
I1210 18:42:17.864748  1585 layer_factory.hpp:77] Creating layer res3b_branch2b
I1210 18:42:17.864819  1585 net.cpp:100] Creating Layer res3b_branch2b
I1210 18:42:17.864848  1585 net.cpp:434] res3b_branch2b <- res3b_branch2a
I1210 18:42:17.864876  1585 net.cpp:408] res3b_branch2b -> res3b_branch2b
I1210 18:42:17.877542  1585 net.cpp:150] Setting up res3b_branch2b
I1210 18:42:17.877598  1585 net.cpp:157] Top shape: 50 128 28 28 (5017600)
I1210 18:42:17.877620  1585 net.cpp:165] Memory required for data: 6673408600
I1210 18:42:17.877645  1585 layer_factory.hpp:77] Creating layer bn3b_branch2b
I1210 18:42:17.877673  1585 net.cpp:100] Creating Layer bn3b_branch2b
I1210 18:42:17.877696  1585 net.cpp:434] bn3b_branch2b <- res3b_branch2b
I1210 18:42:17.877719  1585 net.cpp:395] bn3b_branch2b -> res3b_branch2b (in-place)
I1210 18:42:17.878108  1585 net.cpp:150] Setting up bn3b_branch2b
I1210 18:42:17.878140  1585 net.cpp:157] Top shape: 50 128 28 28 (5017600)
I1210 18:42:17.878160  1585 net.cpp:165] Memory required for data: 6693479000
I1210 18:42:17.878190  1585 layer_factory.hpp:77] Creating layer scale3b_branch2b
I1210 18:42:17.878231  1585 net.cpp:100] Creating Layer scale3b_branch2b
I1210 18:42:17.878267  1585 net.cpp:434] scale3b_branch2b <- res3b_branch2b
I1210 18:42:17.878305  1585 net.cpp:395] scale3b_branch2b -> res3b_branch2b (in-place)
I1210 18:42:17.878408  1585 layer_factory.hpp:77] Creating layer scale3b_branch2b
I1210 18:42:17.878649  1585 net.cpp:150] Setting up scale3b_branch2b
I1210 18:42:17.878680  1585 net.cpp:157] Top shape: 50 128 28 28 (5017600)
I1210 18:42:17.878698  1585 net.cpp:165] Memory required for data: 6713549400
I1210 18:42:17.878729  1585 layer_factory.hpp:77] Creating layer res3b_branch2b_relu
I1210 18:42:17.878762  1585 net.cpp:100] Creating Layer res3b_branch2b_relu
I1210 18:42:17.878784  1585 net.cpp:434] res3b_branch2b_relu <- res3b_branch2b
I1210 18:42:17.878805  1585 net.cpp:395] res3b_branch2b_relu -> res3b_branch2b (in-place)
I1210 18:42:17.879148  1585 net.cpp:150] Setting up res3b_branch2b_relu
I1210 18:42:17.879182  1585 net.cpp:157] Top shape: 50 128 28 28 (5017600)
I1210 18:42:17.879217  1585 net.cpp:165] Memory required for data: 6733619800
I1210 18:42:17.879240  1585 layer_factory.hpp:77] Creating layer res3b_branch2c
I1210 18:42:17.879273  1585 net.cpp:100] Creating Layer res3b_branch2c
I1210 18:42:17.879295  1585 net.cpp:434] res3b_branch2c <- res3b_branch2b
I1210 18:42:17.879319  1585 net.cpp:408] res3b_branch2c -> res3b_branch2c
I1210 18:42:17.885208  1585 net.cpp:150] Setting up res3b_branch2c
I1210 18:42:17.885260  1585 net.cpp:157] Top shape: 50 512 28 28 (20070400)
I1210 18:42:17.885282  1585 net.cpp:165] Memory required for data: 6813901400
I1210 18:42:17.885303  1585 layer_factory.hpp:77] Creating layer bn3b_branch2c
I1210 18:42:17.885329  1585 net.cpp:100] Creating Layer bn3b_branch2c
I1210 18:42:17.885350  1585 net.cpp:434] bn3b_branch2c <- res3b_branch2c
I1210 18:42:17.885372  1585 net.cpp:395] bn3b_branch2c -> res3b_branch2c (in-place)
I1210 18:42:17.885730  1585 net.cpp:150] Setting up bn3b_branch2c
I1210 18:42:17.885759  1585 net.cpp:157] Top shape: 50 512 28 28 (20070400)
I1210 18:42:17.885777  1585 net.cpp:165] Memory required for data: 6894183000
I1210 18:42:17.885802  1585 layer_factory.hpp:77] Creating layer scale3b_branch2c
I1210 18:42:17.885825  1585 net.cpp:100] Creating Layer scale3b_branch2c
I1210 18:42:17.885844  1585 net.cpp:434] scale3b_branch2c <- res3b_branch2c
I1210 18:42:17.885864  1585 net.cpp:395] scale3b_branch2c -> res3b_branch2c (in-place)
I1210 18:42:17.885963  1585 layer_factory.hpp:77] Creating layer scale3b_branch2c
I1210 18:42:17.886185  1585 net.cpp:150] Setting up scale3b_branch2c
I1210 18:42:17.886227  1585 net.cpp:157] Top shape: 50 512 28 28 (20070400)
I1210 18:42:17.886246  1585 net.cpp:165] Memory required for data: 6974464600
I1210 18:42:17.886276  1585 layer_factory.hpp:77] Creating layer res3b
I1210 18:42:17.886309  1585 net.cpp:100] Creating Layer res3b
I1210 18:42:17.886332  1585 net.cpp:434] res3b <- res3a_res3a_relu_0_split_1
I1210 18:42:17.886351  1585 net.cpp:434] res3b <- res3b_branch2c
I1210 18:42:17.886375  1585 net.cpp:408] res3b -> res3b
I1210 18:42:17.886441  1585 net.cpp:150] Setting up res3b
I1210 18:42:17.886466  1585 net.cpp:157] Top shape: 50 512 28 28 (20070400)
I1210 18:42:17.886483  1585 net.cpp:165] Memory required for data: 7054746200
I1210 18:42:17.886500  1585 layer_factory.hpp:77] Creating layer res3b_relu
I1210 18:42:17.886524  1585 net.cpp:100] Creating Layer res3b_relu
I1210 18:42:17.886543  1585 net.cpp:434] res3b_relu <- res3b
I1210 18:42:17.886564  1585 net.cpp:395] res3b_relu -> res3b (in-place)
I1210 18:42:17.888417  1585 net.cpp:150] Setting up res3b_relu
I1210 18:42:17.888468  1585 net.cpp:157] Top shape: 50 512 28 28 (20070400)
I1210 18:42:17.888489  1585 net.cpp:165] Memory required for data: 7135027800
I1210 18:42:17.888506  1585 layer_factory.hpp:77] Creating layer res3b_res3b_relu_0_split
I1210 18:42:17.888530  1585 net.cpp:100] Creating Layer res3b_res3b_relu_0_split
I1210 18:42:17.888548  1585 net.cpp:434] res3b_res3b_relu_0_split <- res3b
I1210 18:42:17.888571  1585 net.cpp:408] res3b_res3b_relu_0_split -> res3b_res3b_relu_0_split_0
I1210 18:42:17.888595  1585 net.cpp:408] res3b_res3b_relu_0_split -> res3b_res3b_relu_0_split_1
I1210 18:42:17.888716  1585 net.cpp:150] Setting up res3b_res3b_relu_0_split
I1210 18:42:17.888743  1585 net.cpp:157] Top shape: 50 512 28 28 (20070400)
I1210 18:42:17.888763  1585 net.cpp:157] Top shape: 50 512 28 28 (20070400)
I1210 18:42:17.888780  1585 net.cpp:165] Memory required for data: 7295591000
I1210 18:42:17.888797  1585 layer_factory.hpp:77] Creating layer res3c_branch2a
I1210 18:42:17.888826  1585 net.cpp:100] Creating Layer res3c_branch2a
I1210 18:42:17.888846  1585 net.cpp:434] res3c_branch2a <- res3b_res3b_relu_0_split_0
I1210 18:42:17.888871  1585 net.cpp:408] res3c_branch2a -> res3c_branch2a
I1210 18:42:17.894426  1585 net.cpp:150] Setting up res3c_branch2a
I1210 18:42:17.894474  1585 net.cpp:157] Top shape: 50 128 28 28 (5017600)
I1210 18:42:17.894495  1585 net.cpp:165] Memory required for data: 7315661400
I1210 18:42:17.894515  1585 layer_factory.hpp:77] Creating layer bn3c_branch2a
I1210 18:42:17.894554  1585 net.cpp:100] Creating Layer bn3c_branch2a
I1210 18:42:17.894577  1585 net.cpp:434] bn3c_branch2a <- res3c_branch2a
I1210 18:42:17.894600  1585 net.cpp:395] bn3c_branch2a -> res3c_branch2a (in-place)
I1210 18:42:17.894934  1585 net.cpp:150] Setting up bn3c_branch2a
I1210 18:42:17.894963  1585 net.cpp:157] Top shape: 50 128 28 28 (5017600)
I1210 18:42:17.894979  1585 net.cpp:165] Memory required for data: 7335731800
I1210 18:42:17.895004  1585 layer_factory.hpp:77] Creating layer scale3c_branch2a
I1210 18:42:17.895028  1585 net.cpp:100] Creating Layer scale3c_branch2a
I1210 18:42:17.895047  1585 net.cpp:434] scale3c_branch2a <- res3c_branch2a
I1210 18:42:17.895066  1585 net.cpp:395] scale3c_branch2a -> res3c_branch2a (in-place)
I1210 18:42:17.895155  1585 layer_factory.hpp:77] Creating layer scale3c_branch2a
I1210 18:42:17.895381  1585 net.cpp:150] Setting up scale3c_branch2a
I1210 18:42:17.895411  1585 net.cpp:157] Top shape: 50 128 28 28 (5017600)
I1210 18:42:17.895427  1585 net.cpp:165] Memory required for data: 7355802200
I1210 18:42:17.895448  1585 layer_factory.hpp:77] Creating layer res3c_branch2a_relu
I1210 18:42:17.895469  1585 net.cpp:100] Creating Layer res3c_branch2a_relu
I1210 18:42:17.895486  1585 net.cpp:434] res3c_branch2a_relu <- res3c_branch2a
I1210 18:42:17.895509  1585 net.cpp:395] res3c_branch2a_relu -> res3c_branch2a (in-place)
I1210 18:42:17.895815  1585 net.cpp:150] Setting up res3c_branch2a_relu
I1210 18:42:17.895846  1585 net.cpp:157] Top shape: 50 128 28 28 (5017600)
I1210 18:42:17.895864  1585 net.cpp:165] Memory required for data: 7375872600
I1210 18:42:17.895881  1585 layer_factory.hpp:77] Creating layer res3c_branch2b
I1210 18:42:17.895910  1585 net.cpp:100] Creating Layer res3c_branch2b
I1210 18:42:17.895929  1585 net.cpp:434] res3c_branch2b <- res3c_branch2a
I1210 18:42:17.895953  1585 net.cpp:408] res3c_branch2b -> res3c_branch2b
I1210 18:42:17.913216  1585 net.cpp:150] Setting up res3c_branch2b
I1210 18:42:17.913264  1585 net.cpp:157] Top shape: 50 128 28 28 (5017600)
I1210 18:42:17.913282  1585 net.cpp:165] Memory required for data: 7395943000
I1210 18:42:17.913303  1585 layer_factory.hpp:77] Creating layer bn3c_branch2b
I1210 18:42:17.913362  1585 net.cpp:100] Creating Layer bn3c_branch2b
I1210 18:42:17.913388  1585 net.cpp:434] bn3c_branch2b <- res3c_branch2b
I1210 18:42:17.913414  1585 net.cpp:395] bn3c_branch2b -> res3c_branch2b (in-place)
I1210 18:42:17.913892  1585 net.cpp:150] Setting up bn3c_branch2b
I1210 18:42:17.913923  1585 net.cpp:157] Top shape: 50 128 28 28 (5017600)
I1210 18:42:17.913938  1585 net.cpp:165] Memory required for data: 7416013400
I1210 18:42:17.913995  1585 layer_factory.hpp:77] Creating layer scale3c_branch2b
I1210 18:42:17.914022  1585 net.cpp:100] Creating Layer scale3c_branch2b
I1210 18:42:17.914039  1585 net.cpp:434] scale3c_branch2b <- res3c_branch2b
I1210 18:42:17.914058  1585 net.cpp:395] scale3c_branch2b -> res3c_branch2b (in-place)
I1210 18:42:17.914172  1585 layer_factory.hpp:77] Creating layer scale3c_branch2b
I1210 18:42:17.914499  1585 net.cpp:150] Setting up scale3c_branch2b
I1210 18:42:17.914580  1585 net.cpp:157] Top shape: 50 128 28 28 (5017600)
I1210 18:42:17.914634  1585 net.cpp:165] Memory required for data: 7436083800
I1210 18:42:17.914659  1585 layer_factory.hpp:77] Creating layer res3c_branch2b_relu
I1210 18:42:17.914705  1585 net.cpp:100] Creating Layer res3c_branch2b_relu
I1210 18:42:17.914727  1585 net.cpp:434] res3c_branch2b_relu <- res3c_branch2b
I1210 18:42:17.914746  1585 net.cpp:395] res3c_branch2b_relu -> res3c_branch2b (in-place)
I1210 18:42:17.915149  1585 net.cpp:150] Setting up res3c_branch2b_relu
I1210 18:42:17.915182  1585 net.cpp:157] Top shape: 50 128 28 28 (5017600)
I1210 18:42:17.915210  1585 net.cpp:165] Memory required for data: 7456154200
I1210 18:42:17.915230  1585 layer_factory.hpp:77] Creating layer res3c_branch2c
I1210 18:42:17.915304  1585 net.cpp:100] Creating Layer res3c_branch2c
I1210 18:42:17.915329  1585 net.cpp:434] res3c_branch2c <- res3c_branch2b
I1210 18:42:17.915351  1585 net.cpp:408] res3c_branch2c -> res3c_branch2c
I1210 18:42:17.921362  1585 net.cpp:150] Setting up res3c_branch2c
I1210 18:42:17.921408  1585 net.cpp:157] Top shape: 50 512 28 28 (20070400)
I1210 18:42:17.921427  1585 net.cpp:165] Memory required for data: 7536435800
I1210 18:42:17.921445  1585 layer_factory.hpp:77] Creating layer bn3c_branch2c
I1210 18:42:17.921494  1585 net.cpp:100] Creating Layer bn3c_branch2c
I1210 18:42:17.921516  1585 net.cpp:434] bn3c_branch2c <- res3c_branch2c
I1210 18:42:17.921535  1585 net.cpp:395] bn3c_branch2c -> res3c_branch2c (in-place)
I1210 18:42:17.921995  1585 net.cpp:150] Setting up bn3c_branch2c
I1210 18:42:17.922024  1585 net.cpp:157] Top shape: 50 512 28 28 (20070400)
I1210 18:42:17.922040  1585 net.cpp:165] Memory required for data: 7616717400
I1210 18:42:17.922066  1585 layer_factory.hpp:77] Creating layer scale3c_branch2c
I1210 18:42:17.922091  1585 net.cpp:100] Creating Layer scale3c_branch2c
I1210 18:42:17.922106  1585 net.cpp:434] scale3c_branch2c <- res3c_branch2c
I1210 18:42:17.922124  1585 net.cpp:395] scale3c_branch2c -> res3c_branch2c (in-place)
I1210 18:42:17.922268  1585 layer_factory.hpp:77] Creating layer scale3c_branch2c
I1210 18:42:17.922574  1585 net.cpp:150] Setting up scale3c_branch2c
I1210 18:42:17.922603  1585 net.cpp:157] Top shape: 50 512 28 28 (20070400)
I1210 18:42:17.922618  1585 net.cpp:165] Memory required for data: 7696999000
I1210 18:42:17.922638  1585 layer_factory.hpp:77] Creating layer res3c
I1210 18:42:17.922683  1585 net.cpp:100] Creating Layer res3c
I1210 18:42:17.922705  1585 net.cpp:434] res3c <- res3b_res3b_relu_0_split_1
I1210 18:42:17.922724  1585 net.cpp:434] res3c <- res3c_branch2c
I1210 18:42:17.922765  1585 net.cpp:408] res3c -> res3c
I1210 18:42:17.922828  1585 net.cpp:150] Setting up res3c
I1210 18:42:17.922850  1585 net.cpp:157] Top shape: 50 512 28 28 (20070400)
I1210 18:42:17.922865  1585 net.cpp:165] Memory required for data: 7777280600
I1210 18:42:17.922879  1585 layer_factory.hpp:77] Creating layer res3c_relu
I1210 18:42:17.922930  1585 net.cpp:100] Creating Layer res3c_relu
I1210 18:42:17.922951  1585 net.cpp:434] res3c_relu <- res3c
I1210 18:42:17.922969  1585 net.cpp:395] res3c_relu -> res3c (in-place)
I1210 18:42:17.923332  1585 net.cpp:150] Setting up res3c_relu
I1210 18:42:17.923365  1585 net.cpp:157] Top shape: 50 512 28 28 (20070400)
I1210 18:42:17.923382  1585 net.cpp:165] Memory required for data: 7857562200
I1210 18:42:17.923398  1585 layer_factory.hpp:77] Creating layer res3c_res3c_relu_0_split
I1210 18:42:17.923441  1585 net.cpp:100] Creating Layer res3c_res3c_relu_0_split
I1210 18:42:17.923462  1585 net.cpp:434] res3c_res3c_relu_0_split <- res3c
I1210 18:42:17.923481  1585 net.cpp:408] res3c_res3c_relu_0_split -> res3c_res3c_relu_0_split_0
I1210 18:42:17.923502  1585 net.cpp:408] res3c_res3c_relu_0_split -> res3c_res3c_relu_0_split_1
I1210 18:42:17.923635  1585 net.cpp:150] Setting up res3c_res3c_relu_0_split
I1210 18:42:17.923662  1585 net.cpp:157] Top shape: 50 512 28 28 (20070400)
I1210 18:42:17.923678  1585 net.cpp:157] Top shape: 50 512 28 28 (20070400)
I1210 18:42:17.923744  1585 net.cpp:165] Memory required for data: 8018125400
I1210 18:42:17.923795  1585 layer_factory.hpp:77] Creating layer res3d_branch2a
I1210 18:42:17.923851  1585 net.cpp:100] Creating Layer res3d_branch2a
I1210 18:42:17.923872  1585 net.cpp:434] res3d_branch2a <- res3c_res3c_relu_0_split_0
I1210 18:42:17.923916  1585 net.cpp:408] res3d_branch2a -> res3d_branch2a
I1210 18:42:17.938951  1585 net.cpp:150] Setting up res3d_branch2a
I1210 18:42:17.938997  1585 net.cpp:157] Top shape: 50 128 28 28 (5017600)
I1210 18:42:17.939014  1585 net.cpp:165] Memory required for data: 8038195800
I1210 18:42:17.939033  1585 layer_factory.hpp:77] Creating layer bn3d_branch2a
I1210 18:42:17.939077  1585 net.cpp:100] Creating Layer bn3d_branch2a
I1210 18:42:17.939100  1585 net.cpp:434] bn3d_branch2a <- res3d_branch2a
I1210 18:42:17.939141  1585 net.cpp:395] bn3d_branch2a -> res3d_branch2a (in-place)
I1210 18:42:17.939569  1585 net.cpp:150] Setting up bn3d_branch2a
I1210 18:42:17.939599  1585 net.cpp:157] Top shape: 50 128 28 28 (5017600)
I1210 18:42:17.939613  1585 net.cpp:165] Memory required for data: 8058266200
I1210 18:42:17.939695  1585 layer_factory.hpp:77] Creating layer scale3d_branch2a
I1210 18:42:17.939757  1585 net.cpp:100] Creating Layer scale3d_branch2a
I1210 18:42:17.939777  1585 net.cpp:434] scale3d_branch2a <- res3d_branch2a
I1210 18:42:17.939815  1585 net.cpp:395] scale3d_branch2a -> res3d_branch2a (in-place)
I1210 18:42:17.939896  1585 layer_factory.hpp:77] Creating layer scale3d_branch2a
I1210 18:42:17.940219  1585 net.cpp:150] Setting up scale3d_branch2a
I1210 18:42:17.940253  1585 net.cpp:157] Top shape: 50 128 28 28 (5017600)
I1210 18:42:17.940266  1585 net.cpp:165] Memory required for data: 8078336600
I1210 18:42:17.940284  1585 layer_factory.hpp:77] Creating layer res3d_branch2a_relu
I1210 18:42:17.940304  1585 net.cpp:100] Creating Layer res3d_branch2a_relu
I1210 18:42:17.940318  1585 net.cpp:434] res3d_branch2a_relu <- res3d_branch2a
I1210 18:42:17.940335  1585 net.cpp:395] res3d_branch2a_relu -> res3d_branch2a (in-place)
I1210 18:42:17.940719  1585 net.cpp:150] Setting up res3d_branch2a_relu
I1210 18:42:17.940750  1585 net.cpp:157] Top shape: 50 128 28 28 (5017600)
I1210 18:42:17.940765  1585 net.cpp:165] Memory required for data: 8098407000
I1210 18:42:17.940779  1585 layer_factory.hpp:77] Creating layer res3d_branch2b
I1210 18:42:17.940822  1585 net.cpp:100] Creating Layer res3d_branch2b
I1210 18:42:17.940843  1585 net.cpp:434] res3d_branch2b <- res3d_branch2a
I1210 18:42:17.940862  1585 net.cpp:408] res3d_branch2b -> res3d_branch2b
I1210 18:42:17.950038  1585 net.cpp:150] Setting up res3d_branch2b
I1210 18:42:17.950103  1585 net.cpp:157] Top shape: 50 128 28 28 (5017600)
I1210 18:42:17.950119  1585 net.cpp:165] Memory required for data: 8118477400
I1210 18:42:17.950141  1585 layer_factory.hpp:77] Creating layer bn3d_branch2b
I1210 18:42:17.950166  1585 net.cpp:100] Creating Layer bn3d_branch2b
I1210 18:42:17.950183  1585 net.cpp:434] bn3d_branch2b <- res3d_branch2b
I1210 18:42:17.950232  1585 net.cpp:395] bn3d_branch2b -> res3d_branch2b (in-place)
I1210 18:42:17.950640  1585 net.cpp:150] Setting up bn3d_branch2b
I1210 18:42:17.950666  1585 net.cpp:157] Top shape: 50 128 28 28 (5017600)
I1210 18:42:17.950680  1585 net.cpp:165] Memory required for data: 8138547800
I1210 18:42:17.950700  1585 layer_factory.hpp:77] Creating layer scale3d_branch2b
I1210 18:42:17.950717  1585 net.cpp:100] Creating Layer scale3d_branch2b
I1210 18:42:17.950731  1585 net.cpp:434] scale3d_branch2b <- res3d_branch2b
I1210 18:42:17.950747  1585 net.cpp:395] scale3d_branch2b -> res3d_branch2b (in-place)
I1210 18:42:17.950840  1585 layer_factory.hpp:77] Creating layer scale3d_branch2b
I1210 18:42:17.951107  1585 net.cpp:150] Setting up scale3d_branch2b
I1210 18:42:17.951133  1585 net.cpp:157] Top shape: 50 128 28 28 (5017600)
I1210 18:42:17.951146  1585 net.cpp:165] Memory required for data: 8158618200
I1210 18:42:17.951164  1585 layer_factory.hpp:77] Creating layer res3d_branch2b_relu
I1210 18:42:17.951179  1585 net.cpp:100] Creating Layer res3d_branch2b_relu
I1210 18:42:17.951277  1585 net.cpp:434] res3d_branch2b_relu <- res3d_branch2b
I1210 18:42:17.951318  1585 net.cpp:395] res3d_branch2b_relu -> res3d_branch2b (in-place)
I1210 18:42:17.951659  1585 net.cpp:150] Setting up res3d_branch2b_relu
I1210 18:42:17.951689  1585 net.cpp:157] Top shape: 50 128 28 28 (5017600)
I1210 18:42:17.951701  1585 net.cpp:165] Memory required for data: 8178688600
I1210 18:42:17.951715  1585 layer_factory.hpp:77] Creating layer res3d_branch2c
I1210 18:42:17.951757  1585 net.cpp:100] Creating Layer res3d_branch2c
I1210 18:42:17.951777  1585 net.cpp:434] res3d_branch2c <- res3d_branch2b
I1210 18:42:17.951794  1585 net.cpp:408] res3d_branch2c -> res3d_branch2c
I1210 18:42:17.956817  1585 net.cpp:150] Setting up res3d_branch2c
I1210 18:42:17.956857  1585 net.cpp:157] Top shape: 50 512 28 28 (20070400)
I1210 18:42:17.956873  1585 net.cpp:165] Memory required for data: 8258970200
I1210 18:42:17.956894  1585 layer_factory.hpp:77] Creating layer bn3d_branch2c
I1210 18:42:17.956918  1585 net.cpp:100] Creating Layer bn3d_branch2c
I1210 18:42:17.956935  1585 net.cpp:434] bn3d_branch2c <- res3d_branch2c
I1210 18:42:17.956979  1585 net.cpp:395] bn3d_branch2c -> res3d_branch2c (in-place)
I1210 18:42:17.957396  1585 net.cpp:150] Setting up bn3d_branch2c
I1210 18:42:17.957423  1585 net.cpp:157] Top shape: 50 512 28 28 (20070400)
I1210 18:42:17.957437  1585 net.cpp:165] Memory required for data: 8339251800
I1210 18:42:17.957456  1585 layer_factory.hpp:77] Creating layer scale3d_branch2c
I1210 18:42:17.957473  1585 net.cpp:100] Creating Layer scale3d_branch2c
I1210 18:42:17.957489  1585 net.cpp:434] scale3d_branch2c <- res3d_branch2c
I1210 18:42:17.957504  1585 net.cpp:395] scale3d_branch2c -> res3d_branch2c (in-place)
I1210 18:42:17.957600  1585 layer_factory.hpp:77] Creating layer scale3d_branch2c
I1210 18:42:17.957855  1585 net.cpp:150] Setting up scale3d_branch2c
I1210 18:42:17.957881  1585 net.cpp:157] Top shape: 50 512 28 28 (20070400)
I1210 18:42:17.957895  1585 net.cpp:165] Memory required for data: 8419533400
I1210 18:42:17.957912  1585 layer_factory.hpp:77] Creating layer res3d
I1210 18:42:17.957949  1585 net.cpp:100] Creating Layer res3d
I1210 18:42:17.957968  1585 net.cpp:434] res3d <- res3c_res3c_relu_0_split_1
I1210 18:42:17.957983  1585 net.cpp:434] res3d <- res3d_branch2c
I1210 18:42:17.957999  1585 net.cpp:408] res3d -> res3d
I1210 18:42:17.958076  1585 net.cpp:150] Setting up res3d
I1210 18:42:17.958101  1585 net.cpp:157] Top shape: 50 512 28 28 (20070400)
I1210 18:42:17.958113  1585 net.cpp:165] Memory required for data: 8499815000
I1210 18:42:17.958127  1585 layer_factory.hpp:77] Creating layer res3d_relu
I1210 18:42:17.958147  1585 net.cpp:100] Creating Layer res3d_relu
I1210 18:42:17.958163  1585 net.cpp:434] res3d_relu <- res3d
I1210 18:42:17.958207  1585 net.cpp:395] res3d_relu -> res3d (in-place)
I1210 18:42:17.959688  1585 net.cpp:150] Setting up res3d_relu
I1210 18:42:17.959725  1585 net.cpp:157] Top shape: 50 512 28 28 (20070400)
I1210 18:42:17.959739  1585 net.cpp:165] Memory required for data: 8580096600
I1210 18:42:17.959758  1585 layer_factory.hpp:77] Creating layer res3d_res3d_relu_0_split
I1210 18:42:17.959779  1585 net.cpp:100] Creating Layer res3d_res3d_relu_0_split
I1210 18:42:17.959792  1585 net.cpp:434] res3d_res3d_relu_0_split <- res3d
I1210 18:42:17.959828  1585 net.cpp:408] res3d_res3d_relu_0_split -> res3d_res3d_relu_0_split_0
I1210 18:42:17.959853  1585 net.cpp:408] res3d_res3d_relu_0_split -> res3d_res3d_relu_0_split_1
I1210 18:42:17.959954  1585 net.cpp:150] Setting up res3d_res3d_relu_0_split
I1210 18:42:17.959978  1585 net.cpp:157] Top shape: 50 512 28 28 (20070400)
I1210 18:42:17.959993  1585 net.cpp:157] Top shape: 50 512 28 28 (20070400)
I1210 18:42:17.960005  1585 net.cpp:165] Memory required for data: 8740659800
I1210 18:42:17.960058  1585 layer_factory.hpp:77] Creating layer res4a_branch1
I1210 18:42:17.960171  1585 net.cpp:100] Creating Layer res4a_branch1
I1210 18:42:17.960193  1585 net.cpp:434] res4a_branch1 <- res3d_res3d_relu_0_split_0
I1210 18:42:17.960268  1585 net.cpp:408] res4a_branch1 -> res4a_branch1
I1210 18:42:17.990677  1585 net.cpp:150] Setting up res4a_branch1
I1210 18:42:17.990736  1585 net.cpp:157] Top shape: 50 1024 14 14 (10035200)
I1210 18:42:17.990754  1585 net.cpp:165] Memory required for data: 8780800600
I1210 18:42:17.990772  1585 layer_factory.hpp:77] Creating layer bn4a_branch1
I1210 18:42:17.990810  1585 net.cpp:100] Creating Layer bn4a_branch1
I1210 18:42:17.990830  1585 net.cpp:434] bn4a_branch1 <- res4a_branch1
I1210 18:42:17.990849  1585 net.cpp:395] bn4a_branch1 -> res4a_branch1 (in-place)
I1210 18:42:17.991307  1585 net.cpp:150] Setting up bn4a_branch1
I1210 18:42:17.991334  1585 net.cpp:157] Top shape: 50 1024 14 14 (10035200)
I1210 18:42:17.991348  1585 net.cpp:165] Memory required for data: 8820941400
I1210 18:42:17.991369  1585 layer_factory.hpp:77] Creating layer scale4a_branch1
I1210 18:42:17.991386  1585 net.cpp:100] Creating Layer scale4a_branch1
I1210 18:42:17.991400  1585 net.cpp:434] scale4a_branch1 <- res4a_branch1
I1210 18:42:17.991441  1585 net.cpp:395] scale4a_branch1 -> res4a_branch1 (in-place)
I1210 18:42:17.991519  1585 layer_factory.hpp:77] Creating layer scale4a_branch1
I1210 18:42:17.991791  1585 net.cpp:150] Setting up scale4a_branch1
I1210 18:42:17.991816  1585 net.cpp:157] Top shape: 50 1024 14 14 (10035200)
I1210 18:42:17.991828  1585 net.cpp:165] Memory required for data: 8861082200
I1210 18:42:17.991849  1585 layer_factory.hpp:77] Creating layer res4a_branch2a
I1210 18:42:17.991895  1585 net.cpp:100] Creating Layer res4a_branch2a
I1210 18:42:17.991915  1585 net.cpp:434] res4a_branch2a <- res3d_res3d_relu_0_split_1
I1210 18:42:17.991933  1585 net.cpp:408] res4a_branch2a -> res4a_branch2a
I1210 18:42:17.997790  1585 net.cpp:150] Setting up res4a_branch2a
I1210 18:42:17.997846  1585 net.cpp:157] Top shape: 50 256 14 14 (2508800)
I1210 18:42:17.997865  1585 net.cpp:165] Memory required for data: 8871117400
I1210 18:42:17.997882  1585 layer_factory.hpp:77] Creating layer bn4a_branch2a
I1210 18:42:17.997900  1585 net.cpp:100] Creating Layer bn4a_branch2a
I1210 18:42:17.997915  1585 net.cpp:434] bn4a_branch2a <- res4a_branch2a
I1210 18:42:17.997953  1585 net.cpp:395] bn4a_branch2a -> res4a_branch2a (in-place)
I1210 18:42:17.998373  1585 net.cpp:150] Setting up bn4a_branch2a
I1210 18:42:17.998400  1585 net.cpp:157] Top shape: 50 256 14 14 (2508800)
I1210 18:42:17.998414  1585 net.cpp:165] Memory required for data: 8881152600
I1210 18:42:17.998433  1585 layer_factory.hpp:77] Creating layer scale4a_branch2a
I1210 18:42:17.998451  1585 net.cpp:100] Creating Layer scale4a_branch2a
I1210 18:42:17.998466  1585 net.cpp:434] scale4a_branch2a <- res4a_branch2a
I1210 18:42:17.998481  1585 net.cpp:395] scale4a_branch2a -> res4a_branch2a (in-place)
I1210 18:42:17.998576  1585 layer_factory.hpp:77] Creating layer scale4a_branch2a
I1210 18:42:17.998843  1585 net.cpp:150] Setting up scale4a_branch2a
I1210 18:42:17.998867  1585 net.cpp:157] Top shape: 50 256 14 14 (2508800)
I1210 18:42:17.998880  1585 net.cpp:165] Memory required for data: 8891187800
I1210 18:42:17.998898  1585 layer_factory.hpp:77] Creating layer res4a_branch2a_relu
I1210 18:42:17.998920  1585 net.cpp:100] Creating Layer res4a_branch2a_relu
I1210 18:42:17.998935  1585 net.cpp:434] res4a_branch2a_relu <- res4a_branch2a
I1210 18:42:17.998973  1585 net.cpp:395] res4a_branch2a_relu -> res4a_branch2a (in-place)
I1210 18:42:18.000941  1585 net.cpp:150] Setting up res4a_branch2a_relu
I1210 18:42:18.001071  1585 net.cpp:157] Top shape: 50 256 14 14 (2508800)
I1210 18:42:18.001103  1585 net.cpp:165] Memory required for data: 8901223000
I1210 18:42:18.001132  1585 layer_factory.hpp:77] Creating layer res4a_branch2b
I1210 18:42:18.001193  1585 net.cpp:100] Creating Layer res4a_branch2b
I1210 18:42:18.001242  1585 net.cpp:434] res4a_branch2b <- res4a_branch2a
I1210 18:42:18.001289  1585 net.cpp:408] res4a_branch2b -> res4a_branch2b
I1210 18:42:18.044584  1585 net.cpp:150] Setting up res4a_branch2b
I1210 18:42:18.044662  1585 net.cpp:157] Top shape: 50 256 14 14 (2508800)
I1210 18:42:18.044865  1585 net.cpp:165] Memory required for data: 8911258200
I1210 18:42:18.044960  1585 layer_factory.hpp:77] Creating layer bn4a_branch2b
I1210 18:42:18.045042  1585 net.cpp:100] Creating Layer bn4a_branch2b
I1210 18:42:18.045083  1585 net.cpp:434] bn4a_branch2b <- res4a_branch2b
I1210 18:42:18.045116  1585 net.cpp:395] bn4a_branch2b -> res4a_branch2b (in-place)
I1210 18:42:18.045845  1585 net.cpp:150] Setting up bn4a_branch2b
I1210 18:42:18.045895  1585 net.cpp:157] Top shape: 50 256 14 14 (2508800)
I1210 18:42:18.045923  1585 net.cpp:165] Memory required for data: 8921293400
I1210 18:42:18.045961  1585 layer_factory.hpp:77] Creating layer scale4a_branch2b
I1210 18:42:18.046036  1585 net.cpp:100] Creating Layer scale4a_branch2b
I1210 18:42:18.046074  1585 net.cpp:434] scale4a_branch2b <- res4a_branch2b
I1210 18:42:18.046108  1585 net.cpp:395] scale4a_branch2b -> res4a_branch2b (in-place)
I1210 18:42:18.046308  1585 layer_factory.hpp:77] Creating layer scale4a_branch2b
I1210 18:42:18.046836  1585 net.cpp:150] Setting up scale4a_branch2b
I1210 18:42:18.046883  1585 net.cpp:157] Top shape: 50 256 14 14 (2508800)
I1210 18:42:18.046910  1585 net.cpp:165] Memory required for data: 8931328600
I1210 18:42:18.046944  1585 layer_factory.hpp:77] Creating layer res4a_branch2b_relu
I1210 18:42:18.046988  1585 net.cpp:100] Creating Layer res4a_branch2b_relu
I1210 18:42:18.047017  1585 net.cpp:434] res4a_branch2b_relu <- res4a_branch2b
I1210 18:42:18.047088  1585 net.cpp:395] res4a_branch2b_relu -> res4a_branch2b (in-place)
I1210 18:42:18.047730  1585 net.cpp:150] Setting up res4a_branch2b_relu
I1210 18:42:18.047783  1585 net.cpp:157] Top shape: 50 256 14 14 (2508800)
I1210 18:42:18.047811  1585 net.cpp:165] Memory required for data: 8941363800
I1210 18:42:18.047837  1585 layer_factory.hpp:77] Creating layer res4a_branch2c
I1210 18:42:18.047911  1585 net.cpp:100] Creating Layer res4a_branch2c
I1210 18:42:18.047950  1585 net.cpp:434] res4a_branch2c <- res4a_branch2b
I1210 18:42:18.048069  1585 net.cpp:408] res4a_branch2c -> res4a_branch2c
I1210 18:42:18.080214  1585 net.cpp:150] Setting up res4a_branch2c
I1210 18:42:18.080271  1585 net.cpp:157] Top shape: 50 1024 14 14 (10035200)
I1210 18:42:18.080293  1585 net.cpp:165] Memory required for data: 8981504600
I1210 18:42:18.080325  1585 layer_factory.hpp:77] Creating layer bn4a_branch2c
I1210 18:42:18.080355  1585 net.cpp:100] Creating Layer bn4a_branch2c
I1210 18:42:18.080379  1585 net.cpp:434] bn4a_branch2c <- res4a_branch2c
I1210 18:42:18.080436  1585 net.cpp:395] bn4a_branch2c -> res4a_branch2c (in-place)
I1210 18:42:18.081017  1585 net.cpp:150] Setting up bn4a_branch2c
I1210 18:42:18.081053  1585 net.cpp:157] Top shape: 50 1024 14 14 (10035200)
I1210 18:42:18.081074  1585 net.cpp:165] Memory required for data: 9021645400
I1210 18:42:18.081104  1585 layer_factory.hpp:77] Creating layer scale4a_branch2c
I1210 18:42:18.081138  1585 net.cpp:100] Creating Layer scale4a_branch2c
I1210 18:42:18.081161  1585 net.cpp:434] scale4a_branch2c <- res4a_branch2c
I1210 18:42:18.081185  1585 net.cpp:395] scale4a_branch2c -> res4a_branch2c (in-place)
I1210 18:42:18.081338  1585 layer_factory.hpp:77] Creating layer scale4a_branch2c
I1210 18:42:18.081704  1585 net.cpp:150] Setting up scale4a_branch2c
I1210 18:42:18.081739  1585 net.cpp:157] Top shape: 50 1024 14 14 (10035200)
I1210 18:42:18.081759  1585 net.cpp:165] Memory required for data: 9061786200
I1210 18:42:18.081785  1585 layer_factory.hpp:77] Creating layer res4a
I1210 18:42:18.081843  1585 net.cpp:100] Creating Layer res4a
I1210 18:42:18.081872  1585 net.cpp:434] res4a <- res4a_branch1
I1210 18:42:18.081897  1585 net.cpp:434] res4a <- res4a_branch2c
I1210 18:42:18.081921  1585 net.cpp:408] res4a -> res4a
I1210 18:42:18.082029  1585 net.cpp:150] Setting up res4a
I1210 18:42:18.082063  1585 net.cpp:157] Top shape: 50 1024 14 14 (10035200)
I1210 18:42:18.082083  1585 net.cpp:165] Memory required for data: 9101927000
I1210 18:42:18.082103  1585 layer_factory.hpp:77] Creating layer res4a_relu
I1210 18:42:18.082201  1585 net.cpp:100] Creating Layer res4a_relu
I1210 18:42:18.082274  1585 net.cpp:434] res4a_relu <- res4a
I1210 18:42:18.082332  1585 net.cpp:395] res4a_relu -> res4a (in-place)
I1210 18:42:18.082800  1585 net.cpp:150] Setting up res4a_relu
I1210 18:42:18.082840  1585 net.cpp:157] Top shape: 50 1024 14 14 (10035200)
I1210 18:42:18.082860  1585 net.cpp:165] Memory required for data: 9142067800
I1210 18:42:18.082887  1585 layer_factory.hpp:77] Creating layer res4a_res4a_relu_0_split
I1210 18:42:18.082985  1585 net.cpp:100] Creating Layer res4a_res4a_relu_0_split
I1210 18:42:18.083015  1585 net.cpp:434] res4a_res4a_relu_0_split <- res4a
I1210 18:42:18.083041  1585 net.cpp:408] res4a_res4a_relu_0_split -> res4a_res4a_relu_0_split_0
I1210 18:42:18.083101  1585 net.cpp:408] res4a_res4a_relu_0_split -> res4a_res4a_relu_0_split_1
I1210 18:42:18.083252  1585 net.cpp:150] Setting up res4a_res4a_relu_0_split
I1210 18:42:18.083289  1585 net.cpp:157] Top shape: 50 1024 14 14 (10035200)
I1210 18:42:18.083312  1585 net.cpp:157] Top shape: 50 1024 14 14 (10035200)
I1210 18:42:18.083330  1585 net.cpp:165] Memory required for data: 9222349400
I1210 18:42:18.083351  1585 layer_factory.hpp:77] Creating layer res4b_branch2a
I1210 18:42:18.083415  1585 net.cpp:100] Creating Layer res4b_branch2a
I1210 18:42:18.083444  1585 net.cpp:434] res4b_branch2a <- res4a_res4a_relu_0_split_0
I1210 18:42:18.083503  1585 net.cpp:408] res4b_branch2a -> res4b_branch2a
I1210 18:42:18.099946  1585 net.cpp:150] Setting up res4b_branch2a
I1210 18:42:18.099997  1585 net.cpp:157] Top shape: 50 256 14 14 (2508800)
I1210 18:42:18.100054  1585 net.cpp:165] Memory required for data: 9232384600
I1210 18:42:18.100083  1585 layer_factory.hpp:77] Creating layer bn4b_branch2a
I1210 18:42:18.100173  1585 net.cpp:100] Creating Layer bn4b_branch2a
I1210 18:42:18.100212  1585 net.cpp:434] bn4b_branch2a <- res4b_branch2a
I1210 18:42:18.100237  1585 net.cpp:395] bn4b_branch2a -> res4b_branch2a (in-place)
I1210 18:42:18.100731  1585 net.cpp:150] Setting up bn4b_branch2a
I1210 18:42:18.100765  1585 net.cpp:157] Top shape: 50 256 14 14 (2508800)
I1210 18:42:18.100783  1585 net.cpp:165] Memory required for data: 9242419800
I1210 18:42:18.100809  1585 layer_factory.hpp:77] Creating layer scale4b_branch2a
I1210 18:42:18.100862  1585 net.cpp:100] Creating Layer scale4b_branch2a
I1210 18:42:18.100888  1585 net.cpp:434] scale4b_branch2a <- res4b_branch2a
I1210 18:42:18.100911  1585 net.cpp:395] scale4b_branch2a -> res4b_branch2a (in-place)
I1210 18:42:18.101037  1585 layer_factory.hpp:77] Creating layer scale4b_branch2a
I1210 18:42:18.101389  1585 net.cpp:150] Setting up scale4b_branch2a
I1210 18:42:18.101423  1585 net.cpp:157] Top shape: 50 256 14 14 (2508800)
I1210 18:42:18.101440  1585 net.cpp:165] Memory required for data: 9252455000
I1210 18:42:18.101464  1585 layer_factory.hpp:77] Creating layer res4b_branch2a_relu
I1210 18:42:18.101486  1585 net.cpp:100] Creating Layer res4b_branch2a_relu
I1210 18:42:18.101505  1585 net.cpp:434] res4b_branch2a_relu <- res4b_branch2a
I1210 18:42:18.101555  1585 net.cpp:395] res4b_branch2a_relu -> res4b_branch2a (in-place)
I1210 18:42:18.102003  1585 net.cpp:150] Setting up res4b_branch2a_relu
I1210 18:42:18.102041  1585 net.cpp:157] Top shape: 50 256 14 14 (2508800)
I1210 18:42:18.102059  1585 net.cpp:165] Memory required for data: 9262490200
I1210 18:42:18.102082  1585 layer_factory.hpp:77] Creating layer res4b_branch2b
I1210 18:42:18.102144  1585 net.cpp:100] Creating Layer res4b_branch2b
I1210 18:42:18.102169  1585 net.cpp:434] res4b_branch2b <- res4b_branch2a
I1210 18:42:18.102233  1585 net.cpp:408] res4b_branch2b -> res4b_branch2b
I1210 18:42:18.141403  1585 net.cpp:150] Setting up res4b_branch2b
I1210 18:42:18.141448  1585 net.cpp:157] Top shape: 50 256 14 14 (2508800)
I1210 18:42:18.141468  1585 net.cpp:165] Memory required for data: 9272525400
I1210 18:42:18.141487  1585 layer_factory.hpp:77] Creating layer bn4b_branch2b
I1210 18:42:18.141508  1585 net.cpp:100] Creating Layer bn4b_branch2b
I1210 18:42:18.141526  1585 net.cpp:434] bn4b_branch2b <- res4b_branch2b
I1210 18:42:18.141605  1585 net.cpp:395] bn4b_branch2b -> res4b_branch2b (in-place)
I1210 18:42:18.142058  1585 net.cpp:150] Setting up bn4b_branch2b
I1210 18:42:18.142089  1585 net.cpp:157] Top shape: 50 256 14 14 (2508800)
I1210 18:42:18.142105  1585 net.cpp:165] Memory required for data: 9282560600
I1210 18:42:18.142128  1585 layer_factory.hpp:77] Creating layer scale4b_branch2b
I1210 18:42:18.142171  1585 net.cpp:100] Creating Layer scale4b_branch2b
I1210 18:42:18.142204  1585 net.cpp:434] scale4b_branch2b <- res4b_branch2b
I1210 18:42:18.142251  1585 net.cpp:395] scale4b_branch2b -> res4b_branch2b (in-place)
I1210 18:42:18.142371  1585 layer_factory.hpp:77] Creating layer scale4b_branch2b
I1210 18:42:18.142649  1585 net.cpp:150] Setting up scale4b_branch2b
I1210 18:42:18.142678  1585 net.cpp:157] Top shape: 50 256 14 14 (2508800)
I1210 18:42:18.142694  1585 net.cpp:165] Memory required for data: 9292595800
I1210 18:42:18.142714  1585 layer_factory.hpp:77] Creating layer res4b_branch2b_relu
I1210 18:42:18.142740  1585 net.cpp:100] Creating Layer res4b_branch2b_relu
I1210 18:42:18.142758  1585 net.cpp:434] res4b_branch2b_relu <- res4b_branch2b
I1210 18:42:18.142802  1585 net.cpp:395] res4b_branch2b_relu -> res4b_branch2b (in-place)
I1210 18:42:18.143177  1585 net.cpp:150] Setting up res4b_branch2b_relu
I1210 18:42:18.143218  1585 net.cpp:157] Top shape: 50 256 14 14 (2508800)
I1210 18:42:18.143236  1585 net.cpp:165] Memory required for data: 9302631000
I1210 18:42:18.143257  1585 layer_factory.hpp:77] Creating layer res4b_branch2c
I1210 18:42:18.143324  1585 net.cpp:100] Creating Layer res4b_branch2c
I1210 18:42:18.143348  1585 net.cpp:434] res4b_branch2c <- res4b_branch2b
I1210 18:42:18.143370  1585 net.cpp:408] res4b_branch2c -> res4b_branch2c
I1210 18:42:18.158486  1585 net.cpp:150] Setting up res4b_branch2c
I1210 18:42:18.158530  1585 net.cpp:157] Top shape: 50 1024 14 14 (10035200)
I1210 18:42:18.158548  1585 net.cpp:165] Memory required for data: 9342771800
I1210 18:42:18.158567  1585 layer_factory.hpp:77] Creating layer bn4b_branch2c
I1210 18:42:18.158609  1585 net.cpp:100] Creating Layer bn4b_branch2c
I1210 18:42:18.158632  1585 net.cpp:434] bn4b_branch2c <- res4b_branch2c
I1210 18:42:18.158651  1585 net.cpp:395] bn4b_branch2c -> res4b_branch2c (in-place)
I1210 18:42:18.159091  1585 net.cpp:150] Setting up bn4b_branch2c
I1210 18:42:18.159121  1585 net.cpp:157] Top shape: 50 1024 14 14 (10035200)
I1210 18:42:18.159135  1585 net.cpp:165] Memory required for data: 9382912600
I1210 18:42:18.159157  1585 layer_factory.hpp:77] Creating layer scale4b_branch2c
I1210 18:42:18.159183  1585 net.cpp:100] Creating Layer scale4b_branch2c
I1210 18:42:18.159210  1585 net.cpp:434] scale4b_branch2c <- res4b_branch2c
I1210 18:42:18.159255  1585 net.cpp:395] scale4b_branch2c -> res4b_branch2c (in-place)
I1210 18:42:18.159342  1585 layer_factory.hpp:77] Creating layer scale4b_branch2c
I1210 18:42:18.159639  1585 net.cpp:150] Setting up scale4b_branch2c
I1210 18:42:18.159667  1585 net.cpp:157] Top shape: 50 1024 14 14 (10035200)
I1210 18:42:18.159682  1585 net.cpp:165] Memory required for data: 9423053400
I1210 18:42:18.159701  1585 layer_factory.hpp:77] Creating layer res4b
I1210 18:42:18.159720  1585 net.cpp:100] Creating Layer res4b
I1210 18:42:18.159736  1585 net.cpp:434] res4b <- res4a_res4a_relu_0_split_1
I1210 18:42:18.159754  1585 net.cpp:434] res4b <- res4b_branch2c
I1210 18:42:18.159771  1585 net.cpp:408] res4b -> res4b
I1210 18:42:18.159853  1585 net.cpp:150] Setting up res4b
I1210 18:42:18.159880  1585 net.cpp:157] Top shape: 50 1024 14 14 (10035200)
I1210 18:42:18.159894  1585 net.cpp:165] Memory required for data: 9463194200
I1210 18:42:18.159914  1585 layer_factory.hpp:77] Creating layer res4b_relu
I1210 18:42:18.159957  1585 net.cpp:100] Creating Layer res4b_relu
I1210 18:42:18.159978  1585 net.cpp:434] res4b_relu <- res4b
I1210 18:42:18.159996  1585 net.cpp:395] res4b_relu -> res4b (in-place)
I1210 18:42:18.161569  1585 net.cpp:150] Setting up res4b_relu
I1210 18:42:18.161609  1585 net.cpp:157] Top shape: 50 1024 14 14 (10035200)
I1210 18:42:18.161710  1585 net.cpp:165] Memory required for data: 9503335000
I1210 18:42:18.161731  1585 layer_factory.hpp:77] Creating layer res4b_res4b_relu_0_split
I1210 18:42:18.161772  1585 net.cpp:100] Creating Layer res4b_res4b_relu_0_split
I1210 18:42:18.161794  1585 net.cpp:434] res4b_res4b_relu_0_split <- res4b
I1210 18:42:18.161814  1585 net.cpp:408] res4b_res4b_relu_0_split -> res4b_res4b_relu_0_split_0
I1210 18:42:18.161835  1585 net.cpp:408] res4b_res4b_relu_0_split -> res4b_res4b_relu_0_split_1
I1210 18:42:18.161984  1585 net.cpp:150] Setting up res4b_res4b_relu_0_split
I1210 18:42:18.162012  1585 net.cpp:157] Top shape: 50 1024 14 14 (10035200)
I1210 18:42:18.162030  1585 net.cpp:157] Top shape: 50 1024 14 14 (10035200)
I1210 18:42:18.162045  1585 net.cpp:165] Memory required for data: 9583616600
I1210 18:42:18.162060  1585 layer_factory.hpp:77] Creating layer res4c_branch2a
I1210 18:42:18.162107  1585 net.cpp:100] Creating Layer res4c_branch2a
I1210 18:42:18.162130  1585 net.cpp:434] res4c_branch2a <- res4b_res4b_relu_0_split_0
I1210 18:42:18.162150  1585 net.cpp:408] res4c_branch2a -> res4c_branch2a
I1210 18:42:18.172410  1585 net.cpp:150] Setting up res4c_branch2a
I1210 18:42:18.172469  1585 net.cpp:157] Top shape: 50 256 14 14 (2508800)
I1210 18:42:18.172490  1585 net.cpp:165] Memory required for data: 9593651800
I1210 18:42:18.172510  1585 layer_factory.hpp:77] Creating layer bn4c_branch2a
I1210 18:42:18.172530  1585 net.cpp:100] Creating Layer bn4c_branch2a
I1210 18:42:18.172547  1585 net.cpp:434] bn4c_branch2a <- res4c_branch2a
I1210 18:42:18.172565  1585 net.cpp:395] bn4c_branch2a -> res4c_branch2a (in-place)
I1210 18:42:18.172998  1585 net.cpp:150] Setting up bn4c_branch2a
I1210 18:42:18.173027  1585 net.cpp:157] Top shape: 50 256 14 14 (2508800)
I1210 18:42:18.173043  1585 net.cpp:165] Memory required for data: 9603687000
I1210 18:42:18.173063  1585 layer_factory.hpp:77] Creating layer scale4c_branch2a
I1210 18:42:18.173084  1585 net.cpp:100] Creating Layer scale4c_branch2a
I1210 18:42:18.173099  1585 net.cpp:434] scale4c_branch2a <- res4c_branch2a
I1210 18:42:18.173116  1585 net.cpp:395] scale4c_branch2a -> res4c_branch2a (in-place)
I1210 18:42:18.173252  1585 layer_factory.hpp:77] Creating layer scale4c_branch2a
I1210 18:42:18.173543  1585 net.cpp:150] Setting up scale4c_branch2a
I1210 18:42:18.173571  1585 net.cpp:157] Top shape: 50 256 14 14 (2508800)
I1210 18:42:18.173586  1585 net.cpp:165] Memory required for data: 9613722200
I1210 18:42:18.173610  1585 layer_factory.hpp:77] Creating layer res4c_branch2a_relu
I1210 18:42:18.173631  1585 net.cpp:100] Creating Layer res4c_branch2a_relu
I1210 18:42:18.173647  1585 net.cpp:434] res4c_branch2a_relu <- res4c_branch2a
I1210 18:42:18.173688  1585 net.cpp:395] res4c_branch2a_relu -> res4c_branch2a (in-place)
I1210 18:42:18.175246  1585 net.cpp:150] Setting up res4c_branch2a_relu
I1210 18:42:18.175283  1585 net.cpp:157] Top shape: 50 256 14 14 (2508800)
I1210 18:42:18.175299  1585 net.cpp:165] Memory required for data: 9623757400
I1210 18:42:18.175314  1585 layer_factory.hpp:77] Creating layer res4c_branch2b
I1210 18:42:18.175364  1585 net.cpp:100] Creating Layer res4c_branch2b
I1210 18:42:18.175386  1585 net.cpp:434] res4c_branch2b <- res4c_branch2a
I1210 18:42:18.175407  1585 net.cpp:408] res4c_branch2b -> res4c_branch2b
I1210 18:42:18.209570  1585 net.cpp:150] Setting up res4c_branch2b
I1210 18:42:18.209625  1585 net.cpp:157] Top shape: 50 256 14 14 (2508800)
I1210 18:42:18.209642  1585 net.cpp:165] Memory required for data: 9633792600
I1210 18:42:18.209661  1585 layer_factory.hpp:77] Creating layer bn4c_branch2b
I1210 18:42:18.209708  1585 net.cpp:100] Creating Layer bn4c_branch2b
I1210 18:42:18.209733  1585 net.cpp:434] bn4c_branch2b <- res4c_branch2b
I1210 18:42:18.209776  1585 net.cpp:395] bn4c_branch2b -> res4c_branch2b (in-place)
I1210 18:42:18.210209  1585 net.cpp:150] Setting up bn4c_branch2b
I1210 18:42:18.210239  1585 net.cpp:157] Top shape: 50 256 14 14 (2508800)
I1210 18:42:18.210254  1585 net.cpp:165] Memory required for data: 9643827800
I1210 18:42:18.210352  1585 layer_factory.hpp:77] Creating layer scale4c_branch2b
I1210 18:42:18.210386  1585 net.cpp:100] Creating Layer scale4c_branch2b
I1210 18:42:18.210407  1585 net.cpp:434] scale4c_branch2b <- res4c_branch2b
I1210 18:42:18.210425  1585 net.cpp:395] scale4c_branch2b -> res4c_branch2b (in-place)
I1210 18:42:18.210536  1585 layer_factory.hpp:77] Creating layer scale4c_branch2b
I1210 18:42:18.210810  1585 net.cpp:150] Setting up scale4c_branch2b
I1210 18:42:18.210839  1585 net.cpp:157] Top shape: 50 256 14 14 (2508800)
I1210 18:42:18.210852  1585 net.cpp:165] Memory required for data: 9653863000
I1210 18:42:18.210876  1585 layer_factory.hpp:77] Creating layer res4c_branch2b_relu
I1210 18:42:18.210901  1585 net.cpp:100] Creating Layer res4c_branch2b_relu
I1210 18:42:18.210917  1585 net.cpp:434] res4c_branch2b_relu <- res4c_branch2b
I1210 18:42:18.210934  1585 net.cpp:395] res4c_branch2b_relu -> res4c_branch2b (in-place)
I1210 18:42:18.211344  1585 net.cpp:150] Setting up res4c_branch2b_relu
I1210 18:42:18.211376  1585 net.cpp:157] Top shape: 50 256 14 14 (2508800)
I1210 18:42:18.211391  1585 net.cpp:165] Memory required for data: 9663898200
I1210 18:42:18.211407  1585 layer_factory.hpp:77] Creating layer res4c_branch2c
I1210 18:42:18.211453  1585 net.cpp:100] Creating Layer res4c_branch2c
I1210 18:42:18.211477  1585 net.cpp:434] res4c_branch2c <- res4c_branch2b
I1210 18:42:18.211519  1585 net.cpp:408] res4c_branch2c -> res4c_branch2c
I1210 18:42:18.232516  1585 net.cpp:150] Setting up res4c_branch2c
I1210 18:42:18.232558  1585 net.cpp:157] Top shape: 50 1024 14 14 (10035200)
I1210 18:42:18.232575  1585 net.cpp:165] Memory required for data: 9704039000
I1210 18:42:18.232594  1585 layer_factory.hpp:77] Creating layer bn4c_branch2c
I1210 18:42:18.232614  1585 net.cpp:100] Creating Layer bn4c_branch2c
I1210 18:42:18.232630  1585 net.cpp:434] bn4c_branch2c <- res4c_branch2c
I1210 18:42:18.232671  1585 net.cpp:395] bn4c_branch2c -> res4c_branch2c (in-place)
I1210 18:42:18.233121  1585 net.cpp:150] Setting up bn4c_branch2c
I1210 18:42:18.233150  1585 net.cpp:157] Top shape: 50 1024 14 14 (10035200)
I1210 18:42:18.233165  1585 net.cpp:165] Memory required for data: 9744179800
I1210 18:42:18.233186  1585 layer_factory.hpp:77] Creating layer scale4c_branch2c
I1210 18:42:18.233217  1585 net.cpp:100] Creating Layer scale4c_branch2c
I1210 18:42:18.233234  1585 net.cpp:434] scale4c_branch2c <- res4c_branch2c
I1210 18:42:18.233253  1585 net.cpp:395] scale4c_branch2c -> res4c_branch2c (in-place)
I1210 18:42:18.233358  1585 layer_factory.hpp:77] Creating layer scale4c_branch2c
I1210 18:42:18.233641  1585 net.cpp:150] Setting up scale4c_branch2c
I1210 18:42:18.233669  1585 net.cpp:157] Top shape: 50 1024 14 14 (10035200)
I1210 18:42:18.233683  1585 net.cpp:165] Memory required for data: 9784320600
I1210 18:42:18.233707  1585 layer_factory.hpp:77] Creating layer res4c
I1210 18:42:18.233755  1585 net.cpp:100] Creating Layer res4c
I1210 18:42:18.233777  1585 net.cpp:434] res4c <- res4b_res4b_relu_0_split_1
I1210 18:42:18.233794  1585 net.cpp:434] res4c <- res4c_branch2c
I1210 18:42:18.233813  1585 net.cpp:408] res4c -> res4c
I1210 18:42:18.233912  1585 net.cpp:150] Setting up res4c
I1210 18:42:18.233939  1585 net.cpp:157] Top shape: 50 1024 14 14 (10035200)
I1210 18:42:18.233954  1585 net.cpp:165] Memory required for data: 9824461400
I1210 18:42:18.233968  1585 layer_factory.hpp:77] Creating layer res4c_relu
I1210 18:42:18.233986  1585 net.cpp:100] Creating Layer res4c_relu
I1210 18:42:18.234002  1585 net.cpp:434] res4c_relu <- res4c
I1210 18:42:18.234045  1585 net.cpp:395] res4c_relu -> res4c (in-place)
I1210 18:42:18.234458  1585 net.cpp:150] Setting up res4c_relu
I1210 18:42:18.234493  1585 net.cpp:157] Top shape: 50 1024 14 14 (10035200)
I1210 18:42:18.234508  1585 net.cpp:165] Memory required for data: 9864602200
I1210 18:42:18.234524  1585 layer_factory.hpp:77] Creating layer res4c_res4c_relu_0_split
I1210 18:42:18.234542  1585 net.cpp:100] Creating Layer res4c_res4c_relu_0_split
I1210 18:42:18.234606  1585 net.cpp:434] res4c_res4c_relu_0_split <- res4c
I1210 18:42:18.234680  1585 net.cpp:408] res4c_res4c_relu_0_split -> res4c_res4c_relu_0_split_0
I1210 18:42:18.234707  1585 net.cpp:408] res4c_res4c_relu_0_split -> res4c_res4c_relu_0_split_1
I1210 18:42:18.234812  1585 net.cpp:150] Setting up res4c_res4c_relu_0_split
I1210 18:42:18.234856  1585 net.cpp:157] Top shape: 50 1024 14 14 (10035200)
I1210 18:42:18.234874  1585 net.cpp:157] Top shape: 50 1024 14 14 (10035200)
I1210 18:42:18.234889  1585 net.cpp:165] Memory required for data: 9944883800
I1210 18:42:18.234903  1585 layer_factory.hpp:77] Creating layer res4d_branch2a
I1210 18:42:18.234948  1585 net.cpp:100] Creating Layer res4d_branch2a
I1210 18:42:18.234971  1585 net.cpp:434] res4d_branch2a <- res4c_res4c_relu_0_split_0
I1210 18:42:18.234992  1585 net.cpp:408] res4d_branch2a -> res4d_branch2a
I1210 18:42:18.246460  1585 net.cpp:150] Setting up res4d_branch2a
I1210 18:42:18.246502  1585 net.cpp:157] Top shape: 50 256 14 14 (2508800)
I1210 18:42:18.246520  1585 net.cpp:165] Memory required for data: 9954919000
I1210 18:42:18.246538  1585 layer_factory.hpp:77] Creating layer bn4d_branch2a
I1210 18:42:18.246587  1585 net.cpp:100] Creating Layer bn4d_branch2a
I1210 18:42:18.246609  1585 net.cpp:434] bn4d_branch2a <- res4d_branch2a
I1210 18:42:18.246629  1585 net.cpp:395] bn4d_branch2a -> res4d_branch2a (in-place)
I1210 18:42:18.247063  1585 net.cpp:150] Setting up bn4d_branch2a
I1210 18:42:18.247092  1585 net.cpp:157] Top shape: 50 256 14 14 (2508800)
I1210 18:42:18.247107  1585 net.cpp:165] Memory required for data: 9964954200
I1210 18:42:18.247131  1585 layer_factory.hpp:77] Creating layer scale4d_branch2a
I1210 18:42:18.247154  1585 net.cpp:100] Creating Layer scale4d_branch2a
I1210 18:42:18.247170  1585 net.cpp:434] scale4d_branch2a <- res4d_branch2a
I1210 18:42:18.247221  1585 net.cpp:395] scale4d_branch2a -> res4d_branch2a (in-place)
I1210 18:42:18.247319  1585 layer_factory.hpp:77] Creating layer scale4d_branch2a
I1210 18:42:18.247591  1585 net.cpp:150] Setting up scale4d_branch2a
I1210 18:42:18.247642  1585 net.cpp:157] Top shape: 50 256 14 14 (2508800)
I1210 18:42:18.247661  1585 net.cpp:165] Memory required for data: 9974989400
I1210 18:42:18.247681  1585 layer_factory.hpp:77] Creating layer res4d_branch2a_relu
I1210 18:42:18.247699  1585 net.cpp:100] Creating Layer res4d_branch2a_relu
I1210 18:42:18.247715  1585 net.cpp:434] res4d_branch2a_relu <- res4d_branch2a
I1210 18:42:18.247732  1585 net.cpp:395] res4d_branch2a_relu -> res4d_branch2a (in-place)
I1210 18:42:18.248183  1585 net.cpp:150] Setting up res4d_branch2a_relu
I1210 18:42:18.248250  1585 net.cpp:157] Top shape: 50 256 14 14 (2508800)
I1210 18:42:18.248270  1585 net.cpp:165] Memory required for data: 9985024600
I1210 18:42:18.248286  1585 layer_factory.hpp:77] Creating layer res4d_branch2b
I1210 18:42:18.248312  1585 net.cpp:100] Creating Layer res4d_branch2b
I1210 18:42:18.248332  1585 net.cpp:434] res4d_branch2b <- res4d_branch2a
I1210 18:42:18.248373  1585 net.cpp:408] res4d_branch2b -> res4d_branch2b
I1210 18:42:18.282639  1585 net.cpp:150] Setting up res4d_branch2b
I1210 18:42:18.282681  1585 net.cpp:157] Top shape: 50 256 14 14 (2508800)
I1210 18:42:18.282698  1585 net.cpp:165] Memory required for data: 9995059800
I1210 18:42:18.282717  1585 layer_factory.hpp:77] Creating layer bn4d_branch2b
I1210 18:42:18.282763  1585 net.cpp:100] Creating Layer bn4d_branch2b
I1210 18:42:18.282788  1585 net.cpp:434] bn4d_branch2b <- res4d_branch2b
I1210 18:42:18.282807  1585 net.cpp:395] bn4d_branch2b -> res4d_branch2b (in-place)
I1210 18:42:18.283264  1585 net.cpp:150] Setting up bn4d_branch2b
I1210 18:42:18.283293  1585 net.cpp:157] Top shape: 50 256 14 14 (2508800)
I1210 18:42:18.283309  1585 net.cpp:165] Memory required for data: 10005095000
I1210 18:42:18.283335  1585 layer_factory.hpp:77] Creating layer scale4d_branch2b
I1210 18:42:18.283357  1585 net.cpp:100] Creating Layer scale4d_branch2b
I1210 18:42:18.283375  1585 net.cpp:434] scale4d_branch2b <- res4d_branch2b
I1210 18:42:18.283464  1585 net.cpp:395] scale4d_branch2b -> res4d_branch2b (in-place)
I1210 18:42:18.283584  1585 layer_factory.hpp:77] Creating layer scale4d_branch2b
I1210 18:42:18.283862  1585 net.cpp:150] Setting up scale4d_branch2b
I1210 18:42:18.283913  1585 net.cpp:157] Top shape: 50 256 14 14 (2508800)
I1210 18:42:18.283933  1585 net.cpp:165] Memory required for data: 10015130200
I1210 18:42:18.283953  1585 layer_factory.hpp:77] Creating layer res4d_branch2b_relu
I1210 18:42:18.283972  1585 net.cpp:100] Creating Layer res4d_branch2b_relu
I1210 18:42:18.283987  1585 net.cpp:434] res4d_branch2b_relu <- res4d_branch2b
I1210 18:42:18.284004  1585 net.cpp:395] res4d_branch2b_relu -> res4d_branch2b (in-place)
I1210 18:42:18.284492  1585 net.cpp:150] Setting up res4d_branch2b_relu
I1210 18:42:18.284526  1585 net.cpp:157] Top shape: 50 256 14 14 (2508800)
I1210 18:42:18.284541  1585 net.cpp:165] Memory required for data: 10025165400
I1210 18:42:18.284556  1585 layer_factory.hpp:77] Creating layer res4d_branch2c
I1210 18:42:18.284607  1585 net.cpp:100] Creating Layer res4d_branch2c
I1210 18:42:18.284631  1585 net.cpp:434] res4d_branch2c <- res4d_branch2b
I1210 18:42:18.284652  1585 net.cpp:408] res4d_branch2c -> res4d_branch2c
I1210 18:42:18.305588  1585 net.cpp:150] Setting up res4d_branch2c
I1210 18:42:18.305656  1585 net.cpp:157] Top shape: 50 1024 14 14 (10035200)
I1210 18:42:18.305680  1585 net.cpp:165] Memory required for data: 10065306200
I1210 18:42:18.305699  1585 layer_factory.hpp:77] Creating layer bn4d_branch2c
I1210 18:42:18.305719  1585 net.cpp:100] Creating Layer bn4d_branch2c
I1210 18:42:18.305735  1585 net.cpp:434] bn4d_branch2c <- res4d_branch2c
I1210 18:42:18.305779  1585 net.cpp:395] bn4d_branch2c -> res4d_branch2c (in-place)
I1210 18:42:18.306236  1585 net.cpp:150] Setting up bn4d_branch2c
I1210 18:42:18.306265  1585 net.cpp:157] Top shape: 50 1024 14 14 (10035200)
I1210 18:42:18.306280  1585 net.cpp:165] Memory required for data: 10105447000
I1210 18:42:18.306306  1585 layer_factory.hpp:77] Creating layer scale4d_branch2c
I1210 18:42:18.306329  1585 net.cpp:100] Creating Layer scale4d_branch2c
I1210 18:42:18.306345  1585 net.cpp:434] scale4d_branch2c <- res4d_branch2c
I1210 18:42:18.306363  1585 net.cpp:395] scale4d_branch2c -> res4d_branch2c (in-place)
I1210 18:42:18.306473  1585 layer_factory.hpp:77] Creating layer scale4d_branch2c
I1210 18:42:18.306779  1585 net.cpp:150] Setting up scale4d_branch2c
I1210 18:42:18.306807  1585 net.cpp:157] Top shape: 50 1024 14 14 (10035200)
I1210 18:42:18.306823  1585 net.cpp:165] Memory required for data: 10145587800
I1210 18:42:18.306841  1585 layer_factory.hpp:77] Creating layer res4d
I1210 18:42:18.306865  1585 net.cpp:100] Creating Layer res4d
I1210 18:42:18.306885  1585 net.cpp:434] res4d <- res4c_res4c_relu_0_split_1
I1210 18:42:18.306901  1585 net.cpp:434] res4d <- res4d_branch2c
I1210 18:42:18.306944  1585 net.cpp:408] res4d -> res4d
I1210 18:42:18.307016  1585 net.cpp:150] Setting up res4d
I1210 18:42:18.307041  1585 net.cpp:157] Top shape: 50 1024 14 14 (10035200)
I1210 18:42:18.307054  1585 net.cpp:165] Memory required for data: 10185728600
I1210 18:42:18.307070  1585 layer_factory.hpp:77] Creating layer res4d_relu
I1210 18:42:18.307108  1585 net.cpp:100] Creating Layer res4d_relu
I1210 18:42:18.307130  1585 net.cpp:434] res4d_relu <- res4d
I1210 18:42:18.307147  1585 net.cpp:395] res4d_relu -> res4d (in-place)
I1210 18:42:18.308696  1585 net.cpp:150] Setting up res4d_relu
I1210 18:42:18.308742  1585 net.cpp:157] Top shape: 50 1024 14 14 (10035200)
I1210 18:42:18.308758  1585 net.cpp:165] Memory required for data: 10225869400
I1210 18:42:18.308774  1585 layer_factory.hpp:77] Creating layer res4d_res4d_relu_0_split
I1210 18:42:18.308794  1585 net.cpp:100] Creating Layer res4d_res4d_relu_0_split
I1210 18:42:18.308809  1585 net.cpp:434] res4d_res4d_relu_0_split <- res4d
I1210 18:42:18.308827  1585 net.cpp:408] res4d_res4d_relu_0_split -> res4d_res4d_relu_0_split_0
I1210 18:42:18.308848  1585 net.cpp:408] res4d_res4d_relu_0_split -> res4d_res4d_relu_0_split_1
I1210 18:42:18.309025  1585 net.cpp:150] Setting up res4d_res4d_relu_0_split
I1210 18:42:18.309082  1585 net.cpp:157] Top shape: 50 1024 14 14 (10035200)
I1210 18:42:18.309100  1585 net.cpp:157] Top shape: 50 1024 14 14 (10035200)
I1210 18:42:18.309113  1585 net.cpp:165] Memory required for data: 10306151000
I1210 18:42:18.309128  1585 layer_factory.hpp:77] Creating layer res4e_branch2a
I1210 18:42:18.309176  1585 net.cpp:100] Creating Layer res4e_branch2a
I1210 18:42:18.309208  1585 net.cpp:434] res4e_branch2a <- res4d_res4d_relu_0_split_0
I1210 18:42:18.309255  1585 net.cpp:408] res4e_branch2a -> res4e_branch2a
I1210 18:42:18.319525  1585 net.cpp:150] Setting up res4e_branch2a
I1210 18:42:18.319586  1585 net.cpp:157] Top shape: 50 256 14 14 (2508800)
I1210 18:42:18.319608  1585 net.cpp:165] Memory required for data: 10316186200
I1210 18:42:18.319628  1585 layer_factory.hpp:77] Creating layer bn4e_branch2a
I1210 18:42:18.319648  1585 net.cpp:100] Creating Layer bn4e_branch2a
I1210 18:42:18.319664  1585 net.cpp:434] bn4e_branch2a <- res4e_branch2a
I1210 18:42:18.319682  1585 net.cpp:395] bn4e_branch2a -> res4e_branch2a (in-place)
I1210 18:42:18.320148  1585 net.cpp:150] Setting up bn4e_branch2a
I1210 18:42:18.320179  1585 net.cpp:157] Top shape: 50 256 14 14 (2508800)
I1210 18:42:18.320202  1585 net.cpp:165] Memory required for data: 10326221400
I1210 18:42:18.320225  1585 layer_factory.hpp:77] Creating layer scale4e_branch2a
I1210 18:42:18.320252  1585 net.cpp:100] Creating Layer scale4e_branch2a
I1210 18:42:18.320269  1585 net.cpp:434] scale4e_branch2a <- res4e_branch2a
I1210 18:42:18.320287  1585 net.cpp:395] scale4e_branch2a -> res4e_branch2a (in-place)
I1210 18:42:18.320420  1585 layer_factory.hpp:77] Creating layer scale4e_branch2a
I1210 18:42:18.320713  1585 net.cpp:150] Setting up scale4e_branch2a
I1210 18:42:18.320740  1585 net.cpp:157] Top shape: 50 256 14 14 (2508800)
I1210 18:42:18.320755  1585 net.cpp:165] Memory required for data: 10336256600
I1210 18:42:18.320775  1585 layer_factory.hpp:77] Creating layer res4e_branch2a_relu
I1210 18:42:18.320792  1585 net.cpp:100] Creating Layer res4e_branch2a_relu
I1210 18:42:18.320808  1585 net.cpp:434] res4e_branch2a_relu <- res4e_branch2a
I1210 18:42:18.320850  1585 net.cpp:395] res4e_branch2a_relu -> res4e_branch2a (in-place)
I1210 18:42:18.322360  1585 net.cpp:150] Setting up res4e_branch2a_relu
I1210 18:42:18.322398  1585 net.cpp:157] Top shape: 50 256 14 14 (2508800)
I1210 18:42:18.322415  1585 net.cpp:165] Memory required for data: 10346291800
I1210 18:42:18.322430  1585 layer_factory.hpp:77] Creating layer res4e_branch2b
I1210 18:42:18.322480  1585 net.cpp:100] Creating Layer res4e_branch2b
I1210 18:42:18.322504  1585 net.cpp:434] res4e_branch2b <- res4e_branch2a
I1210 18:42:18.322549  1585 net.cpp:408] res4e_branch2b -> res4e_branch2b
I1210 18:42:18.356885  1585 net.cpp:150] Setting up res4e_branch2b
I1210 18:42:18.356926  1585 net.cpp:157] Top shape: 50 256 14 14 (2508800)
I1210 18:42:18.356943  1585 net.cpp:165] Memory required for data: 10356327000
I1210 18:42:18.356962  1585 layer_factory.hpp:77] Creating layer bn4e_branch2b
I1210 18:42:18.357008  1585 net.cpp:100] Creating Layer bn4e_branch2b
I1210 18:42:18.357031  1585 net.cpp:434] bn4e_branch2b <- res4e_branch2b
I1210 18:42:18.357050  1585 net.cpp:395] bn4e_branch2b -> res4e_branch2b (in-place)
I1210 18:42:18.357486  1585 net.cpp:150] Setting up bn4e_branch2b
I1210 18:42:18.357517  1585 net.cpp:157] Top shape: 50 256 14 14 (2508800)
I1210 18:42:18.357532  1585 net.cpp:165] Memory required for data: 10366362200
I1210 18:42:18.357553  1585 layer_factory.hpp:77] Creating layer scale4e_branch2b
I1210 18:42:18.357597  1585 net.cpp:100] Creating Layer scale4e_branch2b
I1210 18:42:18.357620  1585 net.cpp:434] scale4e_branch2b <- res4e_branch2b
I1210 18:42:18.357638  1585 net.cpp:395] scale4e_branch2b -> res4e_branch2b (in-place)
I1210 18:42:18.357755  1585 layer_factory.hpp:77] Creating layer scale4e_branch2b
I1210 18:42:18.358052  1585 net.cpp:150] Setting up scale4e_branch2b
I1210 18:42:18.358080  1585 net.cpp:157] Top shape: 50 256 14 14 (2508800)
I1210 18:42:18.358170  1585 net.cpp:165] Memory required for data: 10376397400
I1210 18:42:18.358202  1585 layer_factory.hpp:77] Creating layer res4e_branch2b_relu
I1210 18:42:18.358225  1585 net.cpp:100] Creating Layer res4e_branch2b_relu
I1210 18:42:18.358242  1585 net.cpp:434] res4e_branch2b_relu <- res4e_branch2b
I1210 18:42:18.358283  1585 net.cpp:395] res4e_branch2b_relu -> res4e_branch2b (in-place)
I1210 18:42:18.358656  1585 net.cpp:150] Setting up res4e_branch2b_relu
I1210 18:42:18.358687  1585 net.cpp:157] Top shape: 50 256 14 14 (2508800)
I1210 18:42:18.358702  1585 net.cpp:165] Memory required for data: 10386432600
I1210 18:42:18.358717  1585 layer_factory.hpp:77] Creating layer res4e_branch2c
I1210 18:42:18.358760  1585 net.cpp:100] Creating Layer res4e_branch2c
I1210 18:42:18.358783  1585 net.cpp:434] res4e_branch2c <- res4e_branch2b
I1210 18:42:18.358827  1585 net.cpp:408] res4e_branch2c -> res4e_branch2c
I1210 18:42:18.378512  1585 net.cpp:150] Setting up res4e_branch2c
I1210 18:42:18.378554  1585 net.cpp:157] Top shape: 50 1024 14 14 (10035200)
I1210 18:42:18.378572  1585 net.cpp:165] Memory required for data: 10426573400
I1210 18:42:18.378597  1585 layer_factory.hpp:77] Creating layer bn4e_branch2c
I1210 18:42:18.378626  1585 net.cpp:100] Creating Layer bn4e_branch2c
I1210 18:42:18.378648  1585 net.cpp:434] bn4e_branch2c <- res4e_branch2c
I1210 18:42:18.378666  1585 net.cpp:395] bn4e_branch2c -> res4e_branch2c (in-place)
I1210 18:42:18.378973  1585 net.cpp:150] Setting up bn4e_branch2c
I1210 18:42:18.379000  1585 net.cpp:157] Top shape: 50 1024 14 14 (10035200)
I1210 18:42:18.379014  1585 net.cpp:165] Memory required for data: 10466714200
I1210 18:42:18.379036  1585 layer_factory.hpp:77] Creating layer scale4e_branch2c
I1210 18:42:18.379056  1585 net.cpp:100] Creating Layer scale4e_branch2c
I1210 18:42:18.379072  1585 net.cpp:434] scale4e_branch2c <- res4e_branch2c
I1210 18:42:18.379091  1585 net.cpp:395] scale4e_branch2c -> res4e_branch2c (in-place)
I1210 18:42:18.379179  1585 layer_factory.hpp:77] Creating layer scale4e_branch2c
I1210 18:42:18.379387  1585 net.cpp:150] Setting up scale4e_branch2c
I1210 18:42:18.379416  1585 net.cpp:157] Top shape: 50 1024 14 14 (10035200)
I1210 18:42:18.379431  1585 net.cpp:165] Memory required for data: 10506855000
I1210 18:42:18.379451  1585 layer_factory.hpp:77] Creating layer res4e
I1210 18:42:18.379470  1585 net.cpp:100] Creating Layer res4e
I1210 18:42:18.379487  1585 net.cpp:434] res4e <- res4d_res4d_relu_0_split_1
I1210 18:42:18.379503  1585 net.cpp:434] res4e <- res4e_branch2c
I1210 18:42:18.379521  1585 net.cpp:408] res4e -> res4e
I1210 18:42:18.379585  1585 net.cpp:150] Setting up res4e
I1210 18:42:18.379606  1585 net.cpp:157] Top shape: 50 1024 14 14 (10035200)
I1210 18:42:18.379621  1585 net.cpp:165] Memory required for data: 10546995800
I1210 18:42:18.379634  1585 layer_factory.hpp:77] Creating layer res4e_relu
I1210 18:42:18.379662  1585 net.cpp:100] Creating Layer res4e_relu
I1210 18:42:18.379681  1585 net.cpp:434] res4e_relu <- res4e
I1210 18:42:18.379698  1585 net.cpp:395] res4e_relu -> res4e (in-place)
I1210 18:42:18.379954  1585 net.cpp:150] Setting up res4e_relu
I1210 18:42:18.379983  1585 net.cpp:157] Top shape: 50 1024 14 14 (10035200)
I1210 18:42:18.379998  1585 net.cpp:165] Memory required for data: 10587136600
I1210 18:42:18.380041  1585 layer_factory.hpp:77] Creating layer res4e_res4e_relu_0_split
I1210 18:42:18.380076  1585 net.cpp:100] Creating Layer res4e_res4e_relu_0_split
I1210 18:42:18.380095  1585 net.cpp:434] res4e_res4e_relu_0_split <- res4e
I1210 18:42:18.380115  1585 net.cpp:408] res4e_res4e_relu_0_split -> res4e_res4e_relu_0_split_0
I1210 18:42:18.380136  1585 net.cpp:408] res4e_res4e_relu_0_split -> res4e_res4e_relu_0_split_1
I1210 18:42:18.380230  1585 net.cpp:150] Setting up res4e_res4e_relu_0_split
I1210 18:42:18.380255  1585 net.cpp:157] Top shape: 50 1024 14 14 (10035200)
I1210 18:42:18.380272  1585 net.cpp:157] Top shape: 50 1024 14 14 (10035200)
I1210 18:42:18.380285  1585 net.cpp:165] Memory required for data: 10667418200
I1210 18:42:18.380328  1585 layer_factory.hpp:77] Creating layer res4f_branch2a
I1210 18:42:18.380355  1585 net.cpp:100] Creating Layer res4f_branch2a
I1210 18:42:18.380373  1585 net.cpp:434] res4f_branch2a <- res4e_res4e_relu_0_split_0
I1210 18:42:18.380394  1585 net.cpp:408] res4f_branch2a -> res4f_branch2a
I1210 18:42:18.391242  1585 net.cpp:150] Setting up res4f_branch2a
I1210 18:42:18.391283  1585 net.cpp:157] Top shape: 50 256 14 14 (2508800)
I1210 18:42:18.391300  1585 net.cpp:165] Memory required for data: 10677453400
I1210 18:42:18.391319  1585 layer_factory.hpp:77] Creating layer bn4f_branch2a
I1210 18:42:18.391340  1585 net.cpp:100] Creating Layer bn4f_branch2a
I1210 18:42:18.391358  1585 net.cpp:434] bn4f_branch2a <- res4f_branch2a
I1210 18:42:18.391376  1585 net.cpp:395] bn4f_branch2a -> res4f_branch2a (in-place)
I1210 18:42:18.391680  1585 net.cpp:150] Setting up bn4f_branch2a
I1210 18:42:18.391706  1585 net.cpp:157] Top shape: 50 256 14 14 (2508800)
I1210 18:42:18.391721  1585 net.cpp:165] Memory required for data: 10687488600
I1210 18:42:18.391741  1585 layer_factory.hpp:77] Creating layer scale4f_branch2a
I1210 18:42:18.391762  1585 net.cpp:100] Creating Layer scale4f_branch2a
I1210 18:42:18.391777  1585 net.cpp:434] scale4f_branch2a <- res4f_branch2a
I1210 18:42:18.391798  1585 net.cpp:395] scale4f_branch2a -> res4f_branch2a (in-place)
I1210 18:42:18.391881  1585 layer_factory.hpp:77] Creating layer scale4f_branch2a
I1210 18:42:18.392112  1585 net.cpp:150] Setting up scale4f_branch2a
I1210 18:42:18.392145  1585 net.cpp:157] Top shape: 50 256 14 14 (2508800)
I1210 18:42:18.392160  1585 net.cpp:165] Memory required for data: 10697523800
I1210 18:42:18.392180  1585 layer_factory.hpp:77] Creating layer res4f_branch2a_relu
I1210 18:42:18.392216  1585 net.cpp:100] Creating Layer res4f_branch2a_relu
I1210 18:42:18.392235  1585 net.cpp:434] res4f_branch2a_relu <- res4f_branch2a
I1210 18:42:18.392251  1585 net.cpp:395] res4f_branch2a_relu -> res4f_branch2a (in-place)
I1210 18:42:18.392511  1585 net.cpp:150] Setting up res4f_branch2a_relu
I1210 18:42:18.392539  1585 net.cpp:157] Top shape: 50 256 14 14 (2508800)
I1210 18:42:18.392554  1585 net.cpp:165] Memory required for data: 10707559000
I1210 18:42:18.392568  1585 layer_factory.hpp:77] Creating layer res4f_branch2b
I1210 18:42:18.392592  1585 net.cpp:100] Creating Layer res4f_branch2b
I1210 18:42:18.392609  1585 net.cpp:434] res4f_branch2b <- res4f_branch2a
I1210 18:42:18.392629  1585 net.cpp:408] res4f_branch2b -> res4f_branch2b
I1210 18:42:18.425176  1585 net.cpp:150] Setting up res4f_branch2b
I1210 18:42:18.425312  1585 net.cpp:157] Top shape: 50 256 14 14 (2508800)
I1210 18:42:18.425345  1585 net.cpp:165] Memory required for data: 10717594200
I1210 18:42:18.425376  1585 layer_factory.hpp:77] Creating layer bn4f_branch2b
I1210 18:42:18.425421  1585 net.cpp:100] Creating Layer bn4f_branch2b
I1210 18:42:18.425451  1585 net.cpp:434] bn4f_branch2b <- res4f_branch2b
I1210 18:42:18.425493  1585 net.cpp:395] bn4f_branch2b -> res4f_branch2b (in-place)
I1210 18:42:18.426108  1585 net.cpp:150] Setting up bn4f_branch2b
I1210 18:42:18.426151  1585 net.cpp:157] Top shape: 50 256 14 14 (2508800)
I1210 18:42:18.426175  1585 net.cpp:165] Memory required for data: 10727629400
I1210 18:42:18.426229  1585 layer_factory.hpp:77] Creating layer scale4f_branch2b
I1210 18:42:18.426278  1585 net.cpp:100] Creating Layer scale4f_branch2b
I1210 18:42:18.426309  1585 net.cpp:434] scale4f_branch2b <- res4f_branch2b
I1210 18:42:18.426337  1585 net.cpp:395] scale4f_branch2b -> res4f_branch2b (in-place)
I1210 18:42:18.426491  1585 layer_factory.hpp:77] Creating layer scale4f_branch2b
I1210 18:42:18.426913  1585 net.cpp:150] Setting up scale4f_branch2b
I1210 18:42:18.426954  1585 net.cpp:157] Top shape: 50 256 14 14 (2508800)
I1210 18:42:18.426977  1585 net.cpp:165] Memory required for data: 10737664600
I1210 18:42:18.427008  1585 layer_factory.hpp:77] Creating layer res4f_branch2b_relu
I1210 18:42:18.427037  1585 net.cpp:100] Creating Layer res4f_branch2b_relu
I1210 18:42:18.427196  1585 net.cpp:434] res4f_branch2b_relu <- res4f_branch2b
I1210 18:42:18.427268  1585 net.cpp:395] res4f_branch2b_relu -> res4f_branch2b (in-place)
I1210 18:42:18.427794  1585 net.cpp:150] Setting up res4f_branch2b_relu
I1210 18:42:18.427842  1585 net.cpp:157] Top shape: 50 256 14 14 (2508800)
I1210 18:42:18.427867  1585 net.cpp:165] Memory required for data: 10747699800
I1210 18:42:18.427897  1585 layer_factory.hpp:77] Creating layer res4f_branch2c
I1210 18:42:18.427971  1585 net.cpp:100] Creating Layer res4f_branch2c
I1210 18:42:18.428005  1585 net.cpp:434] res4f_branch2c <- res4f_branch2b
I1210 18:42:18.428081  1585 net.cpp:408] res4f_branch2c -> res4f_branch2c
I1210 18:42:18.458961  1585 net.cpp:150] Setting up res4f_branch2c
I1210 18:42:18.459018  1585 net.cpp:157] Top shape: 50 1024 14 14 (10035200)
I1210 18:42:18.459041  1585 net.cpp:165] Memory required for data: 10787840600
I1210 18:42:18.459066  1585 layer_factory.hpp:77] Creating layer bn4f_branch2c
I1210 18:42:18.459100  1585 net.cpp:100] Creating Layer bn4f_branch2c
I1210 18:42:18.459125  1585 net.cpp:434] bn4f_branch2c <- res4f_branch2c
I1210 18:42:18.459179  1585 net.cpp:395] bn4f_branch2c -> res4f_branch2c (in-place)
I1210 18:42:18.459823  1585 net.cpp:150] Setting up bn4f_branch2c
I1210 18:42:18.459859  1585 net.cpp:157] Top shape: 50 1024 14 14 (10035200)
I1210 18:42:18.459878  1585 net.cpp:165] Memory required for data: 10827981400
I1210 18:42:18.460108  1585 layer_factory.hpp:77] Creating layer scale4f_branch2c
I1210 18:42:18.460150  1585 net.cpp:100] Creating Layer scale4f_branch2c
I1210 18:42:18.460171  1585 net.cpp:434] scale4f_branch2c <- res4f_branch2c
I1210 18:42:18.460206  1585 net.cpp:395] scale4f_branch2c -> res4f_branch2c (in-place)
I1210 18:42:18.460355  1585 layer_factory.hpp:77] Creating layer scale4f_branch2c
I1210 18:42:18.460741  1585 net.cpp:150] Setting up scale4f_branch2c
I1210 18:42:18.460777  1585 net.cpp:157] Top shape: 50 1024 14 14 (10035200)
I1210 18:42:18.460795  1585 net.cpp:165] Memory required for data: 10868122200
I1210 18:42:18.460819  1585 layer_factory.hpp:77] Creating layer res4f
I1210 18:42:18.460875  1585 net.cpp:100] Creating Layer res4f
I1210 18:42:18.460903  1585 net.cpp:434] res4f <- res4e_res4e_relu_0_split_1
I1210 18:42:18.460925  1585 net.cpp:434] res4f <- res4f_branch2c
I1210 18:42:18.460949  1585 net.cpp:408] res4f -> res4f
I1210 18:42:18.461064  1585 net.cpp:150] Setting up res4f
I1210 18:42:18.461097  1585 net.cpp:157] Top shape: 50 1024 14 14 (10035200)
I1210 18:42:18.461115  1585 net.cpp:165] Memory required for data: 10908263000
I1210 18:42:18.461140  1585 layer_factory.hpp:77] Creating layer res4f_relu
I1210 18:42:18.461165  1585 net.cpp:100] Creating Layer res4f_relu
I1210 18:42:18.461200  1585 net.cpp:434] res4f_relu <- res4f
I1210 18:42:18.461257  1585 net.cpp:395] res4f_relu -> res4f (in-place)
I1210 18:42:18.463315  1585 net.cpp:150] Setting up res4f_relu
I1210 18:42:18.463361  1585 net.cpp:157] Top shape: 50 1024 14 14 (10035200)
I1210 18:42:18.463382  1585 net.cpp:165] Memory required for data: 10948403800
I1210 18:42:18.463402  1585 layer_factory.hpp:77] Creating layer res4f_res4f_relu_0_split
I1210 18:42:18.463424  1585 net.cpp:100] Creating Layer res4f_res4f_relu_0_split
I1210 18:42:18.463443  1585 net.cpp:434] res4f_res4f_relu_0_split <- res4f
I1210 18:42:18.463495  1585 net.cpp:408] res4f_res4f_relu_0_split -> res4f_res4f_relu_0_split_0
I1210 18:42:18.463527  1585 net.cpp:408] res4f_res4f_relu_0_split -> res4f_res4f_relu_0_split_1
I1210 18:42:18.463688  1585 net.cpp:150] Setting up res4f_res4f_relu_0_split
I1210 18:42:18.463721  1585 net.cpp:157] Top shape: 50 1024 14 14 (10035200)
I1210 18:42:18.463742  1585 net.cpp:157] Top shape: 50 1024 14 14 (10035200)
I1210 18:42:18.463757  1585 net.cpp:165] Memory required for data: 11028685400
I1210 18:42:18.463775  1585 layer_factory.hpp:77] Creating layer res5a_branch1
I1210 18:42:18.463836  1585 net.cpp:100] Creating Layer res5a_branch1
I1210 18:42:18.463862  1585 net.cpp:434] res5a_branch1 <- res4f_res4f_relu_0_split_0
I1210 18:42:18.463946  1585 net.cpp:408] res5a_branch1 -> res5a_branch1
I1210 18:42:18.578933  1585 net.cpp:150] Setting up res5a_branch1
I1210 18:42:18.578974  1585 net.cpp:157] Top shape: 50 2048 7 7 (5017600)
I1210 18:42:18.578990  1585 net.cpp:165] Memory required for data: 11048755800
I1210 18:42:18.579007  1585 layer_factory.hpp:77] Creating layer bn5a_branch1
I1210 18:42:18.579046  1585 net.cpp:100] Creating Layer bn5a_branch1
I1210 18:42:18.579066  1585 net.cpp:434] bn5a_branch1 <- res5a_branch1
I1210 18:42:18.579104  1585 net.cpp:395] bn5a_branch1 -> res5a_branch1 (in-place)
I1210 18:42:18.579571  1585 net.cpp:150] Setting up bn5a_branch1
I1210 18:42:18.579598  1585 net.cpp:157] Top shape: 50 2048 7 7 (5017600)
I1210 18:42:18.579612  1585 net.cpp:165] Memory required for data: 11068826200
I1210 18:42:18.579632  1585 layer_factory.hpp:77] Creating layer scale5a_branch1
I1210 18:42:18.579679  1585 net.cpp:100] Creating Layer scale5a_branch1
I1210 18:42:18.579697  1585 net.cpp:434] scale5a_branch1 <- res5a_branch1
I1210 18:42:18.579715  1585 net.cpp:395] scale5a_branch1 -> res5a_branch1 (in-place)
I1210 18:42:18.579794  1585 layer_factory.hpp:77] Creating layer scale5a_branch1
I1210 18:42:18.580109  1585 net.cpp:150] Setting up scale5a_branch1
I1210 18:42:18.580138  1585 net.cpp:157] Top shape: 50 2048 7 7 (5017600)
I1210 18:42:18.580152  1585 net.cpp:165] Memory required for data: 11088896600
I1210 18:42:18.580169  1585 layer_factory.hpp:77] Creating layer res5a_branch2a
I1210 18:42:18.580225  1585 net.cpp:100] Creating Layer res5a_branch2a
I1210 18:42:18.580247  1585 net.cpp:434] res5a_branch2a <- res4f_res4f_relu_0_split_1
I1210 18:42:18.580287  1585 net.cpp:408] res5a_branch2a -> res5a_branch2a
I1210 18:42:18.609210  1585 net.cpp:150] Setting up res5a_branch2a
I1210 18:42:18.609251  1585 net.cpp:157] Top shape: 50 512 7 7 (1254400)
I1210 18:42:18.609266  1585 net.cpp:165] Memory required for data: 11093914200
I1210 18:42:18.609283  1585 layer_factory.hpp:77] Creating layer bn5a_branch2a
I1210 18:42:18.609323  1585 net.cpp:100] Creating Layer bn5a_branch2a
I1210 18:42:18.609344  1585 net.cpp:434] bn5a_branch2a <- res5a_branch2a
I1210 18:42:18.609360  1585 net.cpp:395] bn5a_branch2a -> res5a_branch2a (in-place)
I1210 18:42:18.609808  1585 net.cpp:150] Setting up bn5a_branch2a
I1210 18:42:18.609834  1585 net.cpp:157] Top shape: 50 512 7 7 (1254400)
I1210 18:42:18.609848  1585 net.cpp:165] Memory required for data: 11098931800
I1210 18:42:18.609889  1585 layer_factory.hpp:77] Creating layer scale5a_branch2a
I1210 18:42:18.609912  1585 net.cpp:100] Creating Layer scale5a_branch2a
I1210 18:42:18.609927  1585 net.cpp:434] scale5a_branch2a <- res5a_branch2a
I1210 18:42:18.609943  1585 net.cpp:395] scale5a_branch2a -> res5a_branch2a (in-place)
I1210 18:42:18.610045  1585 layer_factory.hpp:77] Creating layer scale5a_branch2a
I1210 18:42:18.610357  1585 net.cpp:150] Setting up scale5a_branch2a
I1210 18:42:18.610383  1585 net.cpp:157] Top shape: 50 512 7 7 (1254400)
I1210 18:42:18.610396  1585 net.cpp:165] Memory required for data: 11103949400
I1210 18:42:18.610414  1585 layer_factory.hpp:77] Creating layer res5a_branch2a_relu
I1210 18:42:18.610452  1585 net.cpp:100] Creating Layer res5a_branch2a_relu
I1210 18:42:18.610472  1585 net.cpp:434] res5a_branch2a_relu <- res5a_branch2a
I1210 18:42:18.610488  1585 net.cpp:395] res5a_branch2a_relu -> res5a_branch2a (in-place)
I1210 18:42:18.613191  1585 net.cpp:150] Setting up res5a_branch2a_relu
I1210 18:42:18.613231  1585 net.cpp:157] Top shape: 50 512 7 7 (1254400)
I1210 18:42:18.613247  1585 net.cpp:165] Memory required for data: 11108967000
I1210 18:42:18.613266  1585 layer_factory.hpp:77] Creating layer res5a_branch2b
I1210 18:42:18.613314  1585 net.cpp:100] Creating Layer res5a_branch2b
I1210 18:42:18.613334  1585 net.cpp:434] res5a_branch2b <- res5a_branch2a
I1210 18:42:18.613353  1585 net.cpp:408] res5a_branch2b -> res5a_branch2b
I1210 18:42:18.738242  1585 net.cpp:150] Setting up res5a_branch2b
I1210 18:42:18.738288  1585 net.cpp:157] Top shape: 50 512 7 7 (1254400)
I1210 18:42:18.738358  1585 net.cpp:165] Memory required for data: 11113984600
I1210 18:42:18.738409  1585 layer_factory.hpp:77] Creating layer bn5a_branch2b
I1210 18:42:18.738451  1585 net.cpp:100] Creating Layer bn5a_branch2b
I1210 18:42:18.738472  1585 net.cpp:434] bn5a_branch2b <- res5a_branch2b
I1210 18:42:18.738520  1585 net.cpp:395] bn5a_branch2b -> res5a_branch2b (in-place)
I1210 18:42:18.738953  1585 net.cpp:150] Setting up bn5a_branch2b
I1210 18:42:18.738979  1585 net.cpp:157] Top shape: 50 512 7 7 (1254400)
I1210 18:42:18.738992  1585 net.cpp:165] Memory required for data: 11119002200
I1210 18:42:18.739012  1585 layer_factory.hpp:77] Creating layer scale5a_branch2b
I1210 18:42:18.739048  1585 net.cpp:100] Creating Layer scale5a_branch2b
I1210 18:42:18.739066  1585 net.cpp:434] scale5a_branch2b <- res5a_branch2b
I1210 18:42:18.739084  1585 net.cpp:395] scale5a_branch2b -> res5a_branch2b (in-place)
I1210 18:42:18.739161  1585 layer_factory.hpp:77] Creating layer scale5a_branch2b
I1210 18:42:18.739470  1585 net.cpp:150] Setting up scale5a_branch2b
I1210 18:42:18.739496  1585 net.cpp:157] Top shape: 50 512 7 7 (1254400)
I1210 18:42:18.739509  1585 net.cpp:165] Memory required for data: 11124019800
I1210 18:42:18.739526  1585 layer_factory.hpp:77] Creating layer res5a_branch2b_relu
I1210 18:42:18.739548  1585 net.cpp:100] Creating Layer res5a_branch2b_relu
I1210 18:42:18.739562  1585 net.cpp:434] res5a_branch2b_relu <- res5a_branch2b
I1210 18:42:18.739578  1585 net.cpp:395] res5a_branch2b_relu -> res5a_branch2b (in-place)
I1210 18:42:18.739953  1585 net.cpp:150] Setting up res5a_branch2b_relu
I1210 18:42:18.739981  1585 net.cpp:157] Top shape: 50 512 7 7 (1254400)
I1210 18:42:18.740002  1585 net.cpp:165] Memory required for data: 11129037400
I1210 18:42:18.740054  1585 layer_factory.hpp:77] Creating layer res5a_branch2c
I1210 18:42:18.740130  1585 net.cpp:100] Creating Layer res5a_branch2c
I1210 18:42:18.740154  1585 net.cpp:434] res5a_branch2c <- res5a_branch2b
I1210 18:42:18.740201  1585 net.cpp:408] res5a_branch2c -> res5a_branch2c
I1210 18:42:18.794925  1585 net.cpp:150] Setting up res5a_branch2c
I1210 18:42:18.794965  1585 net.cpp:157] Top shape: 50 2048 7 7 (5017600)
I1210 18:42:18.794982  1585 net.cpp:165] Memory required for data: 11149107800
I1210 18:42:18.794998  1585 layer_factory.hpp:77] Creating layer bn5a_branch2c
I1210 18:42:18.795017  1585 net.cpp:100] Creating Layer bn5a_branch2c
I1210 18:42:18.795032  1585 net.cpp:434] bn5a_branch2c <- res5a_branch2c
I1210 18:42:18.795073  1585 net.cpp:395] bn5a_branch2c -> res5a_branch2c (in-place)
I1210 18:42:18.795613  1585 net.cpp:150] Setting up bn5a_branch2c
I1210 18:42:18.795639  1585 net.cpp:157] Top shape: 50 2048 7 7 (5017600)
I1210 18:42:18.795653  1585 net.cpp:165] Memory required for data: 11169178200
I1210 18:42:18.795672  1585 layer_factory.hpp:77] Creating layer scale5a_branch2c
I1210 18:42:18.795696  1585 net.cpp:100] Creating Layer scale5a_branch2c
I1210 18:42:18.795711  1585 net.cpp:434] scale5a_branch2c <- res5a_branch2c
…
I1210 18:42:26.289722  1585 net.cpp:157] Top shape: 1 1024 14 14 (200704)
I1210 18:42:26.289734  1585 net.cpp:165] Memory required for data: 198897676
I1210 18:42:26.289747  1585 layer_factory.hpp:77] Creating layer res4d_branch2a
I1210 18:42:26.289773  1585 net.cpp:100] Creating Layer res4d_branch2a
I1210 18:42:26.289790  1585 net.cpp:434] res4d_branch2a <- res4c_res4c_relu_0_split_0
I1210 18:42:26.289806  1585 net.cpp:408] res4d_branch2a -> res4d_branch2a
I1210 18:42:26.301023  1585 net.cpp:150] Setting up res4d_branch2a
I1210 18:42:26.301067  1585 net.cpp:157] Top shape: 1 256 14 14 (50176)
I1210 18:42:26.301082  1585 net.cpp:165] Memory required for data: 199098380
I1210 18:42:26.301100  1585 layer_factory.hpp:77] Creating layer bn4d_branch2a
I1210 18:42:26.301117  1585 net.cpp:100] Creating Layer bn4d_branch2a
I1210 18:42:26.301132  1585 net.cpp:434] bn4d_branch2a <- res4d_branch2a
I1210 18:42:26.301156  1585 net.cpp:395] bn4d_branch2a -> res4d_branch2a (in-place)
I1210 18:42:26.301566  1585 net.cpp:150] Setting up bn4d_branch2a
I1210 18:42:26.301589  1585 net.cpp:157] Top shape: 1 256 14 14 (50176)
I1210 18:42:26.301602  1585 net.cpp:165] Memory required for data: 199299084
I1210 18:42:26.301621  1585 layer_factory.hpp:77] Creating layer scale4d_branch2a
I1210 18:42:26.301640  1585 net.cpp:100] Creating Layer scale4d_branch2a
I1210 18:42:26.301653  1585 net.cpp:434] scale4d_branch2a <- res4d_branch2a
I1210 18:42:26.301669  1585 net.cpp:395] scale4d_branch2a -> res4d_branch2a (in-place)
I1210 18:42:26.301777  1585 layer_factory.hpp:77] Creating layer scale4d_branch2a
I1210 18:42:26.302050  1585 net.cpp:150] Setting up scale4d_branch2a
I1210 18:42:26.302090  1585 net.cpp:157] Top shape: 1 256 14 14 (50176)
I1210 18:42:26.302119  1585 net.cpp:165] Memory required for data: 199499788
I1210 18:42:26.302139  1585 layer_factory.hpp:77] Creating layer res4d_branch2a_relu
I1210 18:42:26.302156  1585 net.cpp:100] Creating Layer res4d_branch2a_relu
I1210 18:42:26.302170  1585 net.cpp:434] res4d_branch2a_relu <- res4d_branch2a
I1210 18:42:26.302192  1585 net.cpp:395] res4d_branch2a_relu -> res4d_branch2a (in-place)
I1210 18:42:26.303699  1585 net.cpp:150] Setting up res4d_branch2a_relu
I1210 18:42:26.303735  1585 net.cpp:157] Top shape: 1 256 14 14 (50176)
I1210 18:42:26.303750  1585 net.cpp:165] Memory required for data: 199700492
I1210 18:42:26.303763  1585 layer_factory.hpp:77] Creating layer res4d_branch2b
I1210 18:42:26.303791  1585 net.cpp:100] Creating Layer res4d_branch2b
I1210 18:42:26.303808  1585 net.cpp:434] res4d_branch2b <- res4d_branch2a
I1210 18:42:26.303833  1585 net.cpp:408] res4d_branch2b -> res4d_branch2b
I1210 18:42:26.328538  1585 net.cpp:150] Setting up res4d_branch2b
I1210 18:42:26.328578  1585 net.cpp:157] Top shape: 1 256 14 14 (50176)
I1210 18:42:26.328594  1585 net.cpp:165] Memory required for data: 199901196
I1210 18:42:26.328611  1585 layer_factory.hpp:77] Creating layer bn4d_branch2b
I1210 18:42:26.328629  1585 net.cpp:100] Creating Layer bn4d_branch2b
I1210 18:42:26.328645  1585 net.cpp:434] bn4d_branch2b <- res4d_branch2b
I1210 18:42:26.328670  1585 net.cpp:395] bn4d_branch2b -> res4d_branch2b (in-place)
I1210 18:42:26.329097  1585 net.cpp:150] Setting up bn4d_branch2b
I1210 18:42:26.329123  1585 net.cpp:157] Top shape: 1 256 14 14 (50176)
I1210 18:42:26.329136  1585 net.cpp:165] Memory required for data: 200101900
I1210 18:42:26.329155  1585 layer_factory.hpp:77] Creating layer scale4d_branch2b
I1210 18:42:26.329174  1585 net.cpp:100] Creating Layer scale4d_branch2b
I1210 18:42:26.329188  1585 net.cpp:434] scale4d_branch2b <- res4d_branch2b
I1210 18:42:26.329203  1585 net.cpp:395] scale4d_branch2b -> res4d_branch2b (in-place)
I1210 18:42:26.329305  1585 layer_factory.hpp:77] Creating layer scale4d_branch2b
I1210 18:42:26.329560  1585 net.cpp:150] Setting up scale4d_branch2b
I1210 18:42:26.329584  1585 net.cpp:157] Top shape: 1 256 14 14 (50176)
I1210 18:42:26.329596  1585 net.cpp:165] Memory required for data: 200302604
I1210 18:42:26.329613  1585 layer_factory.hpp:77] Creating layer res4d_branch2b_relu
I1210 18:42:26.329629  1585 net.cpp:100] Creating Layer res4d_branch2b_relu
I1210 18:42:26.329643  1585 net.cpp:434] res4d_branch2b_relu <- res4d_branch2b
I1210 18:42:26.329665  1585 net.cpp:395] res4d_branch2b_relu -> res4d_branch2b (in-place)
I1210 18:42:26.331173  1585 net.cpp:150] Setting up res4d_branch2b_relu
I1210 18:42:26.331208  1585 net.cpp:157] Top shape: 1 256 14 14 (50176)
I1210 18:42:26.331224  1585 net.cpp:165] Memory required for data: 200503308
I1210 18:42:26.331238  1585 layer_factory.hpp:77] Creating layer res4d_branch2c
I1210 18:42:26.331261  1585 net.cpp:100] Creating Layer res4d_branch2c
I1210 18:42:26.331279  1585 net.cpp:434] res4d_branch2c <- res4d_branch2b
I1210 18:42:26.331296  1585 net.cpp:408] res4d_branch2c -> res4d_branch2c
I1210 18:42:26.344241  1585 net.cpp:150] Setting up res4d_branch2c
I1210 18:42:26.344280  1585 net.cpp:157] Top shape: 1 1024 14 14 (200704)
I1210 18:42:26.344296  1585 net.cpp:165] Memory required for data: 201306124
I1210 18:42:26.344313  1585 layer_factory.hpp:77] Creating layer bn4d_branch2c
I1210 18:42:26.344339  1585 net.cpp:100] Creating Layer bn4d_branch2c
I1210 18:42:26.344357  1585 net.cpp:434] bn4d_branch2c <- res4d_branch2c
I1210 18:42:26.344375  1585 net.cpp:395] bn4d_branch2c -> res4d_branch2c (in-place)
I1210 18:42:26.344795  1585 net.cpp:150] Setting up bn4d_branch2c
I1210 18:42:26.344820  1585 net.cpp:157] Top shape: 1 1024 14 14 (200704)
I1210 18:42:26.344832  1585 net.cpp:165] Memory required for data: 202108940
I1210 18:42:26.344851  1585 layer_factory.hpp:77] Creating layer scale4d_branch2c
I1210 18:42:26.344869  1585 net.cpp:100] Creating Layer scale4d_branch2c
I1210 18:42:26.344902  1585 net.cpp:434] scale4d_branch2c <- res4d_branch2c
I1210 18:42:26.344933  1585 net.cpp:395] scale4d_branch2c -> res4d_branch2c (in-place)
I1210 18:42:26.345049  1585 layer_factory.hpp:77] Creating layer scale4d_branch2c
I1210 18:42:26.345314  1585 net.cpp:150] Setting up scale4d_branch2c
I1210 18:42:26.345338  1585 net.cpp:157] Top shape: 1 1024 14 14 (200704)
I1210 18:42:26.345350  1585 net.cpp:165] Memory required for data: 202911756
I1210 18:42:26.345367  1585 layer_factory.hpp:77] Creating layer res4d
I1210 18:42:26.345391  1585 net.cpp:100] Creating Layer res4d
I1210 18:42:26.345408  1585 net.cpp:434] res4d <- res4c_res4c_relu_0_split_1
I1210 18:42:26.345423  1585 net.cpp:434] res4d <- res4d_branch2c
I1210 18:42:26.345439  1585 net.cpp:408] res4d -> res4d
I1210 18:42:26.345517  1585 net.cpp:150] Setting up res4d
I1210 18:42:26.345541  1585 net.cpp:157] Top shape: 1 1024 14 14 (200704)
I1210 18:42:26.345552  1585 net.cpp:165] Memory required for data: 203714572
I1210 18:42:26.345566  1585 layer_factory.hpp:77] Creating layer res4d_relu
I1210 18:42:26.345582  1585 net.cpp:100] Creating Layer res4d_relu
I1210 18:42:26.345597  1585 net.cpp:434] res4d_relu <- res4d
I1210 18:42:26.345618  1585 net.cpp:395] res4d_relu -> res4d (in-place)
I1210 18:42:26.345919  1585 net.cpp:150] Setting up res4d_relu
I1210 18:42:26.345947  1585 net.cpp:157] Top shape: 1 1024 14 14 (200704)
I1210 18:42:26.345960  1585 net.cpp:165] Memory required for data: 204517388
I1210 18:42:26.345983  1585 layer_factory.hpp:77] Creating layer res4d_res4d_relu_0_split
I1210 18:42:26.346001  1585 net.cpp:100] Creating Layer res4d_res4d_relu_0_split
I1210 18:42:26.346025  1585 net.cpp:434] res4d_res4d_relu_0_split <- res4d
I1210 18:42:26.346041  1585 net.cpp:408] res4d_res4d_relu_0_split -> res4d_res4d_relu_0_split_0
I1210 18:42:26.346060  1585 net.cpp:408] res4d_res4d_relu_0_split -> res4d_res4d_relu_0_split_1
I1210 18:42:26.346169  1585 net.cpp:150] Setting up res4d_res4d_relu_0_split
I1210 18:42:26.346192  1585 net.cpp:157] Top shape: 1 1024 14 14 (200704)
I1210 18:42:26.346206  1585 net.cpp:157] Top shape: 1 1024 14 14 (200704)
I1210 18:42:26.346218  1585 net.cpp:165] Memory required for data: 206123020
I1210 18:42:26.346231  1585 layer_factory.hpp:77] Creating layer res4e_branch2a
I1210 18:42:26.346256  1585 net.cpp:100] Creating Layer res4e_branch2a
I1210 18:42:26.346274  1585 net.cpp:434] res4e_branch2a <- res4d_res4d_relu_0_split_0
I1210 18:42:26.346292  1585 net.cpp:408] res4e_branch2a -> res4e_branch2a
I1210 18:42:26.358633  1585 net.cpp:150] Setting up res4e_branch2a
I1210 18:42:26.358672  1585 net.cpp:157] Top shape: 1 256 14 14 (50176)
I1210 18:42:26.358687  1585 net.cpp:165] Memory required for data: 206323724
I1210 18:42:26.358705  1585 layer_factory.hpp:77] Creating layer bn4e_branch2a
I1210 18:42:26.358731  1585 net.cpp:100] Creating Layer bn4e_branch2a
I1210 18:42:26.358748  1585 net.cpp:434] bn4e_branch2a <- res4e_branch2a
I1210 18:42:26.358764  1585 net.cpp:395] bn4e_branch2a -> res4e_branch2a (in-place)
I1210 18:42:26.359221  1585 net.cpp:150] Setting up bn4e_branch2a
I1210 18:42:26.359248  1585 net.cpp:157] Top shape: 1 256 14 14 (50176)
I1210 18:42:26.359262  1585 net.cpp:165] Memory required for data: 206524428
I1210 18:42:26.359288  1585 layer_factory.hpp:77] Creating layer scale4e_branch2a
I1210 18:42:26.359310  1585 net.cpp:100] Creating Layer scale4e_branch2a
I1210 18:42:26.359325  1585 net.cpp:434] scale4e_branch2a <- res4e_branch2a
I1210 18:42:26.359340  1585 net.cpp:395] scale4e_branch2a -> res4e_branch2a (in-place)
I1210 18:42:26.359452  1585 layer_factory.hpp:77] Creating layer scale4e_branch2a
I1210 18:42:26.359712  1585 net.cpp:150] Setting up scale4e_branch2a
I1210 18:42:26.359736  1585 net.cpp:157] Top shape: 1 256 14 14 (50176)
I1210 18:42:26.359750  1585 net.cpp:165] Memory required for data: 206725132
I1210 18:42:26.359766  1585 layer_factory.hpp:77] Creating layer res4e_branch2a_relu
I1210 18:42:26.359788  1585 net.cpp:100] Creating Layer res4e_branch2a_relu
I1210 18:42:26.359820  1585 net.cpp:434] res4e_branch2a_relu <- res4e_branch2a
I1210 18:42:26.359851  1585 net.cpp:395] res4e_branch2a_relu -> res4e_branch2a (in-place)
I1210 18:42:26.360204  1585 net.cpp:150] Setting up res4e_branch2a_relu
I1210 18:42:26.360236  1585 net.cpp:157] Top shape: 1 256 14 14 (50176)
I1210 18:42:26.360250  1585 net.cpp:165] Memory required for data: 206925836
I1210 18:42:26.360263  1585 layer_factory.hpp:77] Creating layer res4e_branch2b
I1210 18:42:26.360296  1585 net.cpp:100] Creating Layer res4e_branch2b
I1210 18:42:26.360313  1585 net.cpp:434] res4e_branch2b <- res4e_branch2a
I1210 18:42:26.360332  1585 net.cpp:408] res4e_branch2b -> res4e_branch2b
I1210 18:42:26.386220  1585 net.cpp:150] Setting up res4e_branch2b
I1210 18:42:26.386270  1585 net.cpp:157] Top shape: 1 256 14 14 (50176)
I1210 18:42:26.386288  1585 net.cpp:165] Memory required for data: 207126540
I1210 18:42:26.386306  1585 layer_factory.hpp:77] Creating layer bn4e_branch2b
I1210 18:42:26.386324  1585 net.cpp:100] Creating Layer bn4e_branch2b
I1210 18:42:26.386340  1585 net.cpp:434] bn4e_branch2b <- res4e_branch2b
I1210 18:42:26.386363  1585 net.cpp:395] bn4e_branch2b -> res4e_branch2b (in-place)
I1210 18:42:26.386788  1585 net.cpp:150] Setting up bn4e_branch2b
I1210 18:42:26.386813  1585 net.cpp:157] Top shape: 1 256 14 14 (50176)
I1210 18:42:26.386826  1585 net.cpp:165] Memory required for data: 207327244
I1210 18:42:26.386845  1585 layer_factory.hpp:77] Creating layer scale4e_branch2b
I1210 18:42:26.386863  1585 net.cpp:100] Creating Layer scale4e_branch2b
I1210 18:42:26.386878  1585 net.cpp:434] scale4e_branch2b <- res4e_branch2b
I1210 18:42:26.386893  1585 net.cpp:395] scale4e_branch2b -> res4e_branch2b (in-place)
I1210 18:42:26.387007  1585 layer_factory.hpp:77] Creating layer scale4e_branch2b
I1210 18:42:26.387274  1585 net.cpp:150] Setting up scale4e_branch2b
I1210 18:42:26.387298  1585 net.cpp:157] Top shape: 1 256 14 14 (50176)
I1210 18:42:26.387311  1585 net.cpp:165] Memory required for data: 207527948
I1210 18:42:26.387328  1585 layer_factory.hpp:77] Creating layer res4e_branch2b_relu
I1210 18:42:26.387344  1585 net.cpp:100] Creating Layer res4e_branch2b_relu
I1210 18:42:26.387358  1585 net.cpp:434] res4e_branch2b_relu <- res4e_branch2b
I1210 18:42:26.387379  1585 net.cpp:395] res4e_branch2b_relu -> res4e_branch2b (in-place)
I1210 18:42:26.387732  1585 net.cpp:150] Setting up res4e_branch2b_relu
I1210 18:42:26.387760  1585 net.cpp:157] Top shape: 1 256 14 14 (50176)
I1210 18:42:26.387774  1585 net.cpp:165] Memory required for data: 207728652
I1210 18:42:26.387787  1585 layer_factory.hpp:77] Creating layer res4e_branch2c
I1210 18:42:26.387814  1585 net.cpp:100] Creating Layer res4e_branch2c
I1210 18:42:26.387831  1585 net.cpp:434] res4e_branch2c <- res4e_branch2b
I1210 18:42:26.387848  1585 net.cpp:408] res4e_branch2c -> res4e_branch2c
I1210 18:42:26.402261  1585 net.cpp:150] Setting up res4e_branch2c
I1210 18:42:26.402338  1585 net.cpp:157] Top shape: 1 1024 14 14 (200704)
I1210 18:42:26.402367  1585 net.cpp:165] Memory required for data: 208531468
I1210 18:42:26.402398  1585 layer_factory.hpp:77] Creating layer bn4e_branch2c
I1210 18:42:26.402443  1585 net.cpp:100] Creating Layer bn4e_branch2c
I1210 18:42:26.402474  1585 net.cpp:434] bn4e_branch2c <- res4e_branch2c
I1210 18:42:26.402504  1585 net.cpp:395] bn4e_branch2c -> res4e_branch2c (in-place)
I1210 18:42:26.403223  1585 net.cpp:150] Setting up bn4e_branch2c
I1210 18:42:26.403266  1585 net.cpp:157] Top shape: 1 1024 14 14 (200704)
I1210 18:42:26.403290  1585 net.cpp:165] Memory required for data: 209334284
I1210 18:42:26.403324  1585 layer_factory.hpp:77] Creating layer scale4e_branch2c
I1210 18:42:26.403365  1585 net.cpp:100] Creating Layer scale4e_branch2c
I1210 18:42:26.403396  1585 net.cpp:434] scale4e_branch2c <- res4e_branch2c
I1210 18:42:26.403424  1585 net.cpp:395] scale4e_branch2c -> res4e_branch2c (in-place)
I1210 18:42:26.403589  1585 layer_factory.hpp:77] Creating layer scale4e_branch2c
I1210 18:42:26.404094  1585 net.cpp:150] Setting up scale4e_branch2c
I1210 18:42:26.404170  1585 net.cpp:157] Top shape: 1 1024 14 14 (200704)
I1210 18:42:26.404222  1585 net.cpp:165] Memory required for data: 210137100
I1210 18:42:26.404255  1585 layer_factory.hpp:77] Creating layer res4e
I1210 18:42:26.404286  1585 net.cpp:100] Creating Layer res4e
I1210 18:42:26.404312  1585 net.cpp:434] res4e <- res4d_res4d_relu_0_split_1
I1210 18:42:26.404340  1585 net.cpp:434] res4e <- res4e_branch2c
I1210 18:42:26.404378  1585 net.cpp:408] res4e -> res4e
I1210 18:42:26.404516  1585 net.cpp:150] Setting up res4e
I1210 18:42:26.404554  1585 net.cpp:157] Top shape: 1 1024 14 14 (200704)
I1210 18:42:26.404577  1585 net.cpp:165] Memory required for data: 210939916
I1210 18:42:26.404600  1585 layer_factory.hpp:77] Creating layer res4e_relu
I1210 18:42:26.404628  1585 net.cpp:100] Creating Layer res4e_relu
I1210 18:42:26.404654  1585 net.cpp:434] res4e_relu <- res4e
I1210 18:42:26.404681  1585 net.cpp:395] res4e_relu -> res4e (in-place)
I1210 18:42:26.405194  1585 net.cpp:150] Setting up res4e_relu
I1210 18:42:26.405242  1585 net.cpp:157] Top shape: 1 1024 14 14 (200704)
I1210 18:42:26.405267  1585 net.cpp:165] Memory required for data: 211742732
I1210 18:42:26.405290  1585 layer_factory.hpp:77] Creating layer res4e_res4e_relu_0_split
I1210 18:42:26.405318  1585 net.cpp:100] Creating Layer res4e_res4e_relu_0_split
I1210 18:42:26.405344  1585 net.cpp:434] res4e_res4e_relu_0_split <- res4e
I1210 18:42:26.405382  1585 net.cpp:408] res4e_res4e_relu_0_split -> res4e_res4e_relu_0_split_0
I1210 18:42:26.405421  1585 net.cpp:408] res4e_res4e_relu_0_split -> res4e_res4e_relu_0_split_1
I1210 18:42:26.405596  1585 net.cpp:150] Setting up res4e_res4e_relu_0_split
I1210 18:42:26.405633  1585 net.cpp:157] Top shape: 1 1024 14 14 (200704)
I1210 18:42:26.405659  1585 net.cpp:157] Top shape: 1 1024 14 14 (200704)
I1210 18:42:26.405681  1585 net.cpp:165] Memory required for data: 213348364
I1210 18:42:26.405704  1585 layer_factory.hpp:77] Creating layer res4f_branch2a
I1210 18:42:26.405756  1585 net.cpp:100] Creating Layer res4f_branch2a
I1210 18:42:26.405786  1585 net.cpp:434] res4f_branch2a <- res4e_res4e_relu_0_split_0
I1210 18:42:26.405817  1585 net.cpp:408] res4f_branch2a -> res4f_branch2a
I1210 18:42:26.424866  1585 net.cpp:150] Setting up res4f_branch2a
I1210 18:42:26.424924  1585 net.cpp:157] Top shape: 1 256 14 14 (50176)
I1210 18:42:26.424949  1585 net.cpp:165] Memory required for data: 213549068
I1210 18:42:26.424988  1585 layer_factory.hpp:77] Creating layer bn4f_branch2a
I1210 18:42:26.425029  1585 net.cpp:100] Creating Layer bn4f_branch2a
I1210 18:42:26.425055  1585 net.cpp:434] bn4f_branch2a <- res4f_branch2a
I1210 18:42:26.425081  1585 net.cpp:395] bn4f_branch2a -> res4f_branch2a (in-place)
I1210 18:42:26.425698  1585 net.cpp:150] Setting up bn4f_branch2a
I1210 18:42:26.425734  1585 net.cpp:157] Top shape: 1 256 14 14 (50176)
I1210 18:42:26.425755  1585 net.cpp:165] Memory required for data: 213749772
I1210 18:42:26.425783  1585 layer_factory.hpp:77] Creating layer scale4f_branch2a
I1210 18:42:26.425818  1585 net.cpp:100] Creating Layer scale4f_branch2a
I1210 18:42:26.425843  1585 net.cpp:434] scale4f_branch2a <- res4f_branch2a
I1210 18:42:26.425868  1585 net.cpp:395] scale4f_branch2a -> res4f_branch2a (in-place)
I1210 18:42:26.426033  1585 layer_factory.hpp:77] Creating layer scale4f_branch2a
I1210 18:42:26.426414  1585 net.cpp:150] Setting up scale4f_branch2a
I1210 18:42:26.426448  1585 net.cpp:157] Top shape: 1 256 14 14 (50176)
I1210 18:42:26.426468  1585 net.cpp:165] Memory required for data: 213950476
I1210 18:42:26.426494  1585 layer_factory.hpp:77] Creating layer res4f_branch2a_relu
I1210 18:42:26.426519  1585 net.cpp:100] Creating Layer res4f_branch2a_relu
I1210 18:42:26.426540  1585 net.cpp:434] res4f_branch2a_relu <- res4f_branch2a
I1210 18:42:26.426573  1585 net.cpp:395] res4f_branch2a_relu -> res4f_branch2a (in-place)
I1210 18:42:26.428913  1585 net.cpp:150] Setting up res4f_branch2a_relu
I1210 18:42:26.428979  1585 net.cpp:157] Top shape: 1 256 14 14 (50176)
I1210 18:42:26.429005  1585 net.cpp:165] Memory required for data: 214151180
I1210 18:42:26.429071  1585 layer_factory.hpp:77] Creating layer res4f_branch2b
I1210 18:42:26.429113  1585 net.cpp:100] Creating Layer res4f_branch2b
I1210 18:42:26.429141  1585 net.cpp:434] res4f_branch2b <- res4f_branch2a
I1210 18:42:26.429177  1585 net.cpp:408] res4f_branch2b -> res4f_branch2b
I1210 18:42:26.462975  1585 net.cpp:150] Setting up res4f_branch2b
I1210 18:42:26.463023  1585 net.cpp:157] Top shape: 1 256 14 14 (50176)
I1210 18:42:26.463042  1585 net.cpp:165] Memory required for data: 214351884
I1210 18:42:26.463063  1585 layer_factory.hpp:77] Creating layer bn4f_branch2b
I1210 18:42:26.463096  1585 net.cpp:100] Creating Layer bn4f_branch2b
I1210 18:42:26.463119  1585 net.cpp:434] bn4f_branch2b <- res4f_branch2b
I1210 18:42:26.463140  1585 net.cpp:395] bn4f_branch2b -> res4f_branch2b (in-place)
I1210 18:42:26.463652  1585 net.cpp:150] Setting up bn4f_branch2b
I1210 18:42:26.463682  1585 net.cpp:157] Top shape: 1 256 14 14 (50176)
I1210 18:42:26.463698  1585 net.cpp:165] Memory required for data: 214552588
I1210 18:42:26.463728  1585 layer_factory.hpp:77] Creating layer scale4f_branch2b
I1210 18:42:26.463752  1585 net.cpp:100] Creating Layer scale4f_branch2b
I1210 18:42:26.463770  1585 net.cpp:434] scale4f_branch2b <- res4f_branch2b
I1210 18:42:26.463788  1585 net.cpp:395] scale4f_branch2b -> res4f_branch2b (in-place)
I1210 18:42:26.463914  1585 layer_factory.hpp:77] Creating layer scale4f_branch2b
I1210 18:42:26.464287  1585 net.cpp:150] Setting up scale4f_branch2b
I1210 18:42:26.464321  1585 net.cpp:157] Top shape: 1 256 14 14 (50176)
I1210 18:42:26.464337  1585 net.cpp:165] Memory required for data: 214753292
I1210 18:42:26.464359  1585 layer_factory.hpp:77] Creating layer res4f_branch2b_relu
I1210 18:42:26.464385  1585 net.cpp:100] Creating Layer res4f_branch2b_relu
I1210 18:42:26.464406  1585 net.cpp:434] res4f_branch2b_relu <- res4f_branch2b
I1210 18:42:26.464426  1585 net.cpp:395] res4f_branch2b_relu -> res4f_branch2b (in-place)
I1210 18:42:26.466249  1585 net.cpp:150] Setting up res4f_branch2b_relu
I1210 18:42:26.466298  1585 net.cpp:157] Top shape: 1 256 14 14 (50176)
I1210 18:42:26.466320  1585 net.cpp:165] Memory required for data: 214953996
I1210 18:42:26.466336  1585 layer_factory.hpp:77] Creating layer res4f_branch2c
I1210 18:42:26.466361  1585 net.cpp:100] Creating Layer res4f_branch2c
I1210 18:42:26.466380  1585 net.cpp:434] res4f_branch2c <- res4f_branch2b
I1210 18:42:26.466408  1585 net.cpp:408] res4f_branch2c -> res4f_branch2c
I1210 18:42:26.482498  1585 net.cpp:150] Setting up res4f_branch2c
I1210 18:42:26.482550  1585 net.cpp:157] Top shape: 1 1024 14 14 (200704)
I1210 18:42:26.482570  1585 net.cpp:165] Memory required for data: 215756812
I1210 18:42:26.482589  1585 layer_factory.hpp:77] Creating layer bn4f_branch2c
I1210 18:42:26.482609  1585 net.cpp:100] Creating Layer bn4f_branch2c
I1210 18:42:26.482627  1585 net.cpp:434] bn4f_branch2c <- res4f_branch2c
I1210 18:42:26.482652  1585 net.cpp:395] bn4f_branch2c -> res4f_branch2c (in-place)
I1210 18:42:26.483171  1585 net.cpp:150] Setting up bn4f_branch2c
I1210 18:42:26.483201  1585 net.cpp:157] Top shape: 1 1024 14 14 (200704)
I1210 18:42:26.483216  1585 net.cpp:165] Memory required for data: 216559628
I1210 18:42:26.483295  1585 layer_factory.hpp:77] Creating layer scale4f_branch2c
I1210 18:42:26.483327  1585 net.cpp:100] Creating Layer scale4f_branch2c
I1210 18:42:26.483346  1585 net.cpp:434] scale4f_branch2c <- res4f_branch2c
I1210 18:42:26.483364  1585 net.cpp:395] scale4f_branch2c -> res4f_branch2c (in-place)
I1210 18:42:26.483477  1585 layer_factory.hpp:77] Creating layer scale4f_branch2c
I1210 18:42:26.483768  1585 net.cpp:150] Setting up scale4f_branch2c
I1210 18:42:26.483793  1585 net.cpp:157] Top shape: 1 1024 14 14 (200704)
I1210 18:42:26.483808  1585 net.cpp:165] Memory required for data: 217362444
I1210 18:42:26.483826  1585 layer_factory.hpp:77] Creating layer res4f
I1210 18:42:26.483845  1585 net.cpp:100] Creating Layer res4f
I1210 18:42:26.483861  1585 net.cpp:434] res4f <- res4e_res4e_relu_0_split_1
I1210 18:42:26.483898  1585 net.cpp:434] res4f <- res4f_branch2c
I1210 18:42:26.483942  1585 net.cpp:408] res4f -> res4f
I1210 18:42:26.484066  1585 net.cpp:150] Setting up res4f
I1210 18:42:26.484104  1585 net.cpp:157] Top shape: 1 1024 14 14 (200704)
I1210 18:42:26.484122  1585 net.cpp:165] Memory required for data: 218165260
I1210 18:42:26.484138  1585 layer_factory.hpp:77] Creating layer res4f_relu
I1210 18:42:26.484155  1585 net.cpp:100] Creating Layer res4f_relu
I1210 18:42:26.484171  1585 net.cpp:434] res4f_relu <- res4f
I1210 18:42:26.484187  1585 net.cpp:395] res4f_relu -> res4f (in-place)
I1210 18:42:26.484524  1585 net.cpp:150] Setting up res4f_relu
I1210 18:42:26.484555  1585 net.cpp:157] Top shape: 1 1024 14 14 (200704)
I1210 18:42:26.484568  1585 net.cpp:165] Memory required for data: 218968076
I1210 18:42:26.484583  1585 layer_factory.hpp:77] Creating layer res4f_res4f_relu_0_split
I1210 18:42:26.484601  1585 net.cpp:100] Creating Layer res4f_res4f_relu_0_split
I1210 18:42:26.484616  1585 net.cpp:434] res4f_res4f_relu_0_split <- res4f
I1210 18:42:26.484634  1585 net.cpp:408] res4f_res4f_relu_0_split -> res4f_res4f_relu_0_split_0
I1210 18:42:26.484653  1585 net.cpp:408] res4f_res4f_relu_0_split -> res4f_res4f_relu_0_split_1
I1210 18:42:26.484773  1585 net.cpp:150] Setting up res4f_res4f_relu_0_split
I1210 18:42:26.484797  1585 net.cpp:157] Top shape: 1 1024 14 14 (200704)
I1210 18:42:26.484813  1585 net.cpp:157] Top shape: 1 1024 14 14 (200704)
I1210 18:42:26.484827  1585 net.cpp:165] Memory required for data: 220573708
I1210 18:42:26.484841  1585 layer_factory.hpp:77] Creating layer res5a_branch1
I1210 18:42:26.484868  1585 net.cpp:100] Creating Layer res5a_branch1
I1210 18:42:26.484886  1585 net.cpp:434] res5a_branch1 <- res4f_res4f_relu_0_split_0
I1210 18:42:26.484912  1585 net.cpp:408] res5a_branch1 -> res5a_branch1
I1210 18:42:26.565245  1585 net.cpp:150] Setting up res5a_branch1
I1210 18:42:26.565289  1585 net.cpp:157] Top shape: 1 2048 7 7 (100352)
I1210 18:42:26.565305  1585 net.cpp:165] Memory required for data: 220975116
I1210 18:42:26.565322  1585 layer_factory.hpp:77] Creating layer bn5a_branch1
I1210 18:42:26.565340  1585 net.cpp:100] Creating Layer bn5a_branch1
I1210 18:42:26.565356  1585 net.cpp:434] bn5a_branch1 <- res5a_branch1
I1210 18:42:26.565381  1585 net.cpp:395] bn5a_branch1 -> res5a_branch1 (in-place)
I1210 18:42:26.565850  1585 net.cpp:150] Setting up bn5a_branch1
I1210 18:42:26.565876  1585 net.cpp:157] Top shape: 1 2048 7 7 (100352)
I1210 18:42:26.565888  1585 net.cpp:165] Memory required for data: 221376524
I1210 18:42:26.565907  1585 layer_factory.hpp:77] Creating layer scale5a_branch1
I1210 18:42:26.565925  1585 net.cpp:100] Creating Layer scale5a_branch1
I1210 18:42:26.565939  1585 net.cpp:434] scale5a_branch1 <- res5a_branch1
I1210 18:42:26.565961  1585 net.cpp:395] scale5a_branch1 -> res5a_branch1 (in-place)
I1210 18:42:26.566073  1585 layer_factory.hpp:77] Creating layer scale5a_branch1
I1210 18:42:26.566349  1585 net.cpp:150] Setting up scale5a_branch1
I1210 18:42:26.566372  1585 net.cpp:157] Top shape: 1 2048 7 7 (100352)
I1210 18:42:26.566385  1585 net.cpp:165] Memory required for data: 221777932
I1210 18:42:26.566401  1585 layer_factory.hpp:77] Creating layer res5a_branch2a
I1210 18:42:26.566428  1585 net.cpp:100] Creating Layer res5a_branch2a
I1210 18:42:26.566445  1585 net.cpp:434] res5a_branch2a <- res4f_res4f_relu_0_split_1
I1210 18:42:26.566468  1585 net.cpp:408] res5a_branch2a -> res5a_branch2a
I1210 18:42:26.588814  1585 net.cpp:150] Setting up res5a_branch2a
I1210 18:42:26.588855  1585 net.cpp:157] Top shape: 1 512 7 7 (25088)
I1210 18:42:26.588871  1585 net.cpp:165] Memory required for data: 221878284
I1210 18:42:26.588888  1585 layer_factory.hpp:77] Creating layer bn5a_branch2a
I1210 18:42:26.588917  1585 net.cpp:100] Creating Layer bn5a_branch2a
I1210 18:42:26.588935  1585 net.cpp:434] bn5a_branch2a <- res5a_branch2a
I1210 18:42:26.588953  1585 net.cpp:395] bn5a_branch2a -> res5a_branch2a (in-place)
I1210 18:42:26.589391  1585 net.cpp:150] Setting up bn5a_branch2a
I1210 18:42:26.589434  1585 net.cpp:157] Top shape: 1 512 7 7 (25088)
I1210 18:42:26.589465  1585 net.cpp:165] Memory required for data: 221978636
I1210 18:42:26.589493  1585 layer_factory.hpp:77] Creating layer scale5a_branch2a
I1210 18:42:26.589514  1585 net.cpp:100] Creating Layer scale5a_branch2a
I1210 18:42:26.589529  1585 net.cpp:434] scale5a_branch2a <- res5a_branch2a
I1210 18:42:26.589543  1585 net.cpp:395] scale5a_branch2a -> res5a_branch2a (in-place)
I1210 18:42:26.589646  1585 layer_factory.hpp:77] Creating layer scale5a_branch2a
I1210 18:42:26.589922  1585 net.cpp:150] Setting up scale5a_branch2a
I1210 18:42:26.589946  1585 net.cpp:157] Top shape: 1 512 7 7 (25088)
I1210 18:42:26.589959  1585 net.cpp:165] Memory required for data: 222078988
I1210 18:42:26.589987  1585 layer_factory.hpp:77] Creating layer res5a_branch2a_relu
I1210 18:42:26.590011  1585 net.cpp:100] Creating Layer res5a_branch2a_relu
I1210 18:42:26.590029  1585 net.cpp:434] res5a_branch2a_relu <- res5a_branch2a
I1210 18:42:26.590044  1585 net.cpp:395] res5a_branch2a_relu -> res5a_branch2a (in-place)
I1210 18:42:26.590385  1585 net.cpp:150] Setting up res5a_branch2a_relu
I1210 18:42:26.590414  1585 net.cpp:157] Top shape: 1 512 7 7 (25088)
I1210 18:42:26.590427  1585 net.cpp:165] Memory required for data: 222179340
I1210 18:42:26.590441  1585 layer_factory.hpp:77] Creating layer res5a_branch2b
I1210 18:42:26.590473  1585 net.cpp:100] Creating Layer res5a_branch2b
I1210 18:42:26.590492  1585 net.cpp:434] res5a_branch2b <- res5a_branch2a
I1210 18:42:26.590509  1585 net.cpp:408] res5a_branch2b -> res5a_branch2b
I1210 18:42:26.681443  1585 net.cpp:150] Setting up res5a_branch2b
I1210 18:42:26.681486  1585 net.cpp:157] Top shape: 1 512 7 7 (25088)
I1210 18:42:26.681502  1585 net.cpp:165] Memory required for data: 222279692
I1210 18:42:26.681520  1585 layer_factory.hpp:77] Creating layer bn5a_branch2b
I1210 18:42:26.681550  1585 net.cpp:100] Creating Layer bn5a_branch2b
I1210 18:42:26.681568  1585 net.cpp:434] bn5a_branch2b <- res5a_branch2b
I1210 18:42:26.681586  1585 net.cpp:395] bn5a_branch2b -> res5a_branch2b (in-place)
I1210 18:42:26.682045  1585 net.cpp:150] Setting up bn5a_branch2b
I1210 18:42:26.682072  1585 net.cpp:157] Top shape: 1 512 7 7 (25088)
I1210 18:42:26.682085  1585 net.cpp:165] Memory required for data: 222380044
I1210 18:42:26.682106  1585 layer_factory.hpp:77] Creating layer scale5a_branch2b
I1210 18:42:26.682122  1585 net.cpp:100] Creating Layer scale5a_branch2b
I1210 18:42:26.682137  1585 net.cpp:434] scale5a_branch2b <- res5a_branch2b
I1210 18:42:26.682153  1585 net.cpp:395] scale5a_branch2b -> res5a_branch2b (in-place)
I1210 18:42:26.682257  1585 layer_factory.hpp:77] Creating layer scale5a_branch2b
I1210 18:42:26.682544  1585 net.cpp:150] Setting up scale5a_branch2b
I1210 18:42:26.682569  1585 net.cpp:157] Top shape: 1 512 7 7 (25088)
I1210 18:42:26.682581  1585 net.cpp:165] Memory required for data: 222480396
I1210 18:42:26.682598  1585 layer_factory.hpp:77] Creating layer res5a_branch2b_relu
I1210 18:42:26.682621  1585 net.cpp:100] Creating Layer res5a_branch2b_relu
I1210 18:42:26.682638  1585 net.cpp:434] res5a_branch2b_relu <- res5a_branch2b
I1210 18:42:26.682653  1585 net.cpp:395] res5a_branch2b_relu -> res5a_branch2b (in-place)
I1210 18:42:26.682967  1585 net.cpp:150] Setting up res5a_branch2b_relu
I1210 18:42:26.682996  1585 net.cpp:157] Top shape: 1 512 7 7 (25088)
I1210 18:42:26.683009  1585 net.cpp:165] Memory required for data: 222580748
I1210 18:42:26.683023  1585 layer_factory.hpp:77] Creating layer res5a_branch2c
I1210 18:42:26.683054  1585 net.cpp:100] Creating Layer res5a_branch2c
I1210 18:42:26.683073  1585 net.cpp:434] res5a_branch2c <- res5a_branch2b
I1210 18:42:26.683089  1585 net.cpp:408] res5a_branch2c -> res5a_branch2c
I1210 18:42:26.723781  1585 net.cpp:150] Setting up res5a_branch2c
I1210 18:42:26.723822  1585 net.cpp:157] Top shape: 1 2048 7 7 (100352)
I1210 18:42:26.723837  1585 net.cpp:165] Memory required for data: 222982156
I1210 18:42:26.723855  1585 layer_factory.hpp:77] Creating layer bn5a_branch2c
I1210 18:42:26.723897  1585 net.cpp:100] Creating Layer bn5a_branch2c
I1210 18:42:26.723932  1585 net.cpp:434] bn5a_branch2c <- res5a_branch2c
I1210 18:42:26.723958  1585 net.cpp:395] bn5a_branch2c -> res5a_branch2c (in-place)
I1210 18:42:26.724447  1585 net.cpp:150] Setting up bn5a_branch2c
I1210 18:42:26.724475  1585 net.cpp:157] Top shape: 1 2048 7 7 (100352)
I1210 18:42:26.724489  1585 net.cpp:165] Memory required for data: 223383564
I1210 18:42:26.724508  1585 layer_factory.hpp:77] Creating layer scale5a_branch2c
I1210 18:42:26.724531  1585 net.cpp:100] Creating Layer scale5a_branch2c
I1210 18:42:26.724550  1585 net.cpp:434] scale5a_branch2c <- res5a_branch2c
I1210 18:42:26.724565  1585 net.cpp:395] scale5a_branch2c -> res5a_branch2c (in-place)
I1210 18:42:26.724664  1585 layer_factory.hpp:77] Creating layer scale5a_branch2c
I1210 18:42:26.724952  1585 net.cpp:150] Setting up scale5a_branch2c
I1210 18:42:26.724988  1585 net.cpp:157] Top shape: 1 2048 7 7 (100352)
I1210 18:42:26.725003  1585 net.cpp:165] Memory required for data: 223784972
I1210 18:42:26.725019  1585 layer_factory.hpp:77] Creating layer res5a
I1210 18:42:26.725037  1585 net.cpp:100] Creating Layer res5a
I1210 18:42:26.725051  1585 net.cpp:434] res5a <- res5a_branch1
I1210 18:42:26.725066  1585 net.cpp:434] res5a <- res5a_branch2c
I1210 18:42:26.725090  1585 net.cpp:408] res5a -> res5a
I1210 18:42:26.725167  1585 net.cpp:150] Setting up res5a
I1210 18:42:26.725195  1585 net.cpp:157] Top shape: 1 2048 7 7 (100352)
I1210 18:42:26.725210  1585 net.cpp:165] Memory required for data: 224186380
I1210 18:42:26.725224  1585 layer_factory.hpp:77] Creating layer res5a_relu
I1210 18:42:26.725239  1585 net.cpp:100] Creating Layer res5a_relu
I1210 18:42:26.725253  1585 net.cpp:434] res5a_relu <- res5a
I1210 18:42:26.725267  1585 net.cpp:395] res5a_relu -> res5a (in-place)
I1210 18:42:26.725574  1585 net.cpp:150] Setting up res5a_relu
I1210 18:42:26.725602  1585 net.cpp:157] Top shape: 1 2048 7 7 (100352)
I1210 18:42:26.725616  1585 net.cpp:165] Memory required for data: 224587788
I1210 18:42:26.725630  1585 layer_factory.hpp:77] Creating layer res5a_res5a_relu_0_split
I1210 18:42:26.725646  1585 net.cpp:100] Creating Layer res5a_res5a_relu_0_split
I1210 18:42:26.725659  1585 net.cpp:434] res5a_res5a_relu_0_split <- res5a
I1210 18:42:26.725675  1585 net.cpp:408] res5a_res5a_relu_0_split -> res5a_res5a_relu_0_split_0
I1210 18:42:26.725693  1585 net.cpp:408] res5a_res5a_relu_0_split -> res5a_res5a_relu_0_split_1
I1210 18:42:26.725807  1585 net.cpp:150] Setting up res5a_res5a_relu_0_split
I1210 18:42:26.725831  1585 net.cpp:157] Top shape: 1 2048 7 7 (100352)
I1210 18:42:26.725844  1585 net.cpp:157] Top shape: 1 2048 7 7 (100352)
I1210 18:42:26.725857  1585 net.cpp:165] Memory required for data: 225390604
I1210 18:42:26.725869  1585 layer_factory.hpp:77] Creating layer res5b_branch2a
I1210 18:42:26.725894  1585 net.cpp:100] Creating Layer res5b_branch2a
I1210 18:42:26.725930  1585 net.cpp:434] res5b_branch2a <- res5a_res5a_relu_0_split_0
I1210 18:42:26.725968  1585 net.cpp:408] res5b_branch2a -> res5b_branch2a
I1210 18:42:26.767763  1585 net.cpp:150] Setting up res5b_branch2a
I1210 18:42:26.767805  1585 net.cpp:157] Top shape: 1 512 7 7 (25088)
I1210 18:42:26.767822  1585 net.cpp:165] Memory required for data: 225490956
I1210 18:42:26.767838  1585 layer_factory.hpp:77] Creating layer bn5b_branch2a
I1210 18:42:26.767863  1585 net.cpp:100] Creating Layer bn5b_branch2a
I1210 18:42:26.767882  1585 net.cpp:434] bn5b_branch2a <- res5b_branch2a
I1210 18:42:26.767899  1585 net.cpp:395] bn5b_branch2a -> res5b_branch2a (in-place)
I1210 18:42:26.768394  1585 net.cpp:150] Setting up bn5b_branch2a
I1210 18:42:26.768424  1585 net.cpp:157] Top shape: 1 512 7 7 (25088)
I1210 18:42:26.768437  1585 net.cpp:165] Memory required for data: 225591308
I1210 18:42:26.768456  1585 layer_factory.hpp:77] Creating layer scale5b_branch2a
I1210 18:42:26.768474  1585 net.cpp:100] Creating Layer scale5b_branch2a
I1210 18:42:26.768489  1585 net.cpp:434] scale5b_branch2a <- res5b_branch2a
I1210 18:42:26.768529  1585 net.cpp:395] scale5b_branch2a -> res5b_branch2a (in-place)
I1210 18:42:26.768646  1585 layer_factory.hpp:77] Creating layer scale5b_branch2a
I1210 18:42:26.768926  1585 net.cpp:150] Setting up scale5b_branch2a
I1210 18:42:26.768950  1585 net.cpp:157] Top shape: 1 512 7 7 (25088)
I1210 18:42:26.768975  1585 net.cpp:165] Memory required for data: 225691660
I1210 18:42:26.768993  1585 layer_factory.hpp:77] Creating layer res5b_branch2a_relu
I1210 18:42:26.769018  1585 net.cpp:100] Creating Layer res5b_branch2a_relu
I1210 18:42:26.769034  1585 net.cpp:434] res5b_branch2a_relu <- res5b_branch2a
I1210 18:42:26.769049  1585 net.cpp:395] res5b_branch2a_relu -> res5b_branch2a (in-place)
I1210 18:42:26.769357  1585 net.cpp:150] Setting up res5b_branch2a_relu
I1210 18:42:26.769392  1585 net.cpp:157] Top shape: 1 512 7 7 (25088)
I1210 18:42:26.769407  1585 net.cpp:165] Memory required for data: 225792012
I1210 18:42:26.769420  1585 layer_factory.hpp:77] Creating layer res5b_branch2b
I1210 18:42:26.769440  1585 net.cpp:100] Creating Layer res5b_branch2b
I1210 18:42:26.769455  1585 net.cpp:434] res5b_branch2b <- res5b_branch2a
I1210 18:42:26.769479  1585 net.cpp:408] res5b_branch2b -> res5b_branch2b
I1210 18:42:26.860590  1585 net.cpp:150] Setting up res5b_branch2b
I1210 18:42:26.860640  1585 net.cpp:157] Top shape: 1 512 7 7 (25088)
I1210 18:42:26.860656  1585 net.cpp:165] Memory required for data: 225892364
I1210 18:42:26.860674  1585 layer_factory.hpp:77] Creating layer bn5b_branch2b
I1210 18:42:26.860697  1585 net.cpp:100] Creating Layer bn5b_branch2b
I1210 18:42:26.860714  1585 net.cpp:434] bn5b_branch2b <- res5b_branch2b
I1210 18:42:26.860731  1585 net.cpp:395] bn5b_branch2b -> res5b_branch2b (in-place)
I1210 18:42:26.861191  1585 net.cpp:150] Setting up bn5b_branch2b
I1210 18:42:26.861218  1585 net.cpp:157] Top shape: 1 512 7 7 (25088)
I1210 18:42:26.861232  1585 net.cpp:165] Memory required for data: 225992716
I1210 18:42:26.861253  1585 layer_factory.hpp:77] Creating layer scale5b_branch2b
I1210 18:42:26.861271  1585 net.cpp:100] Creating Layer scale5b_branch2b
I1210 18:42:26.861286  1585 net.cpp:434] scale5b_branch2b <- res5b_branch2b
I1210 18:42:26.861304  1585 net.cpp:395] scale5b_branch2b -> res5b_branch2b (in-place)
I1210 18:42:26.861402  1585 layer_factory.hpp:77] Creating layer scale5b_branch2b
I1210 18:42:26.861667  1585 net.cpp:150] Setting up scale5b_branch2b
I1210 18:42:26.861693  1585 net.cpp:157] Top shape: 1 512 7 7 (25088)
I1210 18:42:26.861706  1585 net.cpp:165] Memory required for data: 226093068
I1210 18:42:26.861724  1585 layer_factory.hpp:77] Creating layer res5b_branch2b_relu
I1210 18:42:26.861742  1585 net.cpp:100] Creating Layer res5b_branch2b_relu
I1210 18:42:26.861757  1585 net.cpp:434] res5b_branch2b_relu <- res5b_branch2b
I1210 18:42:26.861771  1585 net.cpp:395] res5b_branch2b_relu -> res5b_branch2b (in-place)
I1210 18:42:26.863287  1585 net.cpp:150] Setting up res5b_branch2b_relu
I1210 18:42:26.863323  1585 net.cpp:157] Top shape: 1 512 7 7 (25088)
I1210 18:42:26.863338  1585 net.cpp:165] Memory required for data: 226193420
I1210 18:42:26.863351  1585 layer_factory.hpp:77] Creating layer res5b_branch2c
I1210 18:42:26.863376  1585 net.cpp:100] Creating Layer res5b_branch2c
I1210 18:42:26.863394  1585 net.cpp:434] res5b_branch2c <- res5b_branch2b
I1210 18:42:26.863411  1585 net.cpp:408] res5b_branch2c -> res5b_branch2c
I1210 18:42:26.904863  1585 net.cpp:150] Setting up res5b_branch2c
I1210 18:42:26.904906  1585 net.cpp:157] Top shape: 1 2048 7 7 (100352)
I1210 18:42:26.904922  1585 net.cpp:165] Memory required for data: 226594828
I1210 18:42:26.904938  1585 layer_factory.hpp:77] Creating layer bn5b_branch2c
I1210 18:42:26.904973  1585 net.cpp:100] Creating Layer bn5b_branch2c
I1210 18:42:26.904994  1585 net.cpp:434] bn5b_branch2c <- res5b_branch2c
I1210 18:42:26.905019  1585 net.cpp:395] bn5b_branch2c -> res5b_branch2c (in-place)
I1210 18:42:26.905462  1585 net.cpp:150] Setting up bn5b_branch2c
I1210 18:42:26.905484  1585 net.cpp:157] Top shape: 1 2048 7 7 (100352)
I1210 18:42:26.905517  1585 net.cpp:165] Memory required for data: 226996236
I1210 18:42:26.905555  1585 layer_factory.hpp:77] Creating layer scale5b_branch2c
I1210 18:42:26.905580  1585 net.cpp:100] Creating Layer scale5b_branch2c
I1210 18:42:26.905597  1585 net.cpp:434] scale5b_branch2c <- res5b_branch2c
I1210 18:42:26.905613  1585 net.cpp:395] scale5b_branch2c -> res5b_branch2c (in-place)
I1210 18:42:26.905714  1585 layer_factory.hpp:77] Creating layer scale5b_branch2c
I1210 18:42:26.906019  1585 net.cpp:150] Setting up scale5b_branch2c
I1210 18:42:26.906044  1585 net.cpp:157] Top shape: 1 2048 7 7 (100352)
I1210 18:42:26.906057  1585 net.cpp:165] Memory required for data: 227397644
I1210 18:42:26.906075  1585 layer_factory.hpp:77] Creating layer res5b
I1210 18:42:26.906093  1585 net.cpp:100] Creating Layer res5b
I1210 18:42:26.906108  1585 net.cpp:434] res5b <- res5a_res5a_relu_0_split_1
I1210 18:42:26.906123  1585 net.cpp:434] res5b <- res5b_branch2c
I1210 18:42:26.906147  1585 net.cpp:408] res5b -> res5b
I1210 18:42:26.906230  1585 net.cpp:150] Setting up res5b
I1210 18:42:26.906260  1585 net.cpp:157] Top shape: 1 2048 7 7 (100352)
I1210 18:42:26.906275  1585 net.cpp:165] Memory required for data: 227799052
I1210 18:42:26.906292  1585 layer_factory.hpp:77] Creating layer res5b_relu
I1210 18:42:26.906311  1585 net.cpp:100] Creating Layer res5b_relu
I1210 18:42:26.906324  1585 net.cpp:434] res5b_relu <- res5b
I1210 18:42:26.906339  1585 net.cpp:395] res5b_relu -> res5b (in-place)
I1210 18:42:26.906643  1585 net.cpp:150] Setting up res5b_relu
I1210 18:42:26.906674  1585 net.cpp:157] Top shape: 1 2048 7 7 (100352)
I1210 18:42:26.906688  1585 net.cpp:165] Memory required for data: 228200460
I1210 18:42:26.906702  1585 layer_factory.hpp:77] Creating layer res5b_res5b_relu_0_split
I1210 18:42:26.906718  1585 net.cpp:100] Creating Layer res5b_res5b_relu_0_split
I1210 18:42:26.906733  1585 net.cpp:434] res5b_res5b_relu_0_split <- res5b
I1210 18:42:26.906749  1585 net.cpp:408] res5b_res5b_relu_0_split -> res5b_res5b_relu_0_split_0
I1210 18:42:26.906766  1585 net.cpp:408] res5b_res5b_relu_0_split -> res5b_res5b_relu_0_split_1
I1210 18:42:26.906880  1585 net.cpp:150] Setting up res5b_res5b_relu_0_split
I1210 18:42:26.906903  1585 net.cpp:157] Top shape: 1 2048 7 7 (100352)
I1210 18:42:26.906919  1585 net.cpp:157] Top shape: 1 2048 7 7 (100352)
I1210 18:42:26.906930  1585 net.cpp:165] Memory required for data: 229003276
I1210 18:42:26.906942  1585 layer_factory.hpp:77] Creating layer res5c_branch2a
I1210 18:42:26.906980  1585 net.cpp:100] Creating Layer res5c_branch2a
I1210 18:42:26.906999  1585 net.cpp:434] res5c_branch2a <- res5b_res5b_relu_0_split_0
I1210 18:42:26.907022  1585 net.cpp:408] res5c_branch2a -> res5c_branch2a
I1210 18:42:26.948887  1585 net.cpp:150] Setting up res5c_branch2a
I1210 18:42:26.948930  1585 net.cpp:157] Top shape: 1 512 7 7 (25088)
I1210 18:42:26.948946  1585 net.cpp:165] Memory required for data: 229103628
I1210 18:42:26.948976  1585 layer_factory.hpp:77] Creating layer bn5c_branch2a
I1210 18:42:26.949004  1585 net.cpp:100] Creating Layer bn5c_branch2a
I1210 18:42:26.949023  1585 net.cpp:434] bn5c_branch2a <- res5c_branch2a
I1210 18:42:26.949040  1585 net.cpp:395] bn5c_branch2a -> res5c_branch2a (in-place)
I1210 18:42:26.949489  1585 net.cpp:150] Setting up bn5c_branch2a
I1210 18:42:26.949514  1585 net.cpp:157] Top shape: 1 512 7 7 (25088)
I1210 18:42:26.949527  1585 net.cpp:165] Memory required for data: 229203980
I1210 18:42:26.949546  1585 layer_factory.hpp:77] Creating layer scale5c_branch2a
I1210 18:42:26.949563  1585 net.cpp:100] Creating Layer scale5c_branch2a
I1210 18:42:26.949579  1585 net.cpp:434] scale5c_branch2a <- res5c_branch2a
I1210 18:42:26.949600  1585 net.cpp:395] scale5c_branch2a -> res5c_branch2a (in-place)
I1210 18:42:26.949700  1585 layer_factory.hpp:77] Creating layer scale5c_branch2a
I1210 18:42:26.949997  1585 net.cpp:150] Setting up scale5c_branch2a
I1210 18:42:26.950023  1585 net.cpp:157] Top shape: 1 512 7 7 (25088)
I1210 18:42:26.950037  1585 net.cpp:165] Memory required for data: 229304332
I1210 18:42:26.950084  1585 layer_factory.hpp:77] Creating layer res5c_branch2a_relu
I1210 18:42:26.950109  1585 net.cpp:100] Creating Layer res5c_branch2a_relu
I1210 18:42:26.950126  1585 net.cpp:434] res5c_branch2a_relu <- res5c_branch2a
I1210 18:42:26.950141  1585 net.cpp:395] res5c_branch2a_relu -> res5c_branch2a (in-place)
I1210 18:42:26.950456  1585 net.cpp:150] Setting up res5c_branch2a_relu
I1210 18:42:26.950490  1585 net.cpp:157] Top shape: 1 512 7 7 (25088)
I1210 18:42:26.950507  1585 net.cpp:165] Memory required for data: 229404684
I1210 18:42:26.950520  1585 layer_factory.hpp:77] Creating layer res5c_branch2b
I1210 18:42:26.950541  1585 net.cpp:100] Creating Layer res5c_branch2b
I1210 18:42:26.950556  1585 net.cpp:434] res5c_branch2b <- res5c_branch2a
I1210 18:42:26.950579  1585 net.cpp:408] res5c_branch2b -> res5c_branch2b
I1210 18:42:27.041679  1585 net.cpp:150] Setting up res5c_branch2b
I1210 18:42:27.041735  1585 net.cpp:157] Top shape: 1 512 7 7 (25088)
I1210 18:42:27.041752  1585 net.cpp:165] Memory required for data: 229505036
I1210 18:42:27.041770  1585 layer_factory.hpp:77] Creating layer bn5c_branch2b
I1210 18:42:27.041800  1585 net.cpp:100] Creating Layer bn5c_branch2b
I1210 18:42:27.041820  1585 net.cpp:434] bn5c_branch2b <- res5c_branch2b
I1210 18:42:27.041838  1585 net.cpp:395] bn5c_branch2b -> res5c_branch2b (in-place)
I1210 18:42:27.042340  1585 net.cpp:150] Setting up bn5c_branch2b
I1210 18:42:27.042366  1585 net.cpp:157] Top shape: 1 512 7 7 (25088)
I1210 18:42:27.042381  1585 net.cpp:165] Memory required for data: 229605388
I1210 18:42:27.042400  1585 layer_factory.hpp:77] Creating layer scale5c_branch2b
I1210 18:42:27.042419  1585 net.cpp:100] Creating Layer scale5c_branch2b
I1210 18:42:27.042434  1585 net.cpp:434] scale5c_branch2b <- res5c_branch2b
I1210 18:42:27.042457  1585 net.cpp:395] scale5c_branch2b -> res5c_branch2b (in-place)
I1210 18:42:27.042562  1585 layer_factory.hpp:77] Creating layer scale5c_branch2b
I1210 18:42:27.042845  1585 net.cpp:150] Setting up scale5c_branch2b
I1210 18:42:27.042876  1585 net.cpp:157] Top shape: 1 512 7 7 (25088)
I1210 18:42:27.042891  1585 net.cpp:165] Memory required for data: 229705740
I1210 18:42:27.042909  1585 layer_factory.hpp:77] Creating layer res5c_branch2b_relu
I1210 18:42:27.042925  1585 net.cpp:100] Creating Layer res5c_branch2b_relu
I1210 18:42:27.042940  1585 net.cpp:434] res5c_branch2b_relu <- res5c_branch2b
I1210 18:42:27.042966  1585 net.cpp:395] res5c_branch2b_relu -> res5c_branch2b (in-place)
I1210 18:42:27.043288  1585 net.cpp:150] Setting up res5c_branch2b_relu
I1210 18:42:27.043321  1585 net.cpp:157] Top shape: 1 512 7 7 (25088)
I1210 18:42:27.043335  1585 net.cpp:165] Memory required for data: 229806092
I1210 18:42:27.043349  1585 layer_factory.hpp:77] Creating layer res5c_branch2c
I1210 18:42:27.043375  1585 net.cpp:100] Creating Layer res5c_branch2c
I1210 18:42:27.043393  1585 net.cpp:434] res5c_branch2c <- res5c_branch2b
I1210 18:42:27.043411  1585 net.cpp:408] res5c_branch2c -> res5c_branch2c
I1210 18:42:27.085443  1585 net.cpp:150] Setting up res5c_branch2c
I1210 18:42:27.085490  1585 net.cpp:157] Top shape: 1 2048 7 7 (100352)
I1210 18:42:27.085510  1585 net.cpp:165] Memory required for data: 230207500
I1210 18:42:27.085526  1585 layer_factory.hpp:77] Creating layer bn5c_branch2c
I1210 18:42:27.085544  1585 net.cpp:100] Creating Layer bn5c_branch2c
I1210 18:42:27.085561  1585 net.cpp:434] bn5c_branch2c <- res5c_branch2c
I1210 18:42:27.085577  1585 net.cpp:395] bn5c_branch2c -> res5c_branch2c (in-place)
I1210 18:42:27.086091  1585 net.cpp:150] Setting up bn5c_branch2c
I1210 18:42:27.086119  1585 net.cpp:157] Top shape: 1 2048 7 7 (100352)
I1210 18:42:27.086133  1585 net.cpp:165] Memory required for data: 230608908
I1210 18:42:27.086153  1585 layer_factory.hpp:77] Creating layer scale5c_branch2c
I1210 18:42:27.086170  1585 net.cpp:100] Creating Layer scale5c_branch2c
I1210 18:42:27.086185  1585 net.cpp:434] scale5c_branch2c <- res5c_branch2c
I1210 18:42:27.086201  1585 net.cpp:395] scale5c_branch2c -> res5c_branch2c (in-place)
I1210 18:42:27.086349  1585 layer_factory.hpp:77] Creating layer scale5c_branch2c
I1210 18:42:27.086685  1585 net.cpp:150] Setting up scale5c_branch2c
I1210 18:42:27.086711  1585 net.cpp:157] Top shape: 1 2048 7 7 (100352)
I1210 18:42:27.086724  1585 net.cpp:165] Memory required for data: 231010316
I1210 18:42:27.086741  1585 layer_factory.hpp:77] Creating layer res5c
I1210 18:42:27.086766  1585 net.cpp:100] Creating Layer res5c
I1210 18:42:27.086783  1585 net.cpp:434] res5c <- res5b_res5b_relu_0_split_1
I1210 18:42:27.086798  1585 net.cpp:434] res5c <- res5c_branch2c
I1210 18:42:27.086820  1585 net.cpp:408] res5c -> res5c
I1210 18:42:27.086904  1585 net.cpp:150] Setting up res5c
I1210 18:42:27.086925  1585 net.cpp:157] Top shape: 1 2048 7 7 (100352)
I1210 18:42:27.086936  1585 net.cpp:165] Memory required for data: 231411724
I1210 18:42:27.086961  1585 layer_factory.hpp:77] Creating layer res5c_relu
I1210 18:42:27.086987  1585 net.cpp:100] Creating Layer res5c_relu
I1210 18:42:27.087005  1585 net.cpp:434] res5c_relu <- res5c
I1210 18:42:27.087020  1585 net.cpp:395] res5c_relu -> res5c (in-place)
I1210 18:42:27.087324  1585 net.cpp:150] Setting up res5c_relu
I1210 18:42:27.087352  1585 net.cpp:157] Top shape: 1 2048 7 7 (100352)
I1210 18:42:27.087364  1585 net.cpp:165] Memory required for data: 231813132
I1210 18:42:27.087378  1585 layer_factory.hpp:77] Creating layer pool5
I1210 18:42:27.087407  1585 net.cpp:100] Creating Layer pool5
I1210 18:42:27.087424  1585 net.cpp:434] pool5 <- res5c
I1210 18:42:27.087441  1585 net.cpp:408] pool5 -> pool5
I1210 18:42:27.091593  1585 net.cpp:150] Setting up pool5
I1210 18:42:27.091631  1585 net.cpp:157] Top shape: 1 2048 1 1 (2048)
I1210 18:42:27.091647  1585 net.cpp:165] Memory required for data: 231821324
I1210 18:42:27.091661  1585 layer_factory.hpp:77] Creating layer fc10000
I1210 18:42:27.091681  1585 net.cpp:100] Creating Layer fc10000
I1210 18:42:27.091696  1585 net.cpp:434] fc10000 <- pool5
I1210 18:42:27.091720  1585 net.cpp:408] fc10000 -> fc10000
I1210 18:42:29.070552  1585 net.cpp:150] Setting up fc10000
I1210 18:42:29.070677  1585 net.cpp:157] Top shape: 1 81773 (81773)
I1210 18:42:29.070698  1585 net.cpp:165] Memory required for data: 232148416
I1210 18:42:29.070720  1585 layer_factory.hpp:77] Creating layer fc10000_fc10000_0_split
I1210 18:42:29.070744  1585 net.cpp:100] Creating Layer fc10000_fc10000_0_split
I1210 18:42:29.070761  1585 net.cpp:434] fc10000_fc10000_0_split <- fc10000
I1210 18:42:29.070780  1585 net.cpp:408] fc10000_fc10000_0_split -> fc10000_fc10000_0_split_0
I1210 18:42:29.070802  1585 net.cpp:408] fc10000_fc10000_0_split -> fc10000_fc10000_0_split_1
I1210 18:42:29.070924  1585 net.cpp:150] Setting up fc10000_fc10000_0_split
I1210 18:42:29.070950  1585 net.cpp:157] Top shape: 1 81773 (81773)
I1210 18:42:29.070966  1585 net.cpp:157] Top shape: 1 81773 (81773)
I1210 18:42:29.070978  1585 net.cpp:165] Memory required for data: 232802600
I1210 18:42:29.070991  1585 layer_factory.hpp:77] Creating layer loss
I1210 18:42:29.071008  1585 net.cpp:100] Creating Layer loss
I1210 18:42:29.071022  1585 net.cpp:434] loss <- fc10000_fc10000_0_split_0
I1210 18:42:29.071038  1585 net.cpp:434] loss <- label_data_1_split_0
I1210 18:42:29.071075  1585 net.cpp:408] loss -> loss
…
